variable_length_meta_model.pth (torch, 604101 bytes, 59 tensors)

dataset_encoder.positional_encoding f4 [200, 64]
0	0xbfa9fbe5	-1.3279997
1	0x3ca977d2	0.020687018
2	0xbf85ca48	-1.0452356
3	0x3fbfd5cf	1.4987124
4	0x40117e29	2.2733252
5	0xbf5ea979	-0.86977345
6	0x3f9c5a26	1.2215011
7	0xbf251a19	-0.64492947
8	0xbec21183	-0.37903985
9	0xbe8703dd	-0.26370135
10	0xbfc0483f	-1.5022048
11	0x3e95065a	0.29106408
12	0xbfe08f40	-1.7543716
13	0x3f1b3e52	0.6064197
14	0x3f75d5b7	0.9602923
15	0x3e81d199	0.25355223
16	0x3faedfa8	1.3662004
17	0x3ffea1c7	1.989312
18	0x3f21a41a	0.63141024
19	0xbf95f302	-1.1714785
20	0x3f2d588a	0.67713225
21	0xbeea2cb2	-0.45737225
22	0x3f03c865	0.5147765
23	0x3f06512a	0.52467597
24	0x3ec15fb7	0.37768337
25	0x403868e2	2.8814015
26	0x3fd94d81	1.6976777
27	0xbf45fbca	-0.77337325
28	0xc00ac430	-2.1682243
29	0xc0094389	-2.144747
30	0x3e9e1253	0.30873355
31	0x3fec1ca6	1.8446243
32	0x3f187121	0.5954762
33	0x3f87ed2c	1.0619254
34	0x3ee8cc4d	0.4546837
35	0xbe13ca6d	-0.14432688
36	0x3f88d25f	1.06892
37	0xbf96c9c8	-1.1780329
38	0x3ff1ed4c	1.8900542
39	0xbe44df41	-0.1922579
40	0x3fe09919	1.7546722
41	0xbf052301	-0.52006537
42	0x3e2fbbc0	0.17161465
43	0xbd19dc74	-0.037563756
44	0xbf76b537	-0.9637026
45	0x3e588026	0.21142635
46	0x3facb183	1.3491672
47	0xbfa524e5	-1.2901884
48	0xbfbfc591	-1.4982167
49	0x3fe5e053	1.7959083
50	0x3f40d8a3	0.7533056
51	0x3f85a108	1.0439768
52	0x3f2d5d5c	0.6772058
53	0x3fc73f83	1.5566257
54	0x3e1e38e1	0.15451385
55	0xbfbb8601	-1.465027
56	0x3f2e4e33	0.6808807
57	0x3ee656aa	0.44987994
58	0x3f2bf1a4	0.6716559
59	0x3eb930a9	0.36169937
60	0x3fee87b3	1.8635162
61	0xbfc4f6ad	-1.538778
62	0x3eab5886	0.33465976
63	0x3fa0279b	1.2512087
64	0x3f9b4b27	1.213231
65	0xbf7cea57	-0.98795074
66	0xbe8ef575	-0.27921644
67	0xc0040bde	-2.0632243
68	0x3ffde03a	1.9834054
69	0x3ffada13	1.9597801
70	0xbe3fb6d9	-0.18722095
71	0xbfdd6ad3	-1.7298225
72	0x3ecc53b3	0.39907607
73	0x3f65c109	0.89747673
74	0x3f814b19	1.0101043
75	0xbfae725e	-1.3628652
76	0x3fb86338	1.4405279
77	0x3e0370a4	0.12835938
78	0xbe19110c	-0.14947909
79	0xbf825e43	-1.0185016
80	0x3e7643dc	0.24049324
81	0x3fec340b	1.8453382
82	0x3f270963	0.652487
83	0xbe2d5d35	-0.16930087
84	0x3eb2c211	0.34913686
85	0xbfaadef6	-1.3349292
86	0xbf207d7e	-0.62691486
87	0xbfc517df	-1.539791
88	0x3e94691a	0.28986436
89	0x3f637a0a	0.8885809
90	0xbe739621	-0.23787738
91	0xbeb08f0a	-0.3448413
92	0x3e83bb99	0.25729063
93	0x3f9dc943	1.2327045
94	0xbf4465f3	-0.7671806
95	0x3efb3c41	0.49069408
96	0xbe26361b	-0.16231577
97	0x3f7d4d17	0.98945755
98	0xbca26fc0	-0.019828677
99	0x3f875d53	1.0575355
100	0x3ffd522b	1.9790701
101	0x3eb9a058	0.36255145
102	0x3d5be32c	0.053683445
103	0x3fe50371	1.7891675
104	0x3ebbe230	0.36696005
105	0xbe42fa98	-0.19040906
106	0xbf8c5084	-1.0962071
107	0xbf93a44f	-1.1534518
108	0x3fe32d2e	1.7748163
109	0xbfb79aa6	-1.434407
110	0x3ed04932	0.40680844
111	0x3ea4e963	0.3220931
112	0x3f8dba02	1.107239
113	0x3c958755	0.018253008
114	0xbf928ee0	-1.1449852
115	0x3f1f5a5e	0.62247264
116	0x3edac452	0.42727906
117	0x3eb2a4ae	0.34891266
118	0xbe28fff7	-0.16503893
119	0xbeb407ac	-0.35162103
120	0x3e81126b	0.25209364
121	0x3eae862e	0.34086746
122	0xbe38562c	-0.18001622
123	0xbf881a1b	-1.0632967
124	0x3deb86dc	0.11500332
125	0xbf927a0d	-1.1443497
126	0x3f6fe656	0.9371084
127	0xbef70985	-0.4824945
128	0x3f8e9a5d	1.1140858
129	0xbf44b432	-0.76837456
130	0xbe34f45b	-0.17671339
131	0xbf05a968	-0.5221162
132	0x3f2b2f34	0.668689
133	0xbe99ac84	-0.3001443
134	0xbe8592e0	-0.2608862
135	0x3efad37c	0.48989475
136	0xbfc5ceeb	-1.5453771
137	0x3fdd7130	1.7300167
138	0xc0007680	-2.0072327
139	0x3fbbf65d	1.4684559
140	0x3f279f03	0.6547701
141	0xbf2681ea	-0.65041983
142	0x3f346c9b	0.7047822
143	0xbfb12ef2	-1.3842452
144	0xc001e01f	-2.0293043
145	0xbf617ab5	-0.8807786
146	0x3ed89bee	0.42306465
147	0xbf944f20	-1.1586647
148	0x3e87cf7f	0.26525494
149	0x3e1856fe	0.14876935
150	0xbf5ca81a	-0.86194
151	0x3f0bb579	0.5457378
152	0xbeec1bbf	-0.4611492
153	0xbf579a4b	-0.8421981
154	0x3f991667	1.1959962
155	0xbf649c5e	-0.893011
156	0x3d0b755f	0.03404748
157	0x3fc99374	1.5748124
158	0xbeb40d56	-0.35166425
159	0xbe9e51a6	-0.30921668
160	0x3f17f6e0	0.59361076
161	0xbeefd224	-0.46840012
162	0xbf918c47	-1.1370934
163	0x3d37e7fc	0.044898972
164	0xbf074443	-0.52838534
165	0x3aa217d8	0.0012366725
166	0xc00d4f86	-2.2079787
167	0x3fba66dd	1.4562641
168	0xbf56df76	-0.83934724
169	0x3fbe65b8	1.4874792
170	0x3f0e98fd	0.5570219
171	0xbfc2e604	-1.5226445
172	0xbe179d20	-0.14806032
173	0xbc0e37f8	-0.008680336
174	0x3fa829dc	1.3137774
175	0xbf664efe	-0.8996428
176	0xbe94698c	-0.28986776
177	0x3f819ebb	1.0126566
178	0xbf8f8681	-1.1212922
179	0xbeef742c	-0.4676832
180	0x3fe9f282	1.8277133
181	0xbf019a5f	-0.50626177
182	0x3f7b1369	0.9807649
183	0x3ea67ffd	0.32519522
184	0x3fb6a4ff	1.4269103
185	0xbf9e3ac7	-1.2361687
186	0xbfb399f3	-1.4031357
187	0x3e7b2e5f	0.24529408
188	0xbf981b58	-1.1883345
189	0xbf0919d6	-0.5355505
190	0x40086af4	2.131528
191	0x3f931ee1	1.1493798
192	0x3fef3465	1.8687865
193	0x3f6b8107	0.91993755
194	0xbf69ea9f	-0.9137363
195	0x3f6f6dd5	0.93526965
196	0xbb22363e	-0.002475157
197	0xbf5ea14f	-0.8696489
198	0xbe37e5d5	-0.17958768
199	0x3fba9881	1.457779
200	0xbe6739e6	-0.2258068
201	0x40207db8	2.5076733
202	0xbf25ef72	-0.6481849
203	0x3fe1f790	1.7653675
204	0xbf8ce9f0	-1.1008892
205	0xbeb0774a	-0.3446601
206	0xbfef4363	-1.869244
207	0xbdc879c9	-0.09788854
208	0x3d658ffa	0.05604551
209	0x3fb02e2c	1.376409
210	0xbf0c4b49	-0.54802376
211	0xbe0f47e1	-0.13992263
212	0x4012fe10	2.2967567
213	0xbf91314f	-1.1343173
214	0xbd4bbea6	-0.049742363
215	0xbf5d463b	-0.8643529
216	0x3ed77f31	0.42089227
217	0x3d84bd30	0.06481397
218	0xbfa0641c	-1.2530551
219	0xbe530273	-0.20606403
220	0x3eb0a7c1	0.34502986
221	0xbf4165df	-0.7554607
222	0xbdd1ff7b	-0.10253807
223	0x3f8a548f	1.0807055
224	0x3f71ead7	0.9449896
225	0x3f1ca661	0.61191374
226	0x3f8adf3d	1.0849377
227	0xbf047119	-0.51735073
228	0x3f138c49	0.57635933
229	0xbf2a078c	-0.66417766
230	0x3e52e732	0.20596007
231	0xbebe5462	-0.37173754
232	0xbfaf3b8d	-1.3690048
233	0x3f3ddcef	0.7416524
234	0xbfaee052	-1.3662207
235	0xbe2f95e2	-0.1714702
236	0x4044ee28	3.077036
237	0x3ed2201d	0.41040125
238	0xbfa1c2b1	-1.263754
239	0x3e65d73b	0.22445385
240	0xbf0b4d97	-0.5441527
241	0x3e92b1b2	0.28651196
242	0x3f01be81	0.5068131
243	0x3f8bea08	1.0930796
244	0x3f50c352	0.81548035
245	0x3fd94400	1.6973877
246	0x3db2ca4c	0.08729991
247	0x3e8d9db1	0.27659371
248	0x3f127393	0.572076
249	0xbfab96cc	-1.3405395
250	0xbefda808	-0.4954226
251	0xc0057a8f	-2.0856054
252	0xbf4407e7	-0.7657456
253	0xbf4fbb73	-0.811454
254	0xc01390d3	-2.3057144
255	0xbf989df4	-1.1923203

dataset_encoder.feature_embedding.weight f4 [64, 1]
0	0x3f1dac09	0.6159063
1	0xbf750227	-0.9570641
2	0xbf2a94c1	-0.6663323
3	0xbf2f6840	-0.6851845
4	0xbf732649	-0.94980294
5	0xbf7265f4	-0.9468682
6	0xbf33ad94	-0.70186734
7	0xbf7b23c4	-0.9810145
8	0xbdd2436a	-0.102667645
9	0xbcf464c7	-0.02983321
10	0x3f33a786	0.70177495
11	0xbcc8c5d8	-0.024508402
12	0xbe6978a2	-0.22799924
13	0x3e64f6f2	0.22359827
14	0xbe14ac3d	-0.14518829
15	0x3ed70949	0.41999272
16	0x3efeff4a	0.49804145
17	0x3f43bc52	0.7645923
18	0x3f0a778c	0.54088664
19	0x3dcfdad4	0.1014916
20	0xbf415dfc	-0.75534034
21	0xbe54910f	-0.2075846
22	0xbef9f11e	-0.4881677
23	0xbf72b7e7	-0.9481186
24	0xbf785c8e	-0.9701623
25	0xbddce7ea	-0.107864216
26	0x3f4ad096	0.79224527
27	0x3f148fbc	0.5803182
28	0x3f115b90	0.5678034
29	0xbe889cd0	-0.26682138
30	0x3d340481	0.043949608
31	0xbd03c2ed	-0.032168318
32	0xbcd8cdf3	-0.026465392
33	0x3eb766ad	0.35820523
34	0x3f3f395d	0.74696904
35	0x3f0bdea8	0.5463662
36	0xbe747591	-0.23872973
37	0xbe1490bc	-0.14508337
38	0x3dd29279	0.10281844
39	0xbf0f05e4	-0.55868363
40	0x3d01c9bc	0.03168653
41	0xbf2d5e10	-0.67721653
42	0xbe021c42	-0.12706092
43	0x3f677c2d	0.9042385
44	0x3df9b3bd	0.121924855
45	0x3f46d29d	0.7766512
46	0x3e95f21b	0.29286274
47	0x3f560cc1	0.8361321
48	0xbee5bfd4	-0.44872916
49	0xbf105d5f	-0.56392473
50	0x3ed3c80d	0.41363564
51	0xbef2ba9c	-0.47407997
52	0xbf180fa6	-0.5939888
53	0x3c27611d	0.010216025
54	0xbf16b09d	-0.5886324
55	0xbd9c94dd	-0.07645581
56	0xbe8790ac	-0.26477563
57	0x3ea9165a	0.33024865
58	0x3f4a1349	0.78935677
59	0x3e02851c	0.1274609
60	0xbefb00cd	-0.49024048
61	0x3e36c60c	0.17848986
62	0xbe2f522c	-0.1712119
63	0xbe0748c0	-0.13211346

dataset_encoder.feature_embedding.bias f4 [64]
0	0x3f48656d	0.78279763
1	0x3dd8f980	0.10594463
2	0x3f3b980e	0.7327889
3	0xbf5225ea	-0.820891
4	0x3e96fcc8	0.29489732
5	0xbf226096	-0.6342863
6	0xbe730921	-0.23733951
7	0xbe89346e	-0.26797813
8	0x3f6c1c23	0.92230433
9	0x3f0c2e2c	0.5475795
10	0x3e4306ec	0.19045609
11	0xbcffac27	-0.031210018
12	0x3e895d7c	0.26829135
13	0xbf726c6b	-0.9469668
14	0x3dc39c30	0.09551275
15	0xbe32bfdd	-0.17456003
16	0x3f21938a	0.6311575
17	0x3f5df710	0.8670511
18	0xbf1b4316	-0.6064924
19	0xbf5dbcff	-0.8661651
20	0x3f766417	0.96246475
21	0xbda97874	-0.08274928
22	0x3f386d20	0.7204151
23	0x3ec39c5b	0.38205227
24	0xbf265915	-0.6497968
25	0x3dc7ce0a	0.09756096
26	0x3f66d99b	0.9017579
27	0x3d9156cd	0.07096634
28	0xbeb18855	-0.34674326
29	0xbf579dc1	-0.8422509
30	0x3f06abca	0.5260588
31	0xbf740b3f	-0.9532966
32	0xbf3af1bc	-0.7302511
33	0x3e89ac59	0.26889303
34	0x3d5f11bc	0.054460272
35	0x3f462f12	0.77415574
36	0xbee308f0	-0.44342756
37	0x3d28bfbe	0.041198485
38	0xbe8aa4e7	-0.27078936
39	0xbf1bbff6	-0.60839784
40	0xbf5a3ab3	-0.8524582
41	0x3f3d57cc	0.7396209
42	0x3f71bede	0.94431865
43	0x3f5d68f7	0.8648829
44	0xbf5ae947	-0.855122
45	0xbf6f8f2a	-0.93577826
46	0x3ee1f057	0.44128677
47	0xbf40b9ab	-0.75283307
48	0xbef54a41	-0.47908214
49	0xbdbe7433	-0.09299507
50	0xbbf06584	-0.0073363204
51	0xbf6cc64d	-0.9249008
52	0xbeed5bc7	-0.46359083
53	0x3bb12774	0.0054063145
54	0xbf1eeb28	-0.6207757
55	0xbefab019	-0.48962477
56	0xbec53ea5	-0.38524356
57	0x3f43d6b2	0.76499474
58	0x3f226714	0.63438535
59	0x3e0f22d9	0.13978137
60	0x3f5172cc	0.8181579
61	0xbc1a0b56	-0.009402117
62	0xbbc2ee4d	-0.005948818
63	0x3e2c5b2a	0.16831651

dataset_encoder.transformer.layers.0.self_attn.in_proj_weight f4 [192, 64]
0	0x3d88a4fe	0.06672095
1	0xbcd640ab	-0.026153883
2	0x3dfc8a6e	0.12331091
3	0x3e1377c0	0.1440115
4	0x3d9d7256	0.076878235
5	0xbd0096a3	-0.03139366
6	0xbd085a8c	-0.033289477
7	0x3bedb4c6	0.007254216
8	0xbdab7954	-0.08372751
9	0xbdf026d9	-0.117261596
10	0xbcc2fdfb	-0.023802748
11	0xbc190aec	-0.009340983
12	0xbc0e22c9	-0.008675286
13	0x3e08d725	0.13363321
14	0x3dcc7f89	0.09985263
15	0x3bb8f3ae	0.0056442833
16	0x3dc0967e	0.09403704
17	0x3d4361cf	0.0477007
18	0x3c5f2812	0.013620393
19	0x3c331c9d	0.010932115
20	0xbdfa354d	-0.122171976
21	0x3e07d49f	0.13264702
22	0xbdb209a3	-0.08693244
23	0xbd84667b	-0.06464859
24	0xbd42e296	-0.04757937
25	0x3df14f72	0.11782731
26	0xbdc59bd8	-0.096488655
27	0x3d04ff75	0.032470185
28	0x3c33cd89	0.010974296
29	0x3d645fca	0.055755414
30	0xbb695ea8	-0.0035609398
31	0xbdb7823c	-0.08960387
32	0xbd16381b	-0.0366746
33	0xbb9160c7	-0.0044365856
34	0xbc0ab47d	-0.008465883
35	0x3dd4dc31	0.10393561
36	0x3c469fd2	0.012123065
37	0xbdfa956f	-0.122355334
38	0xbe1128fd	-0.14175792
39	0x3db63f97	0.088988476
40	0x3cca254d	0.02467599
41	0xbe0bae55	-0.13640721
42	0x3e02c560	0.12770605
43	0x3cd73c24	0.026273794
44	0xbdefb9b9	-0.11705346
45	0xbcd6e6fd	-0.02623319
46	0x3b2063c4	0.0024473527
47	0xbd156732	-0.036475368
48	0xbd5ab8ff	-0.053399082
49	0x3d804a51	0.06264175
50	0x3d4f6f2f	0.050643142
51	0x3c80ea21	0.015736641
52	0x3d845031	0.06460608
53	0xbd80a57f	-0.06281566
54	0xbe0f3fd4	-0.13989192
55	0x3d9d97cb	0.07694968
56	0x3d9a8c8f	0.07546341
57	0x3dccac4a	0.09993799
58	0x3d4ec927	0.050484803
59	0xbdbb37a8	-0.09141475
60	0xbe192b95	-0.14958031
61	0xbb9dc108	-0.004814271
62	0x3de5bb8e	0.11217414
63	0x3d9afb7b	0.07567497
64	0xbd124522	-0.03571046
65	0x3c17ffcf	0.009277298
66	0x3d5a2ca3	0.053265225
67	0x3c1dd687	0.009633667
68	0x3e048781	0.12942316
69	0x3dee364a	0.116314486
70	0x3ddc1cfa	0.10747714
71	0xbb9551ca	-0.004556869
72	0x3cb86e8d	0.022513652
73	0x3dacae3b	0.08431669
74	0xbdf209df	-0.11818289
75	0xbd27a5bf	-0.040929552
76	0x3d99958d	0.07499228
77	0x3c75cc92	0.015002387
78	0xbd19d964	-0.037560835
79	0x3dd3f989	0.103503294
80	0x3df8cff0	0.12149036
81	0xbdb5302e	-0.0884708
82	0xbcaa018a	-0.020752687
83	0xbe188676	-0.14895043
84	0x3deeed97	0.116664104
85	0xbe26c5d0	-0.16286397
86	0x3c030e90	0.007999077
87	0x3dbb2636	0.091381475
88	0xbda993e5	-0.08280162
89	0xbd480085	-0.04882862
90	0xbdd11682	-0.10209371
91	0x3d91be1d	0.07116339
92	0xbe196d9a	-0.14983216
93	0xbe0f4b0a	-0.13993469
94	0x3db625fb	0.08893963
95	0x3dc31308	0.09525114
96	0x3d86a0b8	0.065736234
97	0x3dd1db97	0.102469616
98	0x3e0ee1c5	0.13953312
99	0x3dfddcb6	0.12395613
100	0xbdf763b1	-0.120795615
101	0x3d68109b	0.05665646
102	0x3e0ff7ac	0.14059323
103	0xbe0ba9b9	-0.13638963
104	0x3c9372f6	0.017999154
105	0x3e1dfcaa	0.15428415
106	0x3e2d0bfb	0.16899101
107	0x39b311e2	0.00034154864
108	0xbe2ee540	-0.1707964
109	0x3d6bd529	0.057576332
110	0xbcd1a82f	-0.025592891
111	0x3cbdd254	0.023171581
112	0xbe1269f1	-0.14298226
113	0xbe0672a4	-0.1312967
114	0xbcea5e93	-0.02860955
115	0xbe0d8d1d	-0.13823362
116	0xbc89325a	-0.016747642
117	0x3e0c5e45	0.13707836
118	0x3c4c7244	0.012478415
119	0x3e072e12	0.13201168
120	0xbd90465d	-0.07044671
121	0x3e0618e5	0.13095434
122	0xbce1e9a3	-0.027577227
123	0xbe086637	-0.13320242
124	0x3be58750	0.007004656
125	0xbdb1d77b	-0.08683678
126	0xbdf525ae	-0.119700775
127	0x3c576354	0.01314624
128	0xbdeac1b8	-0.1146273
129	0x3deb00b9	0.11474747
130	0x3ce6634f	0.028123526
131	0x3de4ecf9	0.111780114
132	0xbce7d7e3	-0.028301185
133	0xbd935731	-0.07194365
134	0x3df44b36	0.11928408
135	0xbc2d1e14	-0.010566253
136	0xbd981e8a	-0.074277
137	0x3c24cc5b	0.010058488
138	0x3cb3afdf	0.021934448
139	0xbd8f9a59	-0.07011861
140	0xbcc56f35	-0.02410088
141	0x3d46e054	0.04855378
142	0xbe33e651	-0.17568327
143	0x3dba5f52	0.09100212
144	0x3d932bb3	0.07186069
145	0xbd249268	-0.040178686
146	0xbe05b884	-0.13058668
147	0x3d5d4377	0.054019418
148	0xbd0d25b2	-0.034459777
149	0x3db63c30	0.088981986
150	0x3cedb93d	0.029018993
151	0x3dbac276	0.09119122
152	0xbd89a360	-0.067206144
153	0xbc53a07e	-0.012916682
154	0xbdfebe55	-0.12438647
155	0x3ab5b73e	0.0013863815
156	0xbdb69d89	-0.08916766
157	0xbd4308ae	-0.0476157
158	0xbcb63720	-0.022243083
159	0x3d6156a6	0.055014275
160	0xbd18f6f5	-0.03734489
161	0x3dd67fc0	0.10473585
162	0x3d7e4b21	0.062083367
163	0xbd590e72	-0.05299229
164	0xbb9de1c9	-0.0048181755
165	0xbda0fe2e	-0.07860981
166	0xbd631d80	-0.055448055
167	0x3dd2aa3b	0.10286375
168	0x3db25f78	0.087096155
169	0xbdc03478	-0.093850076
170	0xbe0f4470	-0.1399095
171	0xbd9c52d6	-0.07632987
172	0xbdca2d9f	-0.09871983
173	0x3c0c1d8f	0.008551969
174	0x3e082c28	0.13298094
175	0xbdb11e80	-0.086483955
176	0xbe07c1e4	-0.13257557
177	0xbe171b6f	-0.14756559
178	0x3a5bc672	0.00083837577
179	0xbc9d427e	-0.019196745
180	0xbda46722	-0.080274835
181	0xbe09e155	-0.13464864
182	0x3d689264	0.056780234
183	0x3dec4b59	0.11537809
184	0xbaf2eaaf	-0.0018533076
185	0x3cc0594c	0.02348008
186	0xbd8a6e77	-0.06759351
187	0xbddccb05	-0.107809104
188	0xbe000723	-0.12502722
189	0xbb7dc88a	-0.0038724267
190	0xbd99c710	-0.07508671
191	0xbd9dd543	-0.07706692
192	0x3ddb9519	0.107217975
193	0xbdda5d32	-0.10662307
194	0x3a08b982	0.0005215631
195	0x3a75c3a4	0.0009375161
196	0xbc6ceceb	-0.0144607825
197	0xbd6d9098	-0.057999223
198	0xbe03de98	-0.12877882
199	0x3cc78e9b	0.024359992
200	0x3d1fc56f	0.039006647
201	0x3cda1d7d	0.02662539
202	0xbce9fcce	-0.02856293
203	0x3d6e539b	0.0581852
204	0x3d61a4e9	0.05508891
205	0x3d664aa6	0.056223534
206	0xbd98c98c	-0.07460317
207	0xbe0f3252	-0.1398404
208	0x3dc97124	0.09836033
209	0xbd9502d9	-0.07275934
210	0x3d368bdc	0.044566974
211	0x3c3df708	0.011594541
212	0x3d4664bb	0.048435908
213	0x3ac9c83a	0.0015394755
214	0xbd453f22	-0.04815591
215	0x3e0ec7bf	0.13943385
216	0x3db941da	0.09045763
217	0x3de7728f	0.11301147
218	0x3b7a1d00	0.0038164258
219	0x3d0f6d3b	0.03501628
220	0x3e113b62	0.14182809
221	0x3e0e3fb3	0.13891487
222	0xbc11b839	-0.00889402
223	0xbc124eb6	-0.008929899
224	0xbaabdd29	-0.0013112176
225	0xbe16ccc3	-0.14726548
226	0xbcff5316	-0.031167548
227	0x3d0e596d	0.03475325
228	0x3e0434a0	0.129107
229	0x3d3255d3	0.04353888
230	0xbdec4c57	-0.11537998
231	0xbe16cc5f	-0.14726399
232	0x3d9f2245	0.07770208
233	0xbdf60a23	-0.12013652
234	0x3d3ade65	0.04562225
235	0xbdb1a9f2	-0.086749926
236	0x3e00942c	0.12556523
237	0xb9546764	-0.00020256412
238	0x3df275f0	0.11838901
239	0x3dc50455	0.09619967
240	0x3d83c889	0.064347334
241	0x3df8ed12	0.121545926
242	0xbd4c7905	-0.0499201
243	0x3d96189f	0.07328915
244	0xbd9ba335	-0.07599489
245	0xbd545a82	-0.051844127
246	0xbccd8e58	-0.025092289
247	0xbbaa50c7	-0.0051976177
248	0x39fccdb8	0.00048218458
249	0xbdf7026c	-0.12061009
250	0xbd932e72	-0.07186593
251	0xbbd9daa6	-0.0066483794
252	0x3dfc71e5	0.12326411
253	0xbba4164d	-0.0050075413
254	0x3b10fc5a	0.002212307
255	0xbe0e7de1	-0.13915206

dataset_encoder.transformer.layers.0.self_attn.in_proj_bias f4 [192]
0	0x3c66d943	0.014089885
1	0x3c3767f1	0.011194215
2	0xbc5fd3c0	-0.013661325
3	0x3c0d4a6c	0.008623701
4	0x3c5dcd82	0.013537766
5	0x3c55fc97	0.01306071
6	0xb917dc79	-0.00014482615
7	0x3c14beb6	0.009078672
8	0xbcb0bd51	-0.021574648
9	0xbcb1686f	-0.021656243
10	0x3cb7a0ee	0.022415604
11	0xbcad9c93	-0.021192824
12	0xbcb3d452	-0.021951828
13	0xbcaf4d42	-0.021399144
14	0x3ca7b094	0.020469941
15	0x3c018681	0.007905603
16	0xbcb17523	-0.0216623
17	0x3ca223dd	0.019792492
18	0xbcad89ec	-0.02118393
19	0x3cb906f6	0.022586327
20	0x3cbdc44b	0.023164889
21	0x3c88458c	0.016634725
22	0xbc5ef01e	-0.013607053
23	0x3cadec93	0.021230971
24	0xbb6e03e3	-0.0036318235
25	0xbcbd56b0	-0.023112625
26	0x3aa770d6	0.0012774717
27	0xbadaaa11	-0.0016682764
28	0xbcc8abe7	-0.024496032
29	0x3cbedaab	0.023297628
30	0x3c74d6ba	0.014943773
31	0xbbe3cb05	-0.006951692
32	0x3ba02bf4	0.004888052
33	0xbb5cca0f	-0.0033689772
34	0xbb6433c3	-0.0034820891
35	0xbba77ea3	-0.005111532
36	0xbb17baff	-0.002315223
37	0x3bc5746d	0.006025842
38	0xbb1cadd4	-0.002390732
39	0xbbc92bd3	-0.0061392575
40	0x3b8b81ca	0.0042574154
41	0xbb1e17f1	-0.0024123157
42	0x3b623f24	0.0034522498
43	0x3b04b1f2	0.0020247665
44	0xbb781e61	-0.0037859904
45	0x3b81c1b4	0.003959859
46	0x3b665535	0.0035146002
47	0xbb0acc1e	-0.0021178792
48	0xbcb6aba8	-0.022298649
49	0xbcc08ebf	-0.023505567
50	0xbcc541c5	-0.024079213
51	0x3cca3832	0.024685
52	0x3cb981a5	0.022644827
53	0x3ccaf340	0.024774194
54	0xbcc2f555	-0.023798624
55	0x3ca41414	0.020029105
56	0x3c2542b3	0.010086703
57	0xbbfc1907	-0.007693413
58	0xbc188b26	-0.009310519
59	0xbc29b274	-0.010357488
60	0xbc2d1da8	-0.010566153
61	0xbbfe86aa	-0.007767518
62	0x3c0e33c4	0.008679334
63	0xbb891af9	-0.0041841236
64	0xb5135cbd	-5.489672e-07
65	0xb644c8a9	-2.9323076e-06
66	0x36063bbf	2.0002333e-06
67	0x358ebbd0	1.0634485e-06
68	0xb544bdeb	-7.3292057e-07
69	0xb56b2d4c	-8.761024e-07
70	0xb5eadf91	-1.7499425e-06
71	0x35474f2c	7.424849e-07
72	0x363955e3	2.761714e-06
73	0x34cf377d	3.8597128e-07
74	0x355e471d	8.280493e-07
75	0x34a2f604	3.035385e-07
76	0x350293e9	4.864401e-07
77	0xb48004d2	-2.3845365e-07
78	0x3484a4bc	2.4706776e-07
79	0x345432ed	1.9762565e-07
80	0xb446021f	-1.8440959e-07
81	0xb4959bc5	-2.786675e-07
82	0xb51b8f19	-5.7950234e-07
83	0xb4d3b291	-3.9431737e-07
84	0x354615d7	7.379253e-07
85	0x343ce002	1.7590358e-07
86	0x33b48fc0	8.408051e-08
87	0xb4f90743	-4.6385148e-07
88	0xb6bb9e9d	-5.5914993e-06
89	0x376b8ecb	1.4040338e-05
90	0x3781dc9f	1.5480733e-05
91	0xb6892173	-4.086812e-06
92	0x3730c5b9	1.0536453e-05
93	0x36db8f16	6.543366e-06
94	0x3508171d	5.069758e-07
95	0xb686ada5	-4.013726e-06
96	0x341ef6f7	1.4804742e-07
97	0x33db9700	1.0225449e-07
98	0xb5ab884e	-1.2780163e-06
99	0xb5785e3b	-9.252432e-07
100	0x35088d1a	5.086928e-07
101	0xb41f8e7e	-1.4859867e-07
102	0x34cc51fe	3.8057618e-07
103	0x3563befc	8.484201e-07
104	0xb3dbf84a	-1.0243146e-07
105	0xb43ae942	-1.7407459e-07
106	0x335513e4	4.9611018e-08
107	0xb48f6190	-2.6706812e-07
108	0x34407bac	1.7926385e-07
109	0xb4ad357d	-3.226268e-07
110	0x33f2f36c	1.1313281e-07
111	0xb0f4cf1e	-1.7812203e-09
112	0x34056e15	1.2426638e-07
113	0x35c2dc65	1.451827e-06
114	0x361bb290	2.3200737e-06
115	0xb3b3f709	-8.3802725e-08
116	0xb58a43f6	-1.030158e-06
117	0xb48f8526	-2.6732704e-07
118	0xb3361c32	-4.240082e-08
119	0x342cc74d	1.6091253e-07
120	0x34a9d237	3.1631654e-07
121	0x34e55575	4.2716752e-07
122	0x33313094	4.1255205e-08
123	0xb356ff29	-5.0057825e-08
124	0xb4fd5f77	-4.7194382e-07
125	0xb421a4f2	-1.50543e-07
126	0x34e6b1e4	4.297027e-07
127	0xb480a633	-2.3962784e-07
128	0xbcef3e62	-0.029204551
129	0xbcb93b7e	-0.022611376
130	0x3c04eb03	0.008112672
131	0xba641228	-0.0008700215
132	0xbc4f66be	-0.012658773
133	0xba7f38dc	-0.0009735951
134	0x3cc23835	0.023708442
135	0xbc9cd250	-0.019143254
136	0xbc19d4e4	-0.009389136
137	0xbcb5def1	-0.022201033
138	0xbcfc824d	-0.030823851
139	0xbcd512cf	-0.026009945
140	0xbc9a01cc	-0.018799685
141	0x3c0ca55d	0.008584348
142	0xbc894ed3	-0.01676122
143	0x3c8671e3	0.016411727
144	0xbcbb092a	-0.022831518
145	0xbc41f977	-0.011839262
146	0x3aca73e7	0.0015445919
147	0x3ba341eb	0.0049822233
148	0xbbc59cee	-0.0060306704
149	0x3b190988	0.0023351628
150	0xbbc7f960	-0.006102726
151	0x3b08b517	0.002085989
152	0x3c00e0f1	0.00786613
153	0x3cd30699	0.025759982
154	0x3d04487e	0.032295696
155	0xbc342588	-0.010995276
156	0xbc91beda	-0.0177912
157	0xbd075e4d	-0.033048917
158	0x3b66b6e4	0.0035204226
159	0xbd164133	-0.036683273
160	0x3ceeee8e	0.029166486
161	0x3cac00d6	0.020996492
162	0x3cebcef9	0.028785216
163	0x3d1056b6	0.035238944
164	0x3cf5eae4	0.030019231
165	0x3b8ba33d	0.004261403
166	0x3bb442f9	0.005501148
167	0x3d0f4447	0.034977224
168	0xbc9e5cf0	-0.019331425
169	0xbc1ac0bf	-0.009445368
170	0x3c73fb3f	0.014891445
171	0xbcbaa667	-0.022784425
172	0x3cf99ac8	0.030469313
173	0xbb7d703b	-0.003867163
174	0xbc33b45c	-0.010968294
175	0x3ad7887b	0.0016443873
176	0xbc094140	-0.008377373
177	0x3b97cb4e	0.00463239
178	0x3bf8ef45	0.0075968825
179	0x3af38b42	0.0018580931
180	0x3a2ae6db	0.00065193855
181	0xbbd164ce	-0.0063901907
182	0xbb8e3218	-0.0043394677
183	0x3c1fb024	0.009746585
184	0xba772323	-0.0009427538
185	0xbc58cb56	-0.013232073
186	0xbd11e196	-0.035615526
187	0x3c2e9e86	0.010657912
188	0x3c2e1629	0.010625401
189	0xbc2260a3	-0.009910735
190	0x3ba904bc	0.005158035
191	0xbd0ab403	-0.03386308

dataset_encoder.transformer.layers.0.self_attn.out_proj.weight f4 [64, 64]
0	0xbd403ea9	-0.046934757
1	0x3dc8251f	0.09772705
2	0x3db594df	0.088662855
3	0x3d1fe2ad	0.039034534
4	0xbd91436f	-0.0709294
5	0xbd78a7a1	-0.06070674
6	0xbd472f5e	-0.048629157
7	0x3d997bb5	0.07494298
8	0x3cf77239	0.030205833
9	0x3d788350	0.060672104
10	0xbd5f131c	-0.054461583
11	0x3d9832d3	0.07431569
12	0x3cc9ae87	0.024619354
13	0xbad14062	-0.0015964622
14	0xbd8da740	-0.06916666
15	0xbd329e34	-0.043607906
16	0xbda52cea	-0.08065207
17	0xbd8a3227	-0.06747847
18	0x3d84cc96	0.06484334
19	0x3d1bc2b6	0.038027488
20	0xbdad422f	-0.08459889
21	0xbd71baf8	-0.059016198
22	0xbd203e42	-0.039121874
23	0x3ab16df4	0.0013536797
24	0x3c4a07c7	0.012330956
25	0x3d4811ec	0.048845217
26	0x3da63e4e	0.081173524
27	0x3d08200e	0.033233695
28	0xbdddb87b	-0.108262025
29	0xbdefdaec	-0.11711678
30	0x3dbdd906	0.092699096
31	0xbdc5162a	-0.09623368
32	0x3db68e39	0.089138456
33	0x3dba73bb	0.09104105
34	0x3ddb289d	0.10701106
35	0xbcc912d0	-0.024545103
36	0x3dd1f9f7	0.10252755
37	0xbdb72f09	-0.08944518
38	0x3d8954f2	0.06705655
39	0x3dbffa56	0.0937392
40	0xbdda0c2b	-0.10646852
41	0x3d80711e	0.062715754
42	0x3e11b543	0.14229302
43	0xb97787ee	-0.00023606393
44	0x3e154086	0.14575395
45	0xbdad261c	-0.084545344
46	0x3d65a1be	0.056062452
47	0x3da57f1b	0.08080884
48	0x3c99cdf6	0.018774968
49	0xbda8c165	-0.08240012
50	0xbd95f717	-0.07322519
51	0xbdc8f101	-0.09811593
52	0xbd812d3d	-0.06307457
53	0xbdcd3d76	-0.10021488
54	0x3d1a82ea	0.037722506
55	0x3cf0c9cb	0.029393097
56	0x3da5a529	0.080881424
57	0xbd837035	-0.06417886
58	0xbd707441	-0.05870462
59	0xbd60a372	-0.054843374
60	0x3d63efc7	0.05564859
61	0xbda9bad1	-0.082875855
62	0x3dd77418	0.1052019
63	0x3d51fcdc	0.051266536
64	0x3c8aa0e0	0.016922414
65	0x3de3db8c	0.111258596
66	0xbbdfb6a6	-0.0068271933
67	0x3d580595	0.0527397
68	0xbd005f02	-0.031340607
69	0xbb457788	-0.003013106
70	0x3d925aaa	0.07146199
71	0xbd833bc0	-0.06407881
72	0x3d8d8670	0.069104075
73	0x3d9314e3	0.07181718
74	0x3d0e14d0	0.034687817
75	0xbdc39865	-0.09550551
76	0x3d9e7fb5	0.07739202
77	0x3d25a60e	0.040441565
78	0xbce9a570	-0.02852127
79	0x3da83f53	0.08215203
80	0x3cd2cc52	0.025732193
81	0x3ca82f4a	0.020530362
82	0x3c68927c	0.014195081
83	0x3db5fced	0.088861324
84	0x3d8a6339	0.067572065
85	0x3dd1a3a8	0.10236293
86	0xbb90d866	-0.004420328
87	0x3ccbb6e3	0.02486748
88	0x3d8d2ef7	0.068937235
89	0xbdf7113e	-0.120638356
90	0xbdd32c83	-0.10311224
91	0xbd5f7ab2	-0.05456037
92	0xbda8632c	-0.082220405
93	0xbda7e8d3	-0.081987046
94	0x3d1007ed	0.03516381
95	0xbdb832fc	-0.089940995
96	0x3ddb199a	0.106982425
97	0x3da0ef23	0.07858112
98	0xbdb813aa	-0.089881256
99	0x3d3695e4	0.04457654
100	0x3dfcbcb3	0.12340679
101	0xbd861887	-0.06547647
102	0x3d201f73	0.039092492
103	0xbdc6da86	-0.09709649
104	0xbdab71c0	-0.083713055
105	0x3dc60d4a	0.096705034
106	0x3e024be0	0.12724257
107	0xbde3fece	-0.111325845
108	0xbd843425	-0.06455258
109	0xbbc9ff34	-0.006164456
110	0x3da18604	0.078868896
111	0xbcef1e57	-0.029189272
112	0xbe0cd096	-0.13751444
113	0xbd51d43b	-0.05122779
114	0x3e0ec52d	0.13942404
115	0x3cefb964	0.029263206
116	0x3dc5c962	0.09657551
117	0x3d8adea0	0.067807436
118	0xbdcda339	-0.10040898
119	0x3deca1ac	0.11554274
120	0x3dea53d2	0.11441769
121	0xbd0a189f	-0.033714887
122	0x3d4303d3	0.04761107
123	0xbcebb451	-0.028772505
124	0x3de0fdbf	0.10985898
125	0x3da01a28	0.07817489
126	0x3b210808	0.0024571437
127	0x3cc288a3	0.023746794
128	0x3d0484a0	0.032353044
129	0x3dac900e	0.08425914
130	0xbd9714ea	-0.07377036
131	0xbd8e29c8	-0.06941563
132	0xbc79cbd3	-0.015246349
133	0xbd94438b	-0.07239445
134	0xbd84e299	-0.064885326
135	0x3d5f01f8	0.054445237
136	0x3c714ed4	0.014728267
137	0x3e02021a	0.12696114
138	0xbd77433e	-0.06036686
139	0xbcf6f391	-0.030145438
140	0x3d760580	0.06006384
141	0xbda6f56c	-0.08152279
142	0x3d07d0dd	0.033158172
143	0xbd8915fe	-0.06693648
144	0x3dcc0fbb	0.09963938
145	0x3dba5bad	0.09099517
146	0xbdc9e77a	-0.09858604
147	0x3d965134	0.07339707
148	0xbc9203a9	-0.01782401
149	0x3d90f569	0.07078058
150	0x3ce84c3b	0.028356662
151	0x3deaded0	0.11468279
152	0x3d8a7b0f	0.06761753
153	0xbdb1fa6f	-0.086903445
154	0xbdede13e	-0.11615227
155	0x3c0cc1b7	0.008591107
156	0xbd0729a9	-0.032998715
157	0x3d78b087	0.060715225
158	0x3c62e69c	0.013848927
159	0x3d593e85	0.05303814
160	0xbdc36cc9	-0.095422335
161	0xbd2ee7b9	-0.042701457
162	0xbd5c2dc8	-0.053754598
163	0x3ac9862e	0.0015375072
164	0xbd12d4fb	-0.035847645
165	0x3e022f6c	0.12713403
166	0xbc70d3ab	-0.014698903
167	0xbd96d580	-0.07364941
168	0xbd824af3	-0.06361952
169	0x3d6d4604	0.0579281
170	0xbdfef6cf	-0.12449419
171	0xbd9697c5	-0.073531665
172	0xbe203a61	-0.1564727
173	0xbcc29607	-0.02375318
174	0x3deca5e5	0.11555079
175	0x3d5a25ee	0.05325883
176	0x3c188061	0.009307952
177	0x3ba69acc	0.005084371
178	0xbd619571	-0.05507416
179	0x3d827d59	0.063715644
180	0x3d1ccd3b	0.03828166
181	0xbc67459f	-0.01411572
182	0x3b88d16d	0.004175356
183	0x3bbe42c5	0.0058062994
184	0x3d5d9687	0.054098632
185	0xbd92bba0	-0.07164693
186	0x3e11a350	0.14222455
187	0xbbca546a	-0.0061746137
188	0xbd1813b3	-0.03712816
189	0xbd865364	-0.06558874
190	0xbd851b15	-0.06499306
191	0x3dd4f6f5	0.10398666
192	0xbd24b356	-0.04021009
193	0x3da313ae	0.07962738
194	0xbd4c87f4	-0.049934343
195	0xbcbe6fd2	-0.02324668
196	0x3d914cce	0.070947275
197	0x3b836459	0.004009765
198	0xbdc91794	-0.0981895
199	0xbd88ff35	-0.06689302
200	0x3c6f7b45	0.014616792
201	0xbc8282ae	-0.015931454
202	0xbd9bbe4f	-0.07604658
203	0x3db3013c	0.0874047
204	0x3cf03c24	0.029325552
205	0x3db07be6	0.08617382
206	0xbd92f678	-0.071759164
207	0x3c9cafde	0.019126829
208	0xbd084c5e	-0.033275954
209	0x3b925d75	0.0044667074
210	0x3cc11cd9	0.023573326
211	0xbd8a8060	-0.06762767
212	0xbd3c9ffd	-0.046051014
213	0xbc7de8a4	-0.01549736
214	0x3b82104c	0.003969228
215	0x3c8c6d5a	0.017141987
216	0x3df9bc6d	0.121941425
217	0x3dc12de3	0.0943258
218	0x3d7597dd	0.05995928
219	0x3d4d5913	0.050133776
220	0x3c59a78d	0.013284576
221	0x3dc8925e	0.09793542
222	0xbdc54f26	-0.09634237
223	0xbd8f644f	-0.07001554
224	0xbd9ee5bf	-0.07758664
225	0xbd931dd6	-0.07183425
226	0xbdd025b7	-0.101634435
227	0xbcd3aee2	-0.025840227
228	0xb9059453	-0.00012739123
229	0x3d974e19	0.07387943
230	0x3dd2f10e	0.10299884
231	0x3da5a9f9	0.0808906
232	0xbb666615	-0.003515606
233	0xbdf6c8ad	-0.120499946
234	0xbd6a0ff1	-0.05714411
235	0x3dcc5c64	0.099785596
236	0x3d95c2c3	0.073125385
237	0x3d1741db	0.03692804
238	0xbdf26e42	-0.11837436
239	0x3cb41355	0.021981874
240	0xbd181ef1	-0.037138883
241	0xbcf6b50a	-0.030115623
242	0x3da09635	0.0784115
243	0xbe0890db	-0.13336508
244	0x3d4e2a3b	0.050333243
245	0xbd09c6b3	-0.03363676
246	0xbd9b84e7	-0.075937085
247	0x3c887ae0	0.016660154
248	0x3d0a60b9	0.03378365
249	0x3db43192	0.08798517
250	0x3bcf3658	0.006323617
251	0xbc9cb2c1	-0.019128205
252	0xbdb26e1c	-0.08712408
253	0x3df7c2dd	0.12097714
254	0xbcb9e757	-0.02269332
255	0x3c5cdbba	0.013480121

dataset_encoder.transformer.layers.0.self_attn.out_proj.bias f4 [64]
0	0x3d12d056	0.035843216
1	0x3c186d0b	0.009303342
2	0xbd2435d9	-0.040090416
3	0xbbb8387c	-0.005621968
4	0xb9d60152	-0.00040818244
5	0xbad43c79	-0.0016192339
6	0xbbff915f	-0.007799312
7	0xbb8fa41a	-0.004383576
8	0xbc19c6b5	-0.009385754
9	0xbc922e7e	-0.017844435
10	0xbcbfe6c9	-0.023425477
11	0x3d0a51b5	0.03376933
12	0x3c5a943c	0.013341006
13	0xbc467446	-0.012112683
14	0xb91ed73f	-0.0001514824
15	0x3ceed833	0.029155826
16	0xbc2e3146	-0.010631865
17	0xbb400bcf	-0.0029303913
18	0xbcb42dd6	-0.021994513
19	0x3b9c87c2	0.004776926
20	0xbce608a1	-0.028080286
21	0xbbf4cdfb	-0.007470844
22	0x3ccb06c8	0.024783507
23	0x3c55a1c3	0.013039055
24	0x3be50c93	0.0069900244
25	0xbc9f9e20	-0.01948458
26	0x3ca500d3	0.020141995
27	0xbcba23a8	-0.02272208
28	0x3c19e7fa	0.009393686
29	0x3cee09d7	0.029057426
30	0x3ba2f22b	0.0049727163
31	0x3c229bab	0.009924809
32	0x3bcf601c	0.006328596
33	0xbb38087d	-0.0028081231
34	0xbb24d837	-0.0025153288
35	0xbc4eed25	-0.012629782
36	0xbc00b458	-0.007855497
37	0xbc986f98	-0.0186079
38	0x3c7d2c8d	0.015452516
39	0x3c631eaa	0.013862291
40	0x3cf08034	0.029358007
41	0x3c53d9fd	0.01293039
42	0x3ce01c87	0.027357353
43	0xbbc688bb	-0.00605878
44	0xbd05685b	-0.032570224
45	0xbc83ab24	-0.016072817
46	0x3c1b200e	0.009468092
47	0x3d147312	0.036242552
48	0xbbd6c523	-0.0065542622
49	0xbc972acd	-0.018453026
50	0x3cf8ca95	0.030370036
51	0x3c93ea96	0.018056195
52	0xbcbd6719	-0.02312045
53	0xbb02ddc3	-0.0019968606
54	0x3bf7c881	0.0075617437
55	0x3d058147	0.03259399
56	0xbc3476fa	-0.011014694
57	0xbc5482c5	-0.012970631
58	0xb9b2e03a	-0.00034117867
59	0x3c8b2d94	0.016989507
60	0xbc8f299c	-0.017475896
61	0x3ce7cae6	0.028294992
62	0x3cd3f27e	0.025872465
63	0x3c02c622	0.007981809

dataset_encoder.transformer.layers.0.linear1.weight f4 [128, 64]
0	0xbd78d961	-0.060754184
1	0xbdb8762d	-0.09006915
2	0xbde2c931	-0.110735305
3	0x3d916ea5	0.07101182
4	0xbdeb2e50	-0.11483443
5	0xbde0db14	-0.10979286
6	0x3d596736	0.053076945
7	0xbd6df2e3	-0.058092963
8	0x3d8cf7c2	0.068831936
9	0xbe0279c0	-0.12741756
10	0x3c3e9481	0.011632086
11	0x3da474d7	0.08030098
12	0x3da66cab	0.081261955
13	0x3dc520d5	0.09625403
14	0xbc132bfa	-0.008982653
15	0xbdbef5da	-0.09324236
16	0xbd583b16	-0.052790724
17	0x3c582f33	0.013194847
18	0x3d5da344	0.05411078
19	0xbd99373f	-0.074812405
20	0x3de9ca36	0.11415522
21	0x3cd8aac4	0.026448615
22	0xbd726039	-0.059173796
23	0xbd6f20eb	-0.058381002
24	0x3d79c011	0.060974184
25	0x3d3940bd	0.045227755
26	0xbdf0e760	-0.11762881
27	0xbdb1836f	-0.08667647
28	0x3cf0020d	0.029297853
29	0xbd9a0eed	-0.07522378
30	0xbba40654	-0.005005637
31	0xbdb0b271	-0.08627785
32	0x3ca45e0e	0.02006438
33	0xbdcdd398	-0.10050124
34	0xbd405aa1	-0.04696143
35	0x3c642345	0.013924425
36	0xbd07eec6	-0.033186696
37	0xbd4cbc10	-0.049984038
38	0x3d2ca63a	0.042150714
39	0x3caf4482	0.021394972
40	0x3d8d16af	0.06889092
41	0xbdf9302d	-0.12167392
42	0xbcb598e5	-0.022167632
43	0x3dd8a94b	0.10579165
44	0xbb975e41	-0.0046193902
45	0x3df64435	0.12024728
46	0x3d79a022	0.06094373
47	0x3df26caa	0.11837132
48	0x3dc806b1	0.09766901
49	0x3da97552	0.0827433
50	0x3dd21353	0.10257592
51	0xbdbdd688	-0.09269434
52	0x3a48a151	0.00076534325
53	0xbde124ed	-0.10993371
54	0x388bb14c	6.6610606e-05
55	0xbd435b88	-0.047694713
56	0xbde6d789	-0.11271579
57	0xbd67c300	-0.05658245
58	0xbd11f178	-0.035630673
59	0xbdebb5df	-0.115092985
60	0xbdccbdec	-0.09997162
61	0x3d600f4d	0.054702092
62	0x3c725f9c	0.014793303
63	0x3c4e0e9d	0.012576726
64	0x3cb373eb	0.02190586
65	0xbd384f6c	-0.044997618
66	0xbd825fee	-0.063659534
67	0x3db179ee	0.08665834
68	0xbdac7650	-0.08421004
69	0xbda72d2c	-0.08162913
70	0xbdbd0bf9	-0.09230799
71	0x3dc18a2d	0.09450183
72	0x3d8c22ba	0.06842561
73	0xbd85daeb	-0.06535896
74	0x3d757629	0.05992714
75	0xbdabce10	-0.08388913
76	0xbdde63a1	-0.108588465
77	0xb9a40d81	-0.0003129058
78	0xbd57c7d8	-0.05268082
79	0x3b50ee8f	0.0031880473
80	0x3e021a0d	0.1270525
81	0xbc68311b	-0.014171864
82	0xbcb68603	-0.022280699
83	0xbcf0f17d	-0.029412026
84	0xbd99c023	-0.0750735
85	0x3c7254ea	0.014790753
86	0x3c9c918a	0.019112367
87	0xbd62cc51	-0.055370633
88	0x3db1f55a	0.08689375
89	0x3d7a5eb6	0.06112548
90	0x3dfbaf57	0.12289303
91	0x3d37793f	0.044793364
92	0x3dd8a7e8	0.105789006
93	0x3e0ca0d7	0.1373323
94	0xbd5c6bef	-0.05381387
95	0xbccc9bbc	-0.024976604
96	0x3d6c458c	0.057683513
97	0x3dc36b5e	0.09541963
98	0xbd72d704	-0.059287086
99	0x3d97c1bf	0.07410001
100	0x3dc060ed	0.09393487
101	0xbd3add8c	-0.04562144
102	0xbd729068	-0.059219748
103	0x3d9b1234	0.07571831
104	0x3e0ac9dd	0.13553567
105	0xbd965c7e	-0.0734186
106	0xbdc5709d	-0.0964062
107	0xbcfc6fa4	-0.030814953
108	0xbdbd4520	-0.092417
109	0x3c8cccf1	0.017187567
110	0xbda97ab3	-0.08275356
111	0xbd22a58e	-0.039708667
112	0xbd3fa69c	-0.04678975
113	0x3deb351e	0.11484741
114	0x3dcac7de	0.09901403
115	0xbc9055e1	-0.017619075
116	0xbddf2252	-0.10895218
117	0xbdcecc5f	-0.100975744
118	0x3aa1b850	0.0012338255
119	0xbd3528b8	-0.044228286
120	0x3d92a77e	0.07160853
121	0xbdda4faf	-0.1065973
122	0xbdc002a7	-0.09375506
123	0x3c7c0bd4	0.015383679
124	0x3d3f1e27	0.046659615
125	0x3da6b2ac	0.08139548
126	0x3d8a5156	0.06753795
127	0x3e025b70	0.12730193
128	0xbdee1597	-0.11625212
129	0xbbc395bf	-0.005968779
130	0x3da66ea4	0.08126572
131	0x3cadacc8	0.021200553
132	0x3dcd2aa2	0.10017897
133	0x3decfcbd	0.115716435
134	0xbb8701f9	-0.004120108
135	0xbaf66a16	-0.0018799927
136	0x3cb47826	0.022029947
137	0x3daed902	0.08537485
138	0xbca6694e	-0.020313885
139	0xbd0aa02e	-0.033844166
140	0x3d4d56dd	0.050131667
141	0x3d1c8b73	0.038218927
142	0xbd664ad4	-0.056223705
143	0xba2f1653	-0.0006679047
144	0x3d24c762	0.04022921
145	0x3cb61bce	0.022230055
146	0x3e0644df	0.1311221
147	0x3d937165	0.07199363
148	0x3dc8a36f	0.097967975
149	0xbcbb126c	-0.022835933
150	0xbdda1dfb	-0.106502496
151	0x3dbfff61	0.093748815
152	0xbde7acc5	-0.1131225
153	0x3d50fcf0	0.05102247
154	0xbd288f4e	-0.04115229
155	0x3da5bdf4	0.08092871
156	0xbbda3dd2	-0.0066602016
157	0xbd05d9cd	-0.032678414
158	0xbd6036d0	-0.054739773
159	0xbd6b5990	-0.05745846
160	0x3de07e78	0.10961622
161	0x3d1c564e	0.038168244
162	0x3d37c49f	0.044865247
163	0x3c9a95e5	0.018870303
164	0x3d50a614	0.050939634
165	0x3dbfa39d	0.09357379
166	0x3d8d5848	0.06901604
167	0xbda10a01	-0.07863236
168	0xbd586ca7	-0.052837994
169	0x3dbcf163	0.09225728
170	0x3d262a00	0.040567398
171	0x3c106f50	0.0088156015
172	0xbcd151e1	-0.025551738
173	0x3d798d53	0.060925793
174	0xbd831bfb	-0.06401821
175	0x3db82588	0.089915335
176	0xbc92eb4e	-0.017934468
177	0xbdbe1b51	-0.09282554
178	0x3d142e76	0.03617712
179	0xbd190037	-0.03735372
180	0xbdae6042	-0.085144535
181	0x3d85e133	0.06537094
182	0x3cd5bb58	0.026090309
183	0xbd9b767c	-0.075909585
184	0x3dc2a6b1	0.0950445
185	0x3d490615	0.049078066
186	0xbd1cdd72	-0.038297124
187	0x3de9d72f	0.11417996
188	0xbd8087b8	-0.06275886
189	0xbdc7d450	-0.09757292
190	0x3cce0f30	0.025153726
191	0x3c9b1070	0.018928736
192	0x3cea92ca	0.028634448
193	0x3dccd597	0.100016765
194	0xbd8f0fe6	-0.06985454
195	0x3cffaaa2	0.031209294
196	0xba8e5686	-0.0010859526
197	0xbc3621f8	-0.011116497
198	0xbd95dbf1	-0.07317341
199	0x3d375101	0.044754986
200	0xbdeaf7c9	-0.114730425
201	0x3bfa4df7	0.0076386887
202	0x3e183d66	0.14867172
203	0x3d71ba9f	0.059015866
204	0xbc114c48	-0.0088682845
205	0x3d9e98a0	0.07743955
206	0xbda2b7a9	-0.07945187
207	0x3d43f7da	0.04784379
208	0xbde1cd4e	-0.11025487
209	0xbdc12e84	-0.094327
210	0x3cbe64d3	0.023241436
211	0xbd81c1e1	-0.063358076
212	0x3d79a9a2	0.06095279
213	0xbce89245	-0.02839006
214	0x3caf1d55	0.021376291
215	0x3d842052	0.06451477
216	0xbc5b3834	-0.013380099
217	0x3ba5594c	0.0050460454
218	0xbdcfda15	-0.10149018
219	0xbd45c205	-0.048280735
220	0xbdcf3afc	-0.10118672
221	0x3d91a369	0.07111246
222	0x3da8eefe	0.08248709
223	0xbd95c586	-0.07313065
224	0x3d042c0e	0.032268576
225	0xbdb560f8	-0.08856386
226	0xbdf8a495	-0.121407665
227	0xbc99a6e9	-0.018756347
228	0x3d2832dc	0.04106413
229	0xbd03f29f	-0.032213803
230	0xbd2e3ead	-0.04254024
231	0x3d4349af	0.047677692
232	0xbc8c32f3	-0.017114138
233	0xbde6c097	-0.11267202
234	0x3dfc7e1d	0.12328742
235	0xbda56b22	-0.080770746
236	0x3de2a2fd	0.11066244
237	0xbbd5f79d	-0.006529762
238	0x3da7a120	0.08185029
239	0xbcda912d	-0.026680553
240	0xbdac7176	-0.084200785
241	0x3d5f5a5a	0.054529525
242	0x3c413f6e	0.011794908
243	0x3daa02f3	0.08301344
244	0x3db9603f	0.090515606
245	0xbc91fcda	-0.017820764
246	0x3dc8a241	0.097965725
247	0xbdb8eee8	-0.09029943
248	0xbe01449e	-0.12623832
249	0xbcb57e34	-0.022154905
250	0xbbc8fe54	-0.006133834
251	0xbc5439ea	-0.012953261
252	0x3d2de211	0.04245192
253	0xbd3a395b	-0.045464855
254	0xbdb6cf17	-0.08926218
255	0xbc1a1ab5	-0.0094057815

dataset_encoder.transformer.layers.0.linear1.bias f4 [128]
0	0x3c912638	0.01771842
1	0xbd134b44	-0.03596045
2	0x3cdfa056	0.027298134
3	0x3dae372f	0.08506619
4	0xbb57dcb5	-0.0032937948
5	0xbe035aeb	-0.12827651
6	0x3d98966b	0.07450565
7	0x3c7e674e	0.015527559
8	0x3db467cc	0.0880886
9	0xbdc54637	-0.09632533
10	0xbda0e87a	-0.078568414
11	0x3d9bf313	0.07614722
12	0x3cdba6a7	0.026812864
13	0x3d975516	0.07389276
14	0x3daeabe6	0.08528881
15	0x3df42582	0.119212165
16	0x3cefb3d0	0.029260546
17	0xbd839e57	-0.06426685
18	0xbb9e7eef	-0.004836909
19	0x3c58b5b9	0.01322692
20	0x3de963fc	0.11396024
21	0xbdcc8b15	-0.09987465
22	0xbdc7420b	-0.097293936
23	0x3dff969a	0.12479897
24	0xbce64517	-0.028109116
25	0x3cbea741	0.023273112
26	0xbd535a55	-0.05159982
27	0x3dd221ed	0.10260377
28	0x3d4dd3d8	0.050250858
29	0xbd59fdc2	-0.053220518
30	0x3dee77c5	0.11643938
31	0xbd2aac36	-0.04166814
32	0xbdd1071c	-0.10206434
33	0x3df10c84	0.11769965
34	0x3dbd3561	0.09238697
35	0xbc8c6f0d	-0.017142797
36	0x3debdf37	0.11517184
37	0xbd6cbcbd	-0.057797182
38	0x3cc12d63	0.023581212
39	0x3dad79a4	0.08470467
40	0xbd88e300	-0.06683922
41	0x3b2f47d9	0.0026745705
42	0xbdeb6ec1	-0.11495734
43	0xbd523f52	-0.05132992
44	0x3d572402	0.052524574
45	0x3d32022c	0.043459103
46	0x3d19d9a7	0.037561085
47	0x3dfe589c	0.12419245
48	0x3d8c3955	0.06846873
49	0x3dff76bc	0.12473819
50	0x3d159a78	0.036524266
51	0x3d025186	0.031816028
52	0x3c74e9e1	0.014948339
53	0x3e01efb0	0.1268909
54	0xbce3004c	-0.027710102
55	0x3cf0c65f	0.029391466
56	0xbdd34a7e	-0.10316943
57	0x3dd85a7e	0.10564135
58	0xbdecc3bd	-0.115607716
59	0x3d1a3d7c	0.037656292
60	0xbda4b561	-0.08042408
61	0xbdea7add	-0.114492156
62	0xbd2e2099	-0.042511556
63	0x3da7a05f	0.08184885
64	0x3d2b8a0f	0.04187971
65	0x3d88a4ba	0.06672044
66	0xbdc32965	-0.0952938
67	0x3d9cd8d2	0.07658543
68	0x3d94cae8	0.07265264
69	0x3ca6da7b	0.020367851
70	0x3db9ab54	0.09065881
71	0xbdb0ef0b	-0.08639344
72	0xbe09a82d	-0.1344306
73	0xbc445aca	-0.011984536
74	0x3db9ced4	0.090726525
75	0xb9f545da	-0.00046782085
76	0xbd44e99e	-0.048074357
77	0xbc8d2c88	-0.017233148
78	0x3e025b28	0.12730086
79	0x3dc8e074	0.09808436
80	0xbc8b586d	-0.017009938
81	0x3d8c7390	0.06857979
82	0x3ce5efc4	0.02806843
83	0xbd35450f	-0.044255313
84	0x3b9e4819	0.004830372
85	0x3d16edd4	0.036847904
86	0x3d2d6d6d	0.042340685
87	0x3ac57fc5	0.0015067986
88	0x3dd890da	0.10574503
89	0xbcf8b130	-0.030357927
90	0xbd313258	-0.043260902
91	0xbd30dbaa	-0.043178238
92	0xbdb6f7b9	-0.08933968
93	0x3cacdd31	0.021101566
94	0xbd92d2cd	-0.07169113
95	0xbd4db510	-0.050221503
96	0x3dad4a68	0.084614575
97	0xbdf3b9b1	-0.11900652
98	0xbdda7195	-0.10666195
99	0xbbf84145	-0.00757614
100	0xbd19f312	-0.037585326
101	0xbcbd5756	-0.023112934
102	0xbdde5e46	-0.10857825
103	0x3d231552	0.039815255
104	0x3d9bf143	0.076143764
105	0xbd866a16	-0.06563203
106	0x3dbac9ee	0.09120546
107	0xbdd767f9	-0.10517878
108	0xbde951b6	-0.11392538
109	0xbd938519	-0.07203121
110	0xbc606aac	-0.013697308
111	0x3d5a4924	0.05329241
112	0x3c7151c9	0.014728972
113	0xbd1c6eb8	-0.038191527
114	0xbca51414	-0.020151176
115	0x3dba09e5	0.090839185
116	0xbdc11cad	-0.094292976
117	0xbdb9e664	-0.09077147
118	0xbe002a5f	-0.12516163
119	0xbd0714e7	-0.03297892
120	0x3bd71539	0.0065638092
121	0xbb402d1b	-0.002932376
122	0x3d8992e1	0.06717468
123	0x3cf4ef31	0.029899212
124	0xbdb2a195	-0.087222256
125	0x3e011fc3	0.12609772
126	0xbcd19c3a	-0.02558719
127	0x3cf3e9d0	0.029774576

dataset_encoder.transformer.layers.0.linear2.weight f4 [64, 128]
0	0xbcf5fa2a	-0.030026514
1	0x3cb0305f	0.02150744
2	0xbd6896e9	-0.056784544
3	0x3d16d95d	0.036828388
4	0xbda6f9ce	-0.08153115
5	0xbb1b5a9e	-0.0023705135
6	0x3d45521f	0.04817402
7	0x3c4d816f	0.012543066
8	0x3dc79d43	0.09746792
9	0x3dc61085	0.096711196
10	0x3d80cb51	0.062887795
11	0x39f03af0	0.0004582028
12	0x3bb0c11e	0.005394115
13	0xbcb5db18	-0.022199199
14	0x3d17424d	0.036928464
15	0x3d301523	0.042988908
16	0x3dedf285	0.116185226
17	0xbc31246d	-0.010811907
18	0xb9804d5e	-0.00024471706
19	0x3db58769	0.08863718
20	0x3d54df60	0.05197084
21	0xbd49b9b7	-0.049249377
22	0xbd1fa21b	-0.038972955
23	0xbcb55526	-0.022135329
24	0xbae19620	-0.0017210878
25	0xbbe32366	-0.00693171
26	0x3debf9d2	0.11522259
27	0x3de1b1d6	0.11020248
28	0x3d4fd3f9	0.050739262
29	0xbd871a62	-0.06596829
30	0x3d828ce3	0.06374528
31	0x3d829d2c	0.063776344
32	0x3bc222de	0.0059245666
33	0x3db39d89	0.08770282
34	0x3d30f2fa	0.04320047
35	0x3d54c1c2	0.051942594
36	0x3b823c32	0.003974461
37	0x3d3b318b	0.045701545
38	0x3db68399	0.08911819
39	0x3dafe24c	0.085880846
40	0x3cfd3437	0.030908687
41	0xbca751df	-0.020424781
42	0xbd0fa65f	-0.035070773
43	0x3d8f9a4a	0.0701185
44	0xbcd4c7eb	-0.025974235
45	0xbd6ded6c	-0.05808775
46	0xbc586f9c	-0.0132102035
47	0xbd381bc4	-0.044948354
48	0xbca830f6	-0.020531159
49	0xbd7563a6	-0.059909485
50	0xbcd8b321	-0.026452603
51	0xbafe8b5e	-0.0019420197
52	0xbb19fd92	-0.0023497087
53	0xba38789d	-0.0007037016
54	0xbd2eeaa2	-0.042704232
55	0x3d669838	0.05629751
56	0x3d9f03ac	0.07764372
57	0xbc7a7381	-0.015286327
58	0xbd532111	-0.051545206
59	0x3b65449f	0.0034983528
60	0xbc106e77	-0.008815399
61	0x3d8b133d	0.06790779
62	0x3d9ae49c	0.07563135
63	0x3c63f18d	0.013912571
64	0x3b2f9aa3	0.0026795052
65	0x3d5ae931	0.053445045
66	0x3ca26b2a	0.01982649
67	0x3db63afb	0.088979684
68	0x3c246cc2	0.0100356955
69	0x3d84df52	0.064879075
70	0x3cacc5fa	0.021090496
71	0x3a6b9dd8	0.0008988059
72	0xbd5cf972	-0.053948827
73	0xbcc36b64	-0.023854919
74	0x3de8d7fc	0.11369321
75	0xbb81307f	-0.0039425488
76	0x3d25d731	0.040488426
77	0xbd3790e7	-0.044815924
78	0x3da4734b	0.08029803
79	0x3dc5d9ba	0.09660669
80	0x3c9e4c58	0.019323513
81	0xbd399352	-0.04530651
82	0xbd691cc2	-0.05691219
83	0x3dbe2ea8	0.09286243
84	0x3dbbac78	0.09163755
85	0x3d25b4f6	0.04045578
86	0x3df8430a	0.12122162
87	0x3ddcf0db	0.10788127
88	0x3decde08	0.115657866
89	0x3d3bea6b	0.045877855
90	0x3d209fe3	0.03921498
91	0x3d96ca7b	0.07362839
92	0x3d02b53c	0.03191112
93	0xbcbe6d05	-0.023245344
94	0xbb9b6450	-0.004742183
95	0x3ce41e3d	0.02784645
96	0x3d0cd1c4	0.034379736
97	0x3d941f07	0.072324805
98	0xbd06af7e	-0.032882206
99	0x3d8ccecb	0.0687538
100	0xbd385921	-0.045006875
101	0x3d6d6608	0.057958633
102	0x3de695a5	0.11259011
103	0xbc239b34	-0.009985734
104	0x3d524eae	0.051344566
105	0x3a1a9ac5	0.0005897696
106	0xbcded0b7	-0.027199132
107	0xbd81a6cc	-0.06330642
108	0xbbbb465a	-0.0057151737
109	0xbcc4efb7	-0.024040086
110	0x3dc5f775	0.09666339
111	0x3d8a328d	0.06747923
112	0xbd5bc10a	-0.053650893
113	0x3ce0384a	0.02737059
114	0x3c5dcec9	0.013538071
115	0xbcd03c2b	-0.025419315
116	0xbc1f7851	-0.0097332755
117	0x3c04e23f	0.008110582
118	0x3d5f1bd3	0.054469895
119	0xbce27632	-0.02764425
120	0x3d23a58a	0.039952792
121	0x3d98f5b0	0.07468736
122	0x3d8a6315	0.0675718
123	0x3ddaee61	0.106899984
124	0x3b79552a	0.0038045147
125	0x3d111e4d	0.035429288
126	0xbd2b3614	-0.04179962
127	0xbd7f396e	-0.06231063
128	0x3c0fa7e2	0.008768054
129	0xbb55c6da	-0.0032619745
130	0xbd7f8454	-0.062382057
131	0x3d5714e9	0.052510176
132	0x3d4502b6	0.04809829
133	0x3d577380	0.052600384
134	0x3d4f511a	0.050614454
135	0x3d9ccac6	0.076558635
136	0xbd5be0c0	-0.053681135
137	0xbd525dc5	-0.051358957
138	0xbdacd91f	-0.0843985
139	0xbd663e6d	-0.056211878
140	0x3d14e6fd	0.0363531
141	0x3cbfff81	0.023437263
142	0xbd560c40	-0.052257776
143	0x3d75f25f	0.060045596
144	0xbc2282a2	-0.009918841
145	0xbd945653	-0.072430275
146	0x3d5bf116	0.053696714
147	0x3d8adb16	0.067800686
148	0x3d530958	0.051522583
149	0xbd81069d	-0.063000895
150	0xbd8a299f	-0.0674622
151	0xbb2695e9	-0.0025418943
152	0xbd3bfad8	-0.04589352
153	0xbd7522e1	-0.059847716
154	0x3b89340b	0.004187112
155	0xbbebd4d3	-0.0071970015
156	0xbd67f40c	-0.056629226
157	0xbc3a0856	-0.0113545265
158	0xbc2cb2be	-0.010540662
159	0x3c572c98	0.013133191
160	0x3d3de063	0.04635657
161	0x3d09909c	0.033585176
162	0x3c90a5cc	0.017657183
163	0xbdbde033	-0.09271278
164	0xbd7941da	-0.060853817
165	0xbd3944b4	-0.045231536
166	0x3d58b83b	0.05291007
167	0xbd485a6e	-0.048914365
168	0xbd18433d	-0.0371735
169	0x3c72e842	0.014825882
170	0x3c81d2ec	0.015847646
171	0xbcc04b9d	-0.023473555
172	0x3d23a676	0.03995367
173	0x3c76c744	0.015062157
174	0xbdb945d6	-0.09046523
175	0x3b0d5eb6	0.0021571345
176	0x3da01631	0.07816733
177	0xbdbf7be9	-0.09349806
178	0xbdf7e8c5	-0.12104944
179	0xbb4c3778	-0.0031160992
180	0xbcc9d366	-0.024636935
181	0x3c94e056	0.018173378
182	0x3d882e8e	0.066495046
183	0x3d242056	0.0400699
184	0x3d93f3ad	0.07224212
185	0xbd8b0320	-0.067877054
186	0x3d2ef4c1	0.042713884
187	0xbd1e00cd	-0.038574982
188	0x3d37bcc1	0.044857744
189	0xbd2f1268	-0.042742163
190	0xbd0e3be5	-0.03472509
191	0x3d966c99	0.07344932
192	0xbd720bd1	-0.0590933
193	0xbd966888	-0.073441565
194	0xbd7602cc	-0.06006126
195	0xbd8ce751	-0.068800576
196	0x3d3d59d3	0.04622824
197	0x3cb317b8	0.021861896
198	0x3cb73b38	0.022367105
199	0x3d4030f1	0.046921674
200	0xbd1ac6c7	-0.037787225
201	0xbd83c638	-0.064342916
202	0x3c437d7e	0.011931775
203	0x3d7b3bbd	0.061336268
204	0x3c3372e6	0.010952687
205	0x3c22f013	0.0099449335
206	0xbd4ad3af	-0.049518283
207	0x3d252415	0.040317614
208	0x3cbabb24	0.022794314
209	0xbd27c7b1	-0.040961925
210	0x3cef5469	0.029215055
211	0xbd8fd953	-0.07023873
212	0xbbaa547e	-0.0051980605
213	0xbcafca11	-0.021458657
214	0xbd4f0279	-0.050539467
215	0xbc5d81f1	-0.01351975
216	0xbd27b43d	-0.040943373
217	0x3d781016	0.060562216
218	0xbb08fc1f	-0.002090223
219	0xba4a2a5a	-0.00077119994
220	0x3bb92949	0.0056506735
221	0xbbd9dbe0	-0.0066485256
222	0x3d82c389	0.063849516
223	0x3c733a09	0.01484538
224	0xbd5a362d	-0.053274322
225	0xbda7e752	-0.08198418
226	0xbdb4bf85	-0.08825592
227	0xbd8461e3	-0.06463983
228	0xbc823baf	-0.0158976
229	0xbd223966	-0.03960552
230	0xbb597a0b	-0.0033184316
231	0x3d2e1b76	0.042506658
232	0x3d2a075d	0.04151093
233	0xbdaf6292	-0.08563723
234	0xbd8e92bd	-0.06961582
235	0x3affca5b	0.0019515263
236	0x3bf9c846	0.0076227514
237	0xbd9d10cf	-0.076692216
238	0x3cd09b72	0.025464747
239	0xbd02b899	-0.031914327
240	0xbd0e3298	-0.03471622
241	0xbd3200c5	-0.043457765
242	0xbd72c94c	-0.059274003
243	0x3d4adbcd	0.049526025
244	0x3d7928cf	0.060829934
245	0x3d911924	0.07084873
246	0x3c91f05b	0.017814806
247	0xbd8c7c7a	-0.068596795
248	0xbbde6565	-0.0067869895
249	0xbc160a9e	-0.009157805
250	0xbd0857af	-0.033286747
251	0x3d74290c	0.059609458
252	0x3c694f91	0.0142401615
253	0xbd5aba39	-0.053400252
254	0xbd324dc0	-0.04353118
255	0xbce8bd9c	-0.028410725

dataset_encoder.transformer.layers.0.linear2.bias f4 [64]
0	0x3d814e5a	0.063137725
1	0x3da3600b	0.07977303
2	0xbd91036d	-0.070807315
3	0xbdafcab5	-0.08583585
4	0xbd528259	-0.05139384
5	0xbcebb510	-0.02877286
6	0xbd8ea75b	-0.06965514
7	0x3c074803	0.008256915
8	0x3d409782	0.04701949
9	0xbc27e7e7	-0.010248161
10	0x3b508919	0.0031819998
11	0x3b32d7bd	0.0027289235
12	0xbd8a48f0	-0.06752193
13	0x3d4e86d1	0.05042154
14	0xbb3013d3	-0.0026867285
15	0xbd2d693c	-0.042336687
16	0x3ce6538e	0.028116014
17	0xbcae4621	-0.021273674
18	0xbd529730	-0.051413715
19	0xbdbbed2f	-0.091760986
20	0xbd98921b	-0.074497424
21	0x3bd71bc0	0.0065645874
22	0x3db0662f	0.0861324
23	0xbd454e4e	-0.04817038
24	0xbc3951b0	-0.01131098
25	0x3d48a5f6	0.048986398
26	0xbcd89c02	-0.026441578
27	0xbdaec244	-0.08533147
28	0x3da3c643	0.079968
29	0x3d7bad03	0.061444294
30	0xbc15375a	-0.009107435
31	0xbdcb5e18	-0.09930056
32	0xbd60a59b	-0.054845434
33	0xbd40afbd	-0.047042597
34	0x3d55ddc8	0.05221346
35	0xbceea917	-0.029133363
36	0x3c31ec3b	0.010859544
37	0xbd515831	-0.051109497
38	0x3ce54965	0.027989099
39	0xbd8d125c	-0.068882674
40	0x3d96f571	0.07371033
41	0x3d484ccf	0.048901375
42	0x3da7e5f1	0.08198155
43	0x3d4f5c83	0.050625335
44	0xbd577ade	-0.05260741
45	0x3c4fda20	0.012686282
46	0xbdb262bd	-0.08710239
47	0xbd4127d6	-0.04715713
48	0x3d4dc7e4	0.05023946
49	0xbd9a9142	-0.07547237
50	0x3b812e46	0.003942284
51	0xbd0c882b	-0.034309547
52	0xbbecdb84	-0.0072283167
53	0xbc8e9de4	-0.017409272
54	0x3d720396	0.05908545
55	0x3cfb5a27	0.030682636
56	0xbd583309	-0.052783046
57	0xbad196e9	-0.0015990409
58	0xbd25a797	-0.04044303
59	0xbd02521f	-0.031816598
60	0xba65d390	-0.0008767182
61	0xbdad3ac9	-0.08458478
62	0x3cf94936	0.030430418
63	0xbc8ed5cd	-0.017435933
