variable_length_meta_model.pth (torch, 604101 bytes, 59 tensors)

dataset_encoder.positional_encoding f4 [200, 64]
0.31713352 -0.8625207 -0.4603476 1.2482257 -0.07525102 -0.85231346 -2.2854402 0.5890688
-0.13840045 0.023121724 1.1924534 0.90692484 0.5875633 0.3891541 -0.65433186 1.7576574
0.39017266 1.2729183 0.12234772 -1.0033928 -1.8089935 -0.017070677 -0.09435132 -1.5635798
-0.78357095 -1.2096512 0.6668339 -0.21910729 0.102028765 -1.0327443 -0.34780186 1.1202967
-0.5652179 0.7254963 1.2402745 0.5283249 1.1306193 1.0802379 0.022364743 0.93060356
1.6897258 -1.6382562 -0.0975864 0.940742 -0.85729903 0.042735778 -0.31358993 -0.76757413
0.56648123 1.2511636 -1.1127309 -0.84236056 1.4585762 -0.63363695 0.082336105 -0.70979047
-1.5004185 -1.0297889 -1.0971386 0.13190085 1.8229675 1.2107023 -0.16253261 0.3337084
-0.17673656 -1.8185573 0.986609 0.7426245 -1.9317385 -0.09122683 1.7839963 -1.7835807
0.6314595 -0.33665586 1.2275115 0.14618911 0.11493863 -0.726687 0.104066014 -0.11024255
-0.5262062 -0.49765778 0.6560725 0.7427031 0.5613002 -0.75354505 0.26591584 -0.11613939
-0.62346107 -0.30251694 -0.4188625 0.53124726 -0.5060133 1.2219558 1.0814223 -0.15602715
1.3871506 0.14504865 0.933238 0.012488471 -0.43769786 0.11227983 -0.6537157 -0.72137904
-1.2413206 -0.22056672 0.59959346 -2.0508363 -0.39632714 0.49011305 -1.3653604 0.28125224
-0.66905236 -1.3387212 0.037891846 -1.1277552 1.1258645 -0.114163265 -0.09957838 1.4226401
-0.18823013 -0.41142547 1.1207314 -0.020953283 0.4171696 0.11040059 -0.54677147 -1.4477952
-0.13914154 -0.4966331 0.05714001 -0.51666 -0.21748316 -0.12590185 -0.2521423 0.26764727
-0.58358413 1.1982504 -1.044865 -1.7637916 0.5893754 0.5468871 -0.9981762 0.3100699
0.25900134 0.11417911 -0.271894 -0.5623232 -0.23079398 -1.5985484 -0.92655313 -0.10487317
-0.32057002 -1.1933026 -0.37229106 -2.573404 0.5838154 1.4583198 0.3789794 1.4125171
1.1110362 -1.2273285 0.27555624 -0.90881205 -0.6433573 1.7397242 -0.3815835 -1.8318276
-0.91438544 -1.3145473 0.39163366 -1.1100516 -0.4893418 -0.71720904 1.0814071 -0.06735842
-1.0497683 -0.73078316 -0.31921718 -0.027038949 -1.2101638 -1.6627109 -0.5568975 0.7905481
-0.37854823 -1.2800511 0.6025798 0.5049 0.2262948 -0.5518918 -0.3071971 -0.9048877
0.65058684 0.72931975 0.36670995 0.9123721 0.7276094 -0.4861397 2.5597062 -2.1203215
1.1738188 0.41460595 -0.83170277 -0.7571486 1.1507212 0.6103594 -0.91295874 -0.780917
-1.0719218 -0.81248903 0.2393196 -0.27690274 0.18005241 -0.021535909 -0.027315406 -0.022206884
-0.027396012 0.18472877 1.7197561 -0.16379762 0.2500965 0.30243924 0.39531896 -1.6409026
0.96886325 -1.0717663 -0.65463483 -0.89932305 0.9141545 0.17027663 -0.14423555 -0.26370066
1.0259373 1.0991402 -1.851946 1.407056 -1.4600999 -0.7524578 0.5858876 -1.324673
0.8517333 -0.85783625 0.055322472 -0.72922933 -0.38163668 -2.1923895 -0.59756863 -1.1214683
0.5593448 -0.54676145 -1.8550464 -0.13461511 0.5758888 -0.48698056 0.123033606 1.3441279
00000000: 535f a23e 28ce 5cbf aeb2 ebbe dcc5 9f3f
00000010: 351d 9abd 3731 5abf a744 12c0 36cd 163f
00000020: d9b8 0dbe c569 bd3c 50a2 983f 3a2c 683f
00000030: 8c6a 163f 353f c73e 4b82 27bf ebfa e03f
00000040: b6c4 c73e fdee a23f 7191 fa3d 2d6f 80bf
00000050: 198d e7bf ced7 8bbc 443b c1bd 6223 c8bf
00000060: 1b98 48bf dad5 9abf a0b5 2a3f a95d 60be
00000070: 75f4 d03d f730 84bf 1613 b2be e265 8f3f
00000080: 1fb2 10bf 20ba 393f 51c1 9e3f 4d40 073f
00000090: 22b8 903f 3c45 8a3f 4436 b73c 093c 6e3f
000000a0: ef48 d83f 61b2 d1bf 61db c7bd 78d4 703f
000000b0: f377 5bbf b60b 2f3d dc8e a0be bd7f 44bf
000000c0: ea04 113f 2126 a03f f76d 8ebf f1a4 57bf
000000d0: a0b2 ba3f 0836 22bf d59f a83d d4b4 35bf
000000e0: b70d c0bf 1fd0 83bf 0a6f 8cbf 0411 073e
000000f0: 0057 e93f 4bf8 9a3f f36e 26be d4db aa3e
00000100: 6efa 34be 7cc6 e8bf 6892 7c3f a41c 3e3f
00000110: 3543 f7bf 22d5 babd fe59 e43f 5f4c e4bf
00000120: 54a7 213f 285e acbe 191f 9d3f 99b2 153e
00000130: f264 eb3d 2908 3abf 9020 d53d d9c6 e1bd
00000140: 73b5 06bf 00cd febe 5ef4 273f ca21 3e3f
00000150: 5fb1 0f3f 54e8 40bf 1f26 883e 7dda edbd
00000160: 259b 1fbf 80e3 9abe 2575 d6be d2ff 073f
00000170: 168a 01bf 0c69 9c3f 0c6c 8a3f 95c5 1fbe
00000180: 278e b13f a287 143e b0e8 6e3f 729c 4c3c
00000190: ef19 e0be f8f2 e53d ea59 27bf 4cac 38bf
000001a0: 98e3 9ebf 3edc 61be f57e 193f e740 03c0
000001b0: 64eb cabe 19f0 fa3e 21c4 aebf 4b00 903e
000001c0: 0447 2bbf 375b abbf 7b34 1b3d 485a 90bf
000001d0: 541c 903f 6ece e9bd c0ef cbbd 1219 b63f
000001e0: 66bf 40be 5ca6 d2be 2074 8f3f 38a6 abbc
000001f0: 4197 d53e b419 e23d 37f9 0bbf 5a51 b9bf
00000200: 1f7b 0ebe b246 febe a50b 6a3d d443 04bf
00000210: e8b3 5ebe 6aec 00be cc18 81be 1009 893e
00000220: c565 15bf 4560 993f 23be 85bf ecc3 e1bf
00000230: 4ee1 163f cb00 0c3f 7a88 7fbf 7bc1 9e3e
00000240: d39b 843e bdd6 e93d b135 8bbe 6af4 0fbf
00000250: 4255 6cbe 3c9d ccbf 9632 6dbf bfc7 d6bd
00000260: c121 a4be 24be 98bf ef9c bebe a7b2 24c0
00000270: ed74 153f 39aa ba3f 9709 c23e 5ccd b43f
00000280: 6f36 8e3f 1a19 9dbf b515 8d3e e8a7 68bf
00000290: 10b3 24bf 48af de3f ea5e c3be 5479 eabf
000002a0: 2a15 6abf 1643 a8bf 3584 c83e 2c16 8ebf
000002b0: 028b fabe 039b 37bf 8c6b 8a3f 36f3 89bd
000002c0: cf5e 86bf 9b14 3bbf 6f70 a3be c980 ddbc
000002d0: a6e6 9abf b6d3 d4bf d690 0ebf 5c61 4a3f
000002e0: 13d1 c1be b7d8 a3bf ab42 1a3f 2041 013f
000002f0: d3b9 673e c848 0dbf f048 9dbe b8a6 67bf
00000300: dc8c 263f b3b4 3a3f 68c1 bb3e 3891 693f
00000310: 9c44 3a3f 4ee7 f8be 3ad2 2340 59b3 07c0
00000320: b23f 963f 3b47 d43e 79ea 54bf 7ed4 41bf
00000330: d54a 933f 8340 1c3f aab7 69bf 2dea 47bf
00000340: bc34 89bf 48ff 4fbf 3210 753e 32c6 8dbe
00000350: a95f 383e 136c b0bc 8fc4 dfbc 36eb b5bc
00000360: 9a6d e0bc 8a29 3d3e f820 dc3f 90ba 27be
00000370: a60c 803e 51d9 9a3e 3f67 ca3e 1909 d2bf
00000380: 6c07 783f a32f 89bf 2696 27bf 093a 66bf
00000390: 0806 6a3f ff5c 2e3e 7cb2 13be c603 87be
000003a0: ea51 833f a0b0 8c3f 910c edbf 691a b43f
000003b0: 8ee4 babf 13a1 40bf bbfc 153f e38e a9bf
000003c0: 320b 5a3f 289b 5bbf d199 623d c6ae 3abf
000003d0: e265 c3be 1c50 0cc0 42fa 18bf 468c 8fbf
000003e0: 3931 0f3f 8ff8 0bbf 2972 edbf 8bd8 09be
000003f0: 736d 133f 8455 f9be 0bf9 fb3d 620c ac3f

dataset_encoder.feature_embedding.weight f4 [64, 1]
0.002886602 0.38086152 -0.8213667 0.25259867 -0.82234126 -0.7297018 -0.9668393 -0.9544055
0.15447776 -0.75380856 -0.059277907 0.3165741 0.6516325 0.941491 0.8053841 0.9517126
-0.45379844 -0.6259558 0.063152194 -0.1408769 0.14377657 -0.92225146 -0.67852604 -0.81363595
0.34571096 -0.5219097 -0.27421892 -0.1396943 0.014737462 0.63562423 0.37398392 -0.72895026
0.41120917 0.48315004 -0.42005536 -0.79344845 -0.64554656 0.5226638 0.6987452 1.0008532
0.5928458 0.19669816 0.8407596 0.24860819 -0.74637794 -0.8507817 0.7065698 -0.6279992
-0.3306266 0.58647084 0.012775647 0.78320485 0.48506466 -0.975445 -0.92349213 0.31464708
0.6455361 0.51608396 -0.91254175 0.88655627 0.14749925 0.6203615 -0.023461398 -0.79927677
00000000: 252d 3d3b 4800 c33e 1745 52bf 9d54 813e
00000010: f584 52bf bdcd 3abf c882 77bf eb53 74bf
00000020: 6b2f 1e3e 99f9 40bf 64cd 72bd 0016 a23e
00000030: 63d1 263f 8e05 713f a72d 4e3f 70a3 733f
00000040: 4558 e8be a43e 20bf f055 813d 0942 10be
00000050: 2a3a 133e ac18 6cbf e2b3 2dbf 724a 50bf
00000060: 0701 b13e e09b 05bf 6c66 8cbe 060c 0fbe
00000070: 6575 713c 45b8 223f d27a bf3e 7c9c 3abf
00000080: 028a d23e 715f f73e 7f11 d7be 701f 4bbf
00000090: 8a42 25bf 4bcd 053f f7e0 323f f51b 803f
000000a0: bec4 173f 3e6b 493e 053c 573f 2593 7e3e
000000b0: a012 3fbf d4cc 59bf c2e1 343f 8ec4 20bf
000000c0: e447 a9be f422 163f f350 513c 1d80 483f
000000d0: 655a f83e c3b6 79bf fb69 6cbf 6c19 a13e
000000e0: db41 253f 141e 043f 569c 69bf 5af5 623f
000000f0: 0b0a 173e 03d0 1e3f 1e32 c0bc 679d 4cbf

dataset_encoder.feature_embedding.bias f4 [64]
0.5684734 -0.8260894 0.08028585 0.94691545 -0.28374937 -0.4733383 0.7236884 0.97831875
0.45437306 0.07852896 -0.88578767 -0.8410045 -0.5188368 0.63209325 0.820432 0.518975
0.11700769 -0.11558156 0.10395594 -0.46897852 0.08845367 -0.2752845 -0.7717061 -0.90683305
0.6149092 0.199994 -0.19526334 -0.14261465 -0.37375292 0.5495603 0.7574916 0.7196585
0.5036457 -0.78239363 0.6667587 0.19053496 0.13840258 -0.4462913 -0.23498726 -0.15222642
-0.84563595 0.2756781 0.9540091 0.7730597 0.3660298 -0.60613835 -0.38692048 0.77753776
-0.08612292 0.7456162 -0.57072127 -0.44781765 -0.22016284 0.64820373 -0.63257957 -0.7570131
0.4570384 0.115411945 -0.4096293 -0.3604072 0.069705926 -0.5074098 0.24703057 -0.86205405
00000000: 7987 113f 987a 53bf e86c a43d 0d69 723f
00000010: 9947 91be 6659 f2be a543 393f 1973 7a3f
00000020: 96a3 e83e cbd3 a03d fbc2 62bf 124c 57bf
00000030: 7dd2 04bf ddd0 213f d507 523f 8cdb 043f
00000040: baa1 ef3d 06b6 ecbd dae6 d43d f41d f0be
00000050: 3327 b53d 17f2 8cbe 888e 45bf 3626 68bf
00000060: b06a 1d3f 3acb 4c3e 1df3 47be 9309 12be
00000070: 8b5c bfbe fcaf 0c3f f8ea 413f 8a3b 383f
00000080: edee 003f f34a 48bf b3b0 2a3f 991b 433e
00000090: 68b9 0d3e 4b80 e4be 80a0 70be 3ee1 1bbe
000000a0: 997b 58bf ae25 8d3e f139 743f 3ee7 453f
000000b0: 4268 bb3e e22b 1bbf 711a c6be b70c 473f
000000c0: 3761 b0bd b4e0 3e3f ca1a 12bf 5b48 e5be
000000d0: 5e72 61be aef0 253f bcf0 21bf 9ccb 41bf
000000e0: f000 ea3e 195d ec3d eeba d1be 4b87 b8be
000000f0: fbc1 8e3d 9ce5 01bf 95f5 7c3e 93af 5cbf

dataset_encoder.transformer.layers.0.self_attn.in_proj_weight f4 [192, 64]
-0.0757843 0.0060078697 -0.14130962 -0.11878632 -0.038017146 0.072030626 -0.08923481 -0.018570684
0.11129664 -0.060136445 -0.09568111 -0.122786865 0.018287212 0.020575825 -0.064368844 -0.10899476
-0.1122708 -0.09200141 -0.00039274598 0.1377992 -0.14430563 0.011019029 0.12578672 0.03571416
0.026436055 -0.121537395 0.11112756 -0.117250256 -0.0947191 -0.09948273 0.0150828 -0.06416086
0.056907356 0.08529283 -0.10618639 0.13146096 -0.13744368 -0.112427175 0.14653699 0.00013335024
0.019458026 0.15498045 -0.040158197 -0.012480521 0.07709127 0.07573402 -0.13188042 -0.12325862
0.14088394 -0.03830592 -0.0013716272 -0.019231437 -0.033077564 -0.013474658 -0.113266215 0.06268618
0.012844437 0.14696659 0.08088434 -0.12980443 0.11493496 -0.12630767 0.110623725 0.04412059
0.13929652 -0.09295175 -0.07046517 0.066984884 -0.14578064 0.0049331672 -0.15618886 0.13777493
0.046832107 -0.14160201 -0.15388176 -0.06151754 0.08867063 0.05397686 -0.1395342 0.09168852
0.09445537 0.13457838 -0.056128286 -0.08869582 0.051637556 0.07937689 -0.09379972 0.10416088
0.0930587 -0.13124388 0.08479821 0.068404496 -0.13908982 -0.0420824 -0.1340515 0.094232984
-0.056092728 -0.012675582 -0.1473582 0.0585862 0.037177715 0.04578875 -0.05127286 -0.06667129
-0.020589516 0.00603702 -0.071499065 0.045948215 -0.013398476 0.058909513 -0.06191575 0.09097696
-0.00864331 0.08384237 -0.06936285 0.07966026 0.107635565 -0.07665827 0.055137828 -0.052400462
0.15559782 -0.053325456 0.046083495 -0.06946306 0.043228462 0.0149635635 -0.089070275 -0.058432728
-0.14011966 -0.009481767 0.085477486 -0.058662716 -0.09624432 0.12197132 0.11113485 -0.1356263
0.09347136 0.092098996 0.096253775 0.017679501 -0.15071353 0.029227395 0.018851083 0.13799475
-0.101918 -0.036267992 -0.07192171 0.16145334 -0.024412896 0.04882769 -0.030679546 -0.037221827
0.12324954 -0.019669453 0.014111092 -0.13333392 -0.04904653 -0.09378506 -0.14163093 -0.010456117
-0.11203642 -0.09133529 -0.04701322 0.122701764 -0.005539308 0.040329553 -0.1380488 0.051933073
0.07024835 0.11589975 -0.012722564 0.046772223 0.042143214 0.13466077 -0.0898496 -0.11142319
-0.06811491 -0.13550669 -0.042007517 -0.057442065 -0.07891347 -0.020168042 -0.00056828384 -0.003991693
0.10973311 -0.023030104 -0.033245604 -0.043568186 -0.017527342 0.13784562 0.13626517 -0.006750501
-0.037488807 0.09927512 0.056047782 -0.059996035 0.029252514 -0.13761687 -0.12001758 0.03631209
0.10188563 -0.050439287 0.13206783 -0.10941596 -0.030721445 0.11975417 0.040699422 0.14958213
0.11964043 -0.07849495 -0.120284535 0.12635696 -0.081186764 -0.047921725 -0.01435384 0.07879245
-0.018685754 -0.003448903 -0.14113584 -0.12378956 -0.022599474 -0.024300458 0.032573942 0.06919231
0.15870568 0.1201077 0.11312751 0.09759587 -0.03622429 -0.1417681 -0.038409077 -0.0929921
-0.12016857 -0.07965775 -0.11848079 -0.068307474 0.0715449 -0.043666616 -0.08260145 0.092106745
-0.07341201 -0.13914545 0.0031520284 0.10177379 -0.079921395 0.018232495 0.038100667 -0.13653621
-0.049636994 -0.1107416 -0.09501515 -0.14781184 0.02526503 -0.001600417 -0.13230449 -0.0656682
00000000: cd34 9bbd aadd c43b 78b3 10be 3e46 f3bd
00000010: deb7 1bbd cb84 933d bdc0 b6bd 8c21 98bc
00000020: 7eef e33d a251 76bd 75f4 c3bd ae77 fbbd
00000030: 10cf 953c a28e a83c d0d3 83bd a538 dfbd
00000040: 3cee e5bd 3c6b bcbd 79e9 cdb9 3c1b 0d3e
00000050: dbc4 13be 2889 343c 3cce 003e 0349 123d
00000060: 6d90 d83c 99e8 f8bd d996 e33d e720 f0bd
00000070: 16fc c1bd 9abd cbbd d91d 773c c566 83bd
00000080: b017 693d 02ae ae3d 4078 d9bd b49d 063e
00000090: 09be 0cbe 3840 e6bd cb0d 163e efd3 0b39
000000a0: 7066 9f3c 32b3 1e3e ec7c 24bd 197b 4cbc
000000b0: 07e2 9d3d 701a 9b3d a90b 07be 046f fcbd
000000c0: e143 103e abe6 1cbd 2cc8 b3ba 3f8b 9dbc
000000d0: 577c 07bd d0c4 5cbc 1ef8 e7bd 9d61 803d
000000e0: 7971 523c 697e 163e b0a6 a53d 74eb 04be
000000f0: 0563 eb3d cc56 01be b18e e23d cbb7 343d
00000100: bfa3 0e3e 7d5d bebd 0b50 90bd 5f2f 893d
00000110: 8547 15be 68a6 a13b f9ef 1fbe df14 0d3e
00000120: 06d3 3f3d 1e00 11be 2e93 1dbe d1f9 7bbd
00000130: f298 b53d d716 5d3d 0ee2 0ebe 31c7 bb3d
00000140: d171 c13d eace 093e c6e6 65bd 27a6 b5bd
00000150: e781 533d 5a90 a23d 111a c0bd 4d52 d53d
00000160: 8f95 be3d cc64 06be afaa ad3d a817 8c3d
00000170: 906d 0ebe 985e 2cbd cc44 09be 39fd c03d
00000180: 7dc1 65bd 3fad 4fbc 11e5 16be 15f8 6f3d
00000190: a947 183d fc8c 3b3d 7e03 52bd f58a 88bd
000001a0: 58ab a8bc 32d2 c53b 1a6e 92bd 3234 3c3d
000001b0: 4885 5bbc 1a4b 713d 5f9b 7dbd 2152 ba3d
000001c0: ab9c 0dbc 8cb5 ab3d 1c0e 8ebd eb24 a33d
000001d0: 0970 dc3d 03ff 9cbd 34d8 613d dea1 56bd
000001e0: 0955 1f3e cb6b 5abd 0cc2 3c3d a642 8ebd
000001f0: 5410 313d bc29 753c 7a6a b6bd 2857 6fbd
00000200: 877b 0fbe 6a59 1bbc d20e af3d 5148 70bd
00000210: be1b c5bd 19cc f93d ab9a e33d 9fe1 0abe
00000220: ea6d bf3d 669e bc3d b320 c53d 9ad4 903c
00000230: a654 1abe 4a6e ef3c 966d 9a3c 7f4e 0d3e
00000240: 62ba d0bd bf8d 14bd b14b 93bd 0654 253e
00000250: 8efd c7bc 8bff 473d ac53 fbbc ea75 18bd
00000260: 416a fc3d d521 a1bc 3632 673c b088 08be
00000270: 04e5 48bd 6212 c0bd b307 11be 2250 2bbc
00000280: 5a73 e5bd ff0d bbbd ef90 40bd 104b fb3d
00000290: 1583 b5bb 9a30 253d aa5c 0dbe c6b7 543d
000002a0: 5ede 8f3d d95c ed3d 4d72 50bc 3b94 3f3d
000002b0: 5d9e 2c3d 83e4 093e 1103 b8bd d731 e4bd
000002c0: d47f 8bbd 44c2 0abe 1310 2cbd 5f48 6bbd
000002d0: 639d a1bd 7337 a5bc e2f8 14ba bfcc 82bb
000002e0: c1bb e03d a1a9 bcbc 8b2c 08bd 8e74 32bd
000002f0: 8095 8fbc 6727 0d3e 1989 0b3e 4f33 ddbb
00000300: dd8d 19bd c150 cb3d 5c92 653d 67be 75bd
00000310: f8a2 ef3c 70eb 0cbe c7cb f5bd fcbb 143d
00000320: 6aa9 d03d 6d99 4ebd ca3c 073e 7a15 e0bd
00000330: 8aab fbbc ad41 f53d 70b4 263d 0f2c 193e
00000340: 0b06 f53d f6c1 a0bd bd57 f6bd b863 013e
00000350: 3f45 a6bd 9249 44bd 5e2c 6bbc f05d a13d
00000360: de12 99bc fe06 62bb ea85 10be 6185 fdbd
00000370: 8822 b9bc c111 c7bc 416c 053d b3b4 8d3d
00000380: be83 223e 07fb f53d 65af e73d 58e0 c73d
00000390: ec5f 14bd a82b 11be d652 1dbd a472 bebd
000003a0: f01a f6bd 9a23 a3bd 0ea6 f2bd cae4 8bbd
000003b0: 2286 923d c4db 32bd f32a a9bd 76a2 bc3d
000003c0: 0959 96bd 257c 0ebe 4392 4e3b c76e d03d
000003d0: d4ad a3bd 505c 953c 720f 1c3d 26d0 0bbe
000003e0: 2950 4bbd 7ecc e2bd 4e97 c2bd fd5b 17be
000003f0: 9cf8 ce3c 15c5 d1ba d47a 07be 0d7d 86bd

dataset_encoder.transformer.layers.0.self_attn.in_proj_bias f4 [192]
-0.0046982425 -0.0047379727 0.005278014 0.00028002926 0.00016432811 -0.004786265 0.0048391195 0.0036252483
-0.013442384 0.013617852 -0.011617365 0.013924914 0.012005096 -0.01247936 0.011702526 -0.0124316355
0.009989999 -0.008670201 0.010395142 0.009428369 0.010900161 0.01049556 -0.009475116 0.011250627
-0.0045658024 0.008317991 0.01129532 0.011952572 -0.011418313 0.011618998 0.004725756 -0.008038535
0.0071407603 0.0033573676 -0.0063755387 0.013872639 -0.001825275 -0.01389831 0.0019999458 0.015379971
0.010785724 0.009335461 -0.009080199 0.010905902 0.011441164 0.008524221 0.008365214 -0.006659872
0.012583096 0.011763526 0.011655865 -0.012971488 -0.013449591 0.005839353 -0.013485135 -0.009915807
0.0066762804 -0.0068947375 -0.0015631311 -0.0080578495 0.008699376 0.007939117 -0.0013877285 -0.008440681
-2.7669953e-08 4.9226903e-09 -1.592482e-08 2.2122606e-08 -2.5581347e-08 -7.037088e-08 8.895207e-08 -1.893897e-08
6.378407e-08 7.20463e-08 -1.383212e-07 -9.008145e-08 1.0130533e-08 -1.9846844e-08 -2.433316e-07 1.4443971e-07
4.982812e-08 6.7861228e-09 -1.2760212e-07 5.538171e-08 6.684451e-08 -2.5804201e-08 -1.3004036e-07 1.9339312e-07
-9.135844e-08 6.74758e-08 -3.321515e-08 -7.632307e-08 -8.626717e-08 3.6855678e-08 -1.6227037e-08 -3.516455e-08
9.3811686e-08 2.806007e-08 -4.5307196e-08 1.8762401e-07 -4.5076156e-08 -2.7795902e-08 3.9365638e-08 1.367712e-07
1.4492641e-08 -1.5258092e-07 -8.486139e-08 -1.1411201e-07 -3.080137e-08 -1.18728245e-08 8.473734e-08 -6.3402092e-09
-4.153351e-08 1.9221558e-09 -1.1394936e-07 -4.6235023e-08 2.761177e-08 -1.8970018e-08 -3.483486e-08 -7.5453116e-08
6.823189e-08 1.03212635e-07 -2.0156333e-08 5.561504e-09 9.409154e-08 1.3332739e-07 8.852135e-09 -1.3726306e-07
-0.00050097477 0.018252408 0.014481996 0.0077328794 -0.01184528 0.0035357664 -0.017240211 0.00945091
-0.005822019 -0.028487608 0.01676338 0.009511905 -0.023340745 -0.018580275 0.0074001597 0.011454035
0.006804552 0.0066703064 -0.0005192459 -0.015681753 0.010164025 -0.006346543 0.017536305 0.0036774382
0.012264664 0.007691387 -0.01419514 0.015653964 -6.0997554e-05 -0.02575547 0.0066029686 -0.0030982671
0.016383555 0.00830262 0.017200295 0.0045708716 -0.008970991 -0.0071487557 -0.020092111 -0.02699213
0.026998872 -0.008591904 -0.008437334 -0.007181956 -0.017087432 -0.005079813 -0.014083896 0.017029407
0.0036702114 0.026908675 -0.018295676 -0.008406048 0.005293088 -0.0076623843 -0.00018650113 -0.0003938497
0.0039082887 -0.01124421 0.017077211 -0.0023495099 -0.00013952504 -0.0015237562 0.012972439 -0.011307456
00000000: b7f3 99bb ff40 9bbb 31f3 ac3b e4d0 9239
00000010: 7e4f 2c39 1ad6 9cbb 7a91 9e3b 9395 6d3b
00000020: 723d 5cbc 691d 5f3c c356 3ebc 5325 643c
00000030: 06b1 443c 3b76 4cbc f4bb 3f3c 0fae 4bbc
00000040: 18ad 233c 750d 0ebc 6350 2a3c 7279 1a3c
00000050: 9796 323c 92f5 2b3c 843d 1bbc 8d54 383c
00000060: ba9c 95bb 2f48 083c 0110 393c b8d4 433c
00000070: e013 3bbc 9c5d 3e3c 84da 9a3b 0fb4 03bc
00000080: 0afd e93b 4807 5c3b e5e9 d0bb 114a 633c
00000090: 113e efba bdb5 63bc 8611 033b 46fc 7b3c
000000a0: 9bb6 303c c3f3 183c 1dc5 14bc abae 323c
000000b0: b873 3b3c 2da9 0b3c 400e 093c 0e3b dabb
000000c0: 5429 4e3c cebb 403c 3ef8 3e3c 5d86 54bc
000000d0: ac5b 5cbc 0b58 bf3b c1f0 5cbc e975 22bc
000000e0: b3c4 da3b 40ed e1bb fae1 ccba 1205 04bc
000000f0: d487 0e3c 1213 023c 71e4 b5ba c84a 0abc
00000100: dfae edb2 7124 a931 0dcb 88b2 2008 be32
00000110: fabd dbb2 cd1e 97b3 eb05 bf33 3caf a2b2
00000120: aaf9 8833 dfb7 9a33 7185 14b4 cd72 c1b3
00000130: 8e0a 2e32 ac7b aab2 3ea3 82b4 4917 1b34
00000140: 9902 5633 5e2b e931 0103 09b4 d6dc 6d33
00000150: 288c 8f33 0aa8 ddb2 39a1 0bb4 7fa7 4f34
00000160: d530 c4b3 37e7 9033 72a8 0eb3 0de7 a3b3
00000170: e141 b9b3 3f4b 1e33 a263 8bb2 d507 17b3
00000180: 8575 c933 bf08 f132 ca97 42b3 b275 4934
00000190: c299 41b3 d6c3 eeb2 fa12 2933 62db 1234
000001a0: 4ffb 7832 20d5 23b4 0b3d b6b3 be0d f5b3
000001b0: 774a 04b3 3cf9 4bb2 d8f8 b533 12d9 d9b1
000001c0: 9462 32b3 ec16 0431 53b4 f4b3 f293 46b3
000001d0: ed2e ed32 83f3 a2b2 559d 15b3 ca08 a2b3
000001e0: e186 9233 bfa5 dd33 3f24 adb2 8217 bf31
000001f0: 5f0f ca33 c128 0f34 1a14 1832 9562 13b4
00000200: d953 03ba 1386 953c e545 6d3c 1864 fd3b
00000210: b512 42bc 51b8 673b 583b 8dbc fdd7 1a3c
00000220: a3c6 bebb d85e e9bc 5b53 893c d2d7 1b3c
00000230: 1735 bfbc a935 98bc 0a7d f23b b4a9 3b3c
00000240: b8f8 de3b 9692 da3b 011e 08ba 0577 80bc
00000250: 0387 263c a9f6 cfbb 4ca8 8f3c 2d01 713b
00000260: bbf1 483c 0808 fc3b bc92 68bc be3c 803c
00000270: a0d7 7fb8 23fd d2bc b75d d83b 4c0c 4bbb
00000280: ce36 863c b607 083c a2e7 8c3c 40c7 953b
00000290: 10fb 12bc 1c40 eabb 3698 a4bc 991e ddbc
000002a0: bd2c dd3c 0fc5 0cbc be3c 0abc 9d56 ebbb
000002b0: f1fa 8bbc 8f74 a6bb 24c0 66bc 4181 8b3c
000002c0: ee87 703b 956f dc3c d0e0 95bc 85b9 09bc
000002d0: a471 ad3b bd14 fbbb 848f 43b9 9d7d ceb9
000002e0: 1a11 803b a339 38bc 82e5 8b3c 3cfa 19bb
000002f0: 784d 12b9 c6b8 c7ba 5a8a 543c e842 39bc

dataset_encoder.transformer.layers.0.self_attn.out_proj.weight f4 [64, 64]
0.00998364 -0.007212869 0.102971606 0.0023259602 -0.028083622 -0.033586398 -0.1073926 -0.0618631
0.026008667 -0.017502936 0.07315869 0.072637506 -0.0051437076 -0.0070936275 -0.060113102 0.039425317
-0.049955726 -0.064571425 0.0066234204 0.124427274 -0.019336144 -0.08745724 -0.004797374 0.08554828
0.13518633 0.021206671 -0.031713203 0.10772864 -0.11486892 0.022145517 0.09076278 0.047645997
0.09649215 0.06256734 -0.010507984 -0.056582544 0.060023624 -0.03411448 -0.02402745 -0.05483952
0.013322141 -0.012715792 -0.08726091 0.0028962374 0.10902794 0.10781628 -0.012872532 0.14227347
-0.063148275 0.06977136 0.05235054 0.096303515 -0.021417953 0.008522832 -0.032923725 -0.0035452123
-0.041874465 -0.079168886 0.064304225 -0.02179819 0.007755276 -0.109887846 0.08486933 -0.08518965
0.046259876 0.043312494 0.019681737 0.117390975 -0.11141194 0.070696115 0.017255902 -0.018516239
0.06004377 -0.013104083 -0.070688486 -0.102621324 -0.08523887 0.12120598 0.086619884 0.014132547
0.004256863 -0.00823072 -0.003706875 0.10781828 -0.028764192 0.033553805 0.09562889 0.02668362
-0.10435707 -0.05286368 0.0057947286 0.023784246 -0.039573036 -0.0921497 -0.078600645 0.038158957
-0.053357664 -0.108971626 0.12334463 0.018857764 0.07095706 -0.0052643 -0.07935288 0.043406278
0.09147669 -0.074396074 0.00022948245 0.0958915 -0.079865955 0.073769435 0.041572336 -0.08140903
-0.12900628 -0.011209471 -0.0022133114 -0.05794002 0.06259076 -0.1036871 0.028555417 -0.007629545
0.050492775 -0.11447822 -0.0046488624 0.084671624 0.07473326 0.10447734 0.023019152 0.06516806
-0.093993194 -0.119596794 -0.07626761 0.07626895 0.06985962 -0.04343552 0.03580643 -0.09332491
-0.013260334 -0.13064137 0.105280966 0.13328837 -0.12180166 0.0686354 0.022691134 -0.07665273
0.07049351 0.017100086 0.087739155 -0.118801884 -0.013103176 0.10833596 -0.074161135 -0.081159286
0.04824767 -0.11334901 -0.10089044 0.02747186 -0.03321084 0.09534329 -0.0042893635 0.12968352
-2.4626497e-05 0.08027526 0.068308346 0.04417567 7.6230746e-05 0.057796337 -0.096870676 0.08865405
-0.08511177 -0.11849972 -0.12650448 -0.081740186 0.07153287 0.04083612 -0.011478066 -0.11609089
0.091008104 0.11112711 -0.09911903 0.034984473 -0.0932957 -0.10852534 -0.013324042 -0.010474172
0.08923463 -0.005430938 0.030106869 -0.06569031 0.0128999455 0.07809505 -0.073465385 -0.020476466
-0.057323243 -0.111774676 -0.072877795 -0.06336431 0.034852084 0.025311973 -0.08255542 0.09043111
-0.111918144 0.0050716395 0.048778288 -0.08262081 -0.05576241 0.12978087 0.115658455 -0.10226215
0.079305105 0.012606174 -0.031700365 0.034038536 0.045300893 -0.09728329 0.10859073 0.053298775
-0.09346922 0.08173842 -0.02552312 0.08784064 0.08669699 -0.09830776 -0.085230194 -0.0045438544
-0.033721663 0.09240873 0.09989125 0.02988432 0.05732309 0.005060329 -0.040432267 -0.048720982
-0.02353108 0.013171383 0.0035159811 0.11033984 -0.08795986 0.0772895 0.107035406 0.074957825
0.07176196 -0.07244531 0.029848667 0.019194758 -0.090372965 0.08744157 -0.03688243 -0.0049241665
0.08204859 0.07179566 0.06017154 0.06764482 0.06810906 -0.050953105 0.033672664 0.07365493
00000000: 6c92 233c ee59 ecbb c7e2 d23d 236f 183b
00000010: a00f e6bc e491 09bd a7f0 dbbd 2964 7dbd
00000020: 2110 d53c 5162 8fbc 39d4 953d f9c2 943d
00000030: 8c8c a8bb a971 e8bb 2839 76bd 717c 213d
00000040: 609e 4cbd 063e 84bd 4709 d93b bad3 fe3d
00000050: d566 9ebc c81c b3bd 4a33 9dbb f033 af3d
00000060: 496e 0a3e 9db9 ad3c b4e5 01bd d5a0 dc3d
00000070: 6540 ebbd 846a b53c d6e1 b93d 7328 433d
00000080: ad9d c53d 4e23 803d ae29 2cbc 19c3 67bd
00000090: 55db 753d a0bb 0bbd 37d5 c4bc 689f 60bd
000000a0: 1c45 5a3c e655 50bc d9b5 b2bd cdce 3d3b
000000b0: 0a4a df3d c8ce dc3d 50e7 52bc 23b0 113e
000000c0: e253 81bd 49e4 8e3d 856d 563d c73a c53d
000000d0: b474 afbc 59a3 0b3c 07db 06bd cb56 68bb
000000e0: 8f84 2bbd 4c23 a2bd efb1 833d 1e92 b2bc
000000f0: f81f fe3b e10c e1bd f9cf ad3d e977 aebd
00000100: ff7a 3d3d 7168 313d 983b a13c ae6a f03d
00000110: f12b e4bd 20c9 903d 405c 8d3c 5eaf 97bc
00000120: 75f0 753d 82b2 56bc 20c5 90bd 212b d2bd
00000130: b791 aebd d73a f83d c465 b13d 338c 673c
00000140: 287d 8b3b 24da 06bc 0bef 72bb d5cf dc3d
00000150: e2a2 ebbc b76f 093d 14d9 c33d 9b97 da3c
00000160: 29b9 d5bd 9687 58bd b5e1 bd3b 2ed7 c23c
00000170: 5617 22bd fbb8 bcbd 60f9 a0bd 914c 1c3d
00000180: 918d 5abd 842c dfbd 1c9c fc3d 997b 9a3c
00000190: ef51 913d 2680 acbb c383 a2bd c8ca 313d
000001a0: 2158 bb3d f85c 98bd 3aa1 7039 c362 c43d
000001b0: c390 a3bd 6e14 973d c147 2a3d c7b9 a6bd
000001c0: 391a 04be eea7 37bc 340d 11bb 8452 6dbd
000001d0: 962f 803d e759 d4bd 0ded e93c 4301 fabb
000001e0: 83d1 4e3d 8f73 eabd 7c55 98bb 5168 ad3d
000001f0: c00d 993d 37f8 d53d a992 bc3c d576 853d
00000200: 817f c0bd 2aef f4bd 3132 9cbd e532 9c3d
00000210: 8f12 8f3d 72e9 31bd c3a9 123d 2121 bfbd
00000220: df41 59bc dac6 05be 8c9d d73d bf7c 083e
00000230: 2673 f9bd b790 8c3d c2e2 b93c 1bfc 9cbd
00000240: e75e 903d 7b15 8c3c 96b0 b33d 674e f3bd
00000250: b4ae 56bc 3edf dd3d cbe1 97bd d736 a6bd
00000260: 599f 453d 8723 e8bd a69f cebd ab0c e13c
00000270: 1708 08bd 5843 c33d ca8d 8cbb c2cb 043e
00000280: 0095 ceb7 5b67 a43d 3fe5 8b3d 8cf1 343d
00000290: 12de 9f38 dabb 6c3d 2264 c6bd 4190 b53d
000002a0: 144f aebd fbaf f2bd 648a 01be 6667 a7bd
000002b0: d37f 923d c643 273d 800e 3cbc 0fc1 edbd
000002c0: 7562 ba3d 9c96 e33d ebfe cabd e14b 0f3d
000002d0: d111 bfbd 8942 debd 154d 5abc dd9b 2bbc
000002e0: a5c0 b63d 03f6 b1bb aea2 f63c a488 86bd
000002f0: 4b5a 533c 4cf0 9f3d 0575 96bd 43be a7bc
00000300: c7cb 6abd 1fea e4bd f440 95bd 26c5 81bd
00000310: 0fc1 0e3d 0e5b cf3c d112 a9bd f233 b93d
00000320: 5735 e5bd ff2f a63b becb 473d 1935 a9bd
00000330: 2067 64bd 47e5 043e 57de ec3d d16e d1bd
00000340: b76a a23d 208a 4e3c 3ed8 01bd fe6b 0b3d
00000350: 6e8d 393d 763c c7bd d164 de3d d14f 5a3d
00000360: ca6c bfbd 7966 a73d dd15 d1bc cbe5 b33d
00000370: 318e b13d 9455 c9bd 2b8d aebd 9de4 94bb
00000380: ba1f 0abd ca40 bd3d c993 cc3d f6cf f43c
00000390: 9ecb 6a3d 1ed1 a53b 4e9c 25bd a78f 47bd
000003a0: 40c4 c0bc c9cc 573c 606c 663b dbf9 e13d
000003b0: 4d24 b4bd f549 9e3d 6135 db3d 7d83 993d
000003c0: eff7 923d 355e 94bd 3185 f43c 533e 9d3c
000003d0: 7615 b9bd 9114 b33d 0812 17bd e75a a1bb
000003e0: 1709 a83d 9a09 933d 6f76 763d 5e89 8a3d
000003f0: c37c 8b3d 34b4 50bd 59ec 093d 65d8 963d

dataset_encoder.transformer.layers.0.self_attn.out_proj.bias f4 [64]
0.013563903 -0.026666237 0.009463238 -0.007862453 0.012257679 0.02547806 0.02714884 -0.012598735
-0.020636965 -0.0051293066 -0.011505483 -0.02083376 -0.0016061873 0.005141003 0.0012075079 0.017614394
0.022691302 -0.003610864 -0.006749061 0.0056503997 -0.00980154 -0.0039236858 -0.003524316 -0.011694262
-0.026935356 -0.016631357 -0.0031000758 0.028223144 0.029707437 -0.0063177887 0.012775232 -0.017871566
0.017570667 0.024247201 -0.0038540412 -0.006096946 -0.027060412 0.004405149 -0.008853221 -0.0072657024
0.023050705 0.03186997 -0.011105428 0.024062464 0.01403899 0.005320315 0.006282841 0.0027213115
0.01958923 -0.0047012544 0.002561506 0.008491103 -0.013184724 -0.037807442 -0.005474181 -0.017120574
-0.021367617 -0.025898313 -0.01861975 0.022394998 0.021314345 -0.007354904 0.003720185 -0.003779446
00000000: 223b 5e3c 2773 dabc b20b 1b3c 85d1 00bc
00000010: 6fd4 483c 5db7 d03c 3e67 de3c ed6a 4ebc
00000020: da0e a9bc be13 a8bb 7e81 3cbc 90ab aabc
00000030: b486 d2ba dc75 a83b 3e45 9e3a 104c 903c
00000040: 1ce3 b93c 3fa4 6cbb 3a27 ddbb fd26 b93b
00000050: a396 20bc 4392 80bb 36f8 66bb 4a99 3fbc
00000060: 89a7 dcbc 7c3e 88bc a42a 4bbb 3934 e73c
00000070: 035d f33c 7405 cfbb 354f 513c 6467 92bc
00000080: 5cf0 8f3c 11a2 c63c 1594 7cbb e4c8 c7bb
00000090: ccad ddbc 1159 903b 1a0d 11bc 2115 eebb
000000a0: d5d4 bc3c 168a 023d 8bf3 35bc a51e c53c
000000b0: cb03 663c 0956 ae3b 4ae0 cd3b 0858 323b
000000c0: 9879 a03c fb0c 9abb f0de 273b 441e 0b3c
000000d0: be04 58bc fadb 1abd c260 b3bb 7240 8cbc
000000e0: 240b afbc b328 d4bc 7288 98bc b775 b73c
000000f0: 6c9b ae3c 6801 f1bb 59ce 733b 95b0 77bb

dataset_encoder.transformer.layers.0.linear1.weight f4 [128, 64]
0.058714677 -0.07969128 0.05851997 -0.0731987 0.07423767 0.060276534 -0.07519045 0.032034002
-0.026649209 -0.018775329 0.026808597 -0.10235944 0.012338328 -0.050788857 0.006453922 0.04011042
-0.08067817 0.014692133 -0.008692801 0.01481715 -0.019026827 -0.050644178 -0.08348626 -0.033513036
-0.10317967 -0.08227424 0.09914586 -0.10813599 0.104196906 0.109718524 0.11351693 -0.029457865
-0.0062697157 0.07889164 -0.09169373 0.09295058 -0.12027512 0.035977058 0.14846748 0.06732185
-0.07509099 -0.04769076 0.095184736 -0.1061251 -0.058302533 0.025893437 -0.020697622 -0.09832948
-0.026696337 0.077137806 -0.11450129 -0.11532523 -0.14151867 -0.13376786 0.035540942 0.09409079
0.084462315 -0.039667368 -0.030266969 0.07095693 0.08944869 -0.01882343 0.10006253 -0.1296176
0.108841635 -0.033812385 0.12384619 -0.020715551 0.09560475 -0.08134909 0.12684636 -0.05481677
-0.07754046 0.09089194 0.1155169 -0.023679249 -0.031603012 0.055322662 0.062170923 0.05688352
-0.004895932 -0.06012272 0.05369592 0.0594215 0.042193096 -0.11954709 -0.011872125 -0.04834048
0.12618479 -0.10899413 0.059539553 0.09118455 0.09996627 0.04018653 -0.109962486 -0.002413257
-0.11890968 0.08749337 -0.033891927 -0.061578207 -0.04887906 -0.047243543 0.11416024 0.065184936
0.0012136075 -0.109993316 -0.03218719 0.043412633 -0.11746405 0.07405155 -0.036338195 0.0023439317
0.0073877964 0.01842029 -0.09621511 0.12001164 -0.047789417 0.11164027 0.023896966 -0.08788299
0.028954333 -0.12030864 0.053410154 0.09345038 -0.116801366 0.10493942 0.079363726 0.0661636
-0.048298374 0.06734109 -0.073677786 -0.03521 -0.053166125 -0.09730266 -0.09808045 0.004400718
-0.06968554 -0.028906068 -0.033593737 -0.091782935 0.046317715 0.036309503 -0.09968068 -0.09501365
-0.04184873 0.08037301 0.015073069 0.004959319 0.14215603 -0.040114745 -0.07973868 0.044416953
0.06350259 -0.06076317 0.09916387 -0.077574015 -0.046500467 -0.042805575 -0.056563582 -0.013299059
-0.0930794 -0.009682606 0.036260653 -0.106039725 -0.01908972 -0.11187543 -0.061277952 0.0048192684
-0.09635285 0.0077613215 0.09588375 0.12961815 0.093539976 -0.063087285 0.09202403 0.11268546
0.07398159 0.104054675 -0.009442679 0.06978682 0.005599988 0.03207087 0.098964624 -0.104748756
-0.07699928 -0.055015713 -0.028059542 -0.09816497 -0.1393131 0.011049915 -0.08954343 -0.086524196
-0.08073874 0.023957582 0.09657484 0.05113342 -0.012930232 0.08744846 0.062063284 0.08143006
-0.08071253 -0.06873184 -0.016053876 -0.05158715 0.015019685 0.00022059379 -0.0025873564 0.018318424
-0.009185573 0.0042992863 -0.04732565 0.119539745 -0.08897633 -0.059203345 0.0951986 0.012274833
-0.00033029332 -0.034308728 -0.0802037 0.08411053 -0.077101536 -0.03380632 0.019885339 -0.076607294
-0.12624031 0.06670666 -0.08938798 0.011864657 0.11012907 -0.10596152 0.08218048 0.01644715
0.046348087 -0.009116426 0.055913337 -0.07914956 -0.08485324 0.06516241 -0.048340537 0.024800077
-0.13136369 -0.13611671 0.04441609 -0.046754297 0.07458915 0.048591834 -0.0424961 0.09265158
-0.030549064 -0.025839841 0.0960433 -0.005510119 -0.014099361 -0.07475096 -0.052229404 0.106927626
00000000: cd7e 703d 2f35 a3bd a3b2 6f3d 33e9 95bd
00000010: eb09 983d 87e4 763d 73fd 99bd 1636 033d
00000020: 714f dabc b8ce 99bc b49d db3c d3a1 d1bd
00000030: b326 4a3c fa07 50bd 6c7b d33b d34a 243d
00000040: 993a a5bd 46b7 703c 406c 0ebc a2c3 723c
00000050: 26de 9bbc 4570 4fbd d8fa aabd f744 09bd
00000060: dd4f d3bd 667f a8bd fc0c cb3d 6776 ddbd
00000070: 3065 d53d 1bb4 e03d 907b e83d 9f51 f1bc
00000080: 3072 cdbb f191 a13d ecc9 bbbd e05c be3d
00000090: cd52 f6bd ae5c 133d dc07 183e 0ae0 893d
000000a0: 4ec9 99bd 6357 43bd 37f0 c23d 1e58 d9bd
000000b0: a3ce 6ebd 791e d43c 0f8e a9bc f760 c9bd
000000c0: 47b2 dabc 6dfa 9d3d a77f eabd a22f ecbd
000000d0: 45ea 10be 71fa 08be 6193 113d acb2 c03d
000000e0: 94fa ac3d 407a 22bd 6ff2 f7bc de51 913d
000000f0: e030 b73d 9833 9abc 95ed cc3d 7aba 04be
00000100: 5de8 de3d db7e 0abd 12a3 fd3d a9b3 a9bc
00000110: 6ccc c33d 5a9a a6bd 03e4 013e 8d87 60bd
00000120: 88cd 9ebd 8e25 ba3d 2094 ec3d fcfa c1bc
00000130: 2972 01bd 049a 623d f0a6 7e3d b2fe 683d
00000140: 0e6e a0bb 3e43 76bd 41f0 5b3d f563 733d
00000150: abd2 2c3d 1bd5 f4bd 4d83 42bc ab00 46bd
00000160: 9636 013e 5038 dfbd bfdf 733d f7be ba3d
00000170: 1ebb cc3d a29a 243d 0334 e1bd bc27 1ebb
00000180: eb86 f3bd b92f b33d 43d2 0abd 6e39 7cbd
00000190: 6935 48bd 7282 41bd d8cc e93d ae7f 853d
000001a0: e911 9f3a 2d44 e1bd b7d6 03bd 72d1 313d
000001b0: fe90 f0bd 57a8 973d 5cd7 14bd a69c 193b
000001c0: 5415 f23b 26e6 963c 6d0c c5bd aac8 f53d
000001d0: d6be 43bd a7a3 e43d 92c3 c33c fffb b3bd
000001e0: a331 ed3c 6064 f6bd 9bc4 5a3d ea62 bf3d
000001f0: 8e35 efbd 7bea d63d 7389 a23d c880 873d
00000200: 84d4 45bd 20ea 893d 61e4 96bd 5c38 10bd
00000210: b9c4 59bd 9e46 c7bd 67de c8bd e633 903b
00000220: 4bb7 8ebd 6bcc ecbc 9699 09bd b1f8 bbbd
00000230: a5b7 3d3d 46b9 143d 6225 ccbd 8496 c2bd
00000240: 9369 2bbd 9b9a a43d 09f5 763c c881 a23b
00000250: 5a91 113e 5c4f 24bd 084e a3bd 8dee 353d
00000260: a50d 823d cde2 78bd 6d16 cb3d 20df 9ebd
00000270: 4677 3ebd e654 2fbd 37af 67bd 4ce4 59bc
00000280: 6aa0 bebd cba3 1ebc 0d86 143d 5b2b d9bd
00000290: 0b62 9cbc f21e e5bd 97fe 7abd f4ea 9d3b
000002a0: a554 c5bd af52 fe3b b35e c43d 9fba 043e
000002b0: e391 bf3d e833 81bd 1877 bc3d a2c7 e63d
000002c0: a983 973d 9e1a d53d 77b5 1abc 64ec 8e3d
000002d0: 1b80 b73b bf5c 033d f7ad ca3d 8486 d6bd
000002e0: ccb1 9dbd 2858 61bd 20dd e5bc b70a c9bd
000002f0: 18a8 0ebe b40a 353c 8c62 b7bd 9933 b1bd
00000300: 5a5a a5bd b142 c43c 08c9 c53d 4771 513d
00000310: 53d9 53bc 2e18 b33d 1236 7e3d cec4 a63d
00000320: 9c4c a5bd 47c3 8cbd 6b83 83bc 0c4d 53bd
00000330: 2015 763c 324f 6739 a390 29bb 8510 963c
00000340: 167f 16bc 07e1 8c3b 8ad8 41bd 41d1 f43d
00000350: 3939 b6bd 357f 72bd 7cf7 c23d 621c 493c
00000360: 382b adb9 4f87 0cbd d641 a4bd 2442 ac3d
00000370: 69e7 9dbd 7f78 0abd 94e6 a23c 49e4 9cbd
00000380: 2445 01be 809d 883d 0c11 b7bd fa63 423c
00000390: 5a8b e13d 5a02 d9bd 3d4e a83d 2cbc 863c
000003a0: 7ed7 3d3d 105d 15bc 6205 653d 2a19 a2bd
000003b0: 89c7 adbd df73 853d ba00 46bd 8829 cb3c
000003c0: 3484 06be 2e62 0bbe a5ed 353d 6f81 3fbd
000003d0: 32c2 983d 3b08 473d 6410 2ebd 1dc0 bd3d
000003e0: 0842 fabc 13ae d3bc 5ab2 c43d 3a8e b4bb
000003f0: 0201 67bc 0817 99bd 80ee 55bd dffc da3d

dataset_encoder.transformer.layers.0.linear1.bias f4 [128]
0.01148979 0.090467416 0.1016231 0.04913483 -0.1263673 -0.033407893 0.099913634 -0.11599194
0.092069864 -0.07180584 0.11345517 0.08671845 -0.025792195 0.012052299 -0.091766074 0.009562942
-0.06301786 0.061503883 -0.077329874 -0.039604735 -0.04085222 0.0037631397 0.054077666 -0.11893301
0.047392122 -0.02202295 0.01442266 -0.09452365 0.09018459 -0.12733513 0.0022519366 -0.016095614
-0.05394064 0.0766469 -0.052807055 -0.00043441152 -0.07176996 -0.12715739 -0.055760074 0.1284877
0.0128998915 -0.04183498 0.06733946 0.037248813 -0.05660324 0.10351032 -0.038110264 -0.1394345
0.09902691 0.016908938 0.06960794 0.11336843 0.00637268 0.05875829 0.10906968 0.04425013
-0.11328768 -0.104655854 -0.03240472 -0.09303573 -0.07366643 -0.015546125 -0.09384809 0.068935975
-0.11031277 -0.102939166 -0.035523005 0.048894163 0.056844063 -0.090933375 -0.02139178 0.099781774
0.029284826 -0.07836531 0.11058491 -0.102100156 -0.03572915 0.08847771 0.07324699 -0.03638651
-0.054142192 -0.050267454 -0.076904535 -0.04255798 0.056286134 0.0021336656 0.08152857 -0.0960736
-0.07520154 -0.03198834 0.078254975 0.011132521 -0.11174708 0.1103588 0.022643235 -0.07761665
-0.05213548 -0.12742986 -0.12212022 0.004446023 0.057585027 -0.03957187 0.029080145 0.0047207223
0.1434427 0.119521506 -0.11589948 0.023063373 -0.07604437 -0.08720711 -0.06828249 0.037875753
0.023174223 -0.07042371 -0.08499131 -0.09768356 0.12007645 -0.009720972 -0.027004613 0.1236126
0.09756326 -0.12234873 0.09758458 0.06852643 -0.11791741 0.022183027 0.027210487 0.040882695
00000000: ac3f 3c3c fb46 b93d c61f d03d 9a41 493d
00000010: 6e66 01be b7d6 08bd 859f cc3d 2f8d edbd
00000020: 208f bc3d f10e 93bd 2f5b e83d 7199 b13d
00000030: 274a d3bc 0277 453c daef bbbd e3ad 1c3c
00000040: 820f 81bd 7feb 7b3d 205f 9ebd 9338 22bd
00000050: a854 27bd 029f 763b 8b80 5d3d 2693 f3bd
00000060: 3e1e 423d 7969 b4bc 054d 6c3c 9e95 c1bd
00000070: b3b2 b83d 2464 02be 3a95 133b f3da 83bc
00000080: dcf0 5cbd 0df9 9c3d 364c 58bd bac1 e3b9
00000090: 21fc 92bd 8c35 02be ad64 64bd 4892 033e
000000a0: 115a 533c 285b 2bbd 45e9 893d 3692 183d
000000b0: cdd8 67bd 38fd d33d 8219 1cbd ebc7 0ebe
000000c0: 9fce ca3d 9d84 8a3c 9c8e 8e3d b52d e83d
000000d0: ead1 d03b 88ac 703d ed5f df3d a03f 353d
000000e0: 5f03 e8bd cf55 d6bd d0ba 04bd 8489 bebd
000000f0: 6dde 96bd 2db5 7ebc 6d33 c0bd 4e2e 8d3d
00000100: a9eb e1bd c5d1 d2bd 9280 11bd 3f45 483d
00000110: 52d5 683d 473b babd d03d afbc 635a cc3d
00000120: bbe6 ef3c fe7d a0bd 577a e23d e319 d1bd
00000130: bb58 12bd cd33 b53d 8502 963d 050a 15bd
00000140: 34c4 5dbd 3fe5 4dbd 2080 9dbd 4751 2ebd
00000150: 4a8c 663d f8d4 0b3b 73f8 a63d 3cc2 c4bd
00000160: 4403 9abd 3506 03bd 2544 a03d 2d65 363c
00000170: a7db e4bd cb03 e23d 4e7e b93c 7af5 9ebd
00000180: 038c 55bd f97c 02be 2a1a fabd f2af 913b
00000190: 47de 6b3d 1d16 22bd 7c39 ee3c 4ab0 9a3b
000001a0: a5e2 123e b1c7 f43d b55c edbd 66ef bc3c
000001b0: 27bd 9bbd a499 b2bd b1d7 8bbd 9b23 1b3d
000001c0: ded7 bd3c 4e3a 90bd ed0f aebd 510e c8bd
000001d0: a4ea f53d b644 1fbc c738 ddbc 9a28 fd3d
000001e0: 3fcf c73d f991 fabd 6dda c73d 9657 8c3d
000001f0: af7e f1bd 2eb9 b53c 87e8 de3c 9d74 273d

dataset_encoder.transformer.layers.0.linear2.weight f4 [64, 128]
0.057947457 -0.053684775 0.031745598 0.032962754 0.046386816 -0.08605448 0.038001113 -0.097204
0.08432922 -0.07723089 -0.07230725 0.0011446585 0.031788226 -0.033994067 0.06052397 0.012891733
0.052649356 -5.085263e-05 -0.09162942 -0.09457099 -0.029914834 0.042811923 -0.07725043 -0.042894688
-0.033989653 0.05020062 -0.0018518317 -0.037589956 -0.03814133 -0.083070815 -0.032736693 0.027477073
0.034472402 0.085409544 -0.020665621 -0.00842855 0.06273656 -0.0135168545 0.0024791257 -0.044194095
-0.007252183 0.09149991 0.03481443 -0.0763697 0.056625877 0.0074260496 -0.038182855 0.046521597
0.08023018 -0.015865797 -0.09035288 0.04425164 0.049092215 -0.06827867 -0.06570682 -0.009904885
-0.043871567 0.037556563 -0.07256526 -0.06327938 0.054338947 0.046799168 -0.085230306 0.007953723
-0.038629185 -0.011136607 -0.02154639 0.037206195 -0.04403445 0.0048049805 -0.069898896 0.025435345
0.07113736 -0.055323184 -0.08248817 -0.0675659 -0.020594323 -0.008337117 0.031486582 0.069680974
-0.077324174 0.011104713 -0.05218303 0.008771535 0.022090418 -0.018555809 -0.09012875 -0.038413875
-0.08000463 -0.08409835 -0.032364693 0.017262721 0.06894625 0.010471253 0.07491525 -0.05032754
-0.03949851 0.05802407 -0.06377173 -0.007796748 0.013742966 -0.08590067 0.008964666 0.005529132
0.026999542 -0.043417964 -0.021271184 -0.077730514 0.05819948 0.073604874 -0.077893645 -0.059978087
0.037336748 0.014522271 0.041350413 0.023648284 -0.03466174 0.026469205 -0.046266716 0.013092137
-0.04713622 0.023185713 -0.019536845 -0.078980915 -0.00050594786 0.030116184 -0.0610644 0.064304486
-0.00546859 -0.0050804256 -0.02298005 0.020802222 -0.04720214 0.035895046 -0.04743864 0.015142805
-0.10752885 0.06441788 0.0045201997 0.07162465 -0.08750637 0.049189545 -0.08075182 -0.029308926
-0.12799741 0.058881413 0.011976162 0.046529837 -0.07275466 0.010613471 -0.03616139 -0.08869591
0.021745807 -0.063189425 -0.050127592 -0.08857289 -0.020922607 0.028321909 -0.09892698 0.0135045685
-0.008405437 -0.0012841225 -0.019078 -0.020161353 0.044926904 0.07238208 -0.029564384 0.07250547
-0.11865903 -0.099296816 -0.09491691 -0.012603328 -0.021120517 -0.01514031 0.066847205 -0.026193015
-0.09460738 -0.021478822 -0.00916998 -0.053045966 0.061541677 -0.03336994 0.059476715 0.066297926
-0.071135364 0.031249858 -0.093162775 0.039459426 -0.01900805 0.039470002 -0.09413825 -0.03137883
0.048301242 -0.106881514 -0.07359481 -0.08772913 0.0014906495 -0.07100495 0.056426343 -0.001471793
-0.039328586 0.040329996 -0.09990284 0.06428881 -0.057688233 -0.02433701 -0.09147363 -0.008118004
-0.022262072 -0.03937958 0.041309007 0.007845683 -0.034953196 -0.11871516 -0.09904787 -0.09300305
-0.05733624 -0.057921678 -0.04071132 -0.0743442 -0.0037667016 -0.0067565953 0.018228875 0.0016659533
-0.052224316 0.054429095 0.024536163 -0.0365933 -0.03083308 -0.101355985 -0.057300914 -0.08417167
-0.066743806 0.032441653 0.04595837 0.017158851 -0.025666475 -0.063298725 -0.04881081 -0.011759633
-0.10178585 0.047550537 -0.013704919 -0.07721949 -0.086680934 -0.09187508 0.004045156 -0.0071546948
0.011237233 0.03368588 0.02228157 -0.023076307 0.0040176976 -0.070066154 -0.04184948 -0.044171054
00000000: 505a 6d3d 91e4 5bbd ac07 023d f403 073d
00000010: 1a00 3e3d 553d b0bd 0ea7 1b3d e412 c7bd
00000020: ccb4 ac3d 3b2b 9ebd d315 94bd 5e08 963a
00000030: 5f34 023d 5d3d 0bbd fbe7 773d d937 533c
00000040: daa6 573d 984a 55b8 35a8 bbbd 6fae c1bd
00000050: f40f f5bc 8e5b 2f3d 7935 9ebd 57b2 2fbd
00000060: bc38 0bbd 2a9f 4d3d 29b9 f2ba edf7 19bd
00000070: 153a 1cbd 0821 aabd e916 06bd 9917 e13c
00000080: ef32 0d3d 33eb ae3d f34a a9bc e717 0abc
00000090: 077c 803d cc75 5dbc d478 223b de04 35bd
000000a0: b8a3 edbb 4e64 bb3d 9399 0e3d b867 9cbd
000000b0: 89f0 673d 3856 f33b a065 1cbd 6e8d 3e3d
000000c0: b84f a43d fdf8 81bc ee0a b9bd 3541 353d
000000d0: eb14 493d b0d5 8bbd 4c91 86bd 1948 22bc
000000e0: acb2 33bd e9d4 193d 189d 94bd 9f98 81bd
000000f0: 8492 5e3d 7cb0 3f3d 3a8d aebd 5550 023c
00000100: a339 1ebd 5176 36bc 0e82 b0bc 8665 183d
00000110: 785d 34bd 1973 9d3b 2727 8fbd c95d d03c
00000120: 77b0 913d 909a 62bd 8fef a8bd fe5f 8abd
00000130: 6db5 a8bc 6798 08bc 13f8 003d e6b4 8e3d
00000140: 235c 9ebd 8bf0 353c dfbd 55bd 7cb6 0f3c
00000150: f7f6 b43c 5a02 98bc 6c95 b8bd de57 1dbd
00000160: 78d9 a3bd c13b acbd d790 04bd 8d6a 8d3c
00000170: b133 8d3d 9e8f 2b3c 2b6d 993d 4024 4ebd
00000180: 31c9 21bd a6aa 6d3d c19a 82bd dd7b ffbb
00000190: 2d2a 613c b1ec afbd 89e0 123c b92d b53b
000001a0: 252e dd3c 09d7 31bd e840 aebc 2d31 9fbd
000001b0: 9462 6e3d 27be 963d b486 9fbd 95ab 75bd
000001c0: 6bee 183d d2ee 6d3c 0d5f 293d 0cba c13c
000001d0: 78f9 0dbd f2d5 d83c 2b82 3dbd 6780 563c
000001e0: e911 41bd f7ef bd3c bc0b a0bc bfc0 a1bd
000001f0: 96a1 04ba 37b6 f63c aa1e 7abd 12b2 833d
00000200: dc31 b3bb b379 a6bb a840 bcbc 6c69 aa3c
00000210: 0857 41bd af06 133d 054f 42bd 8719 783c
00000220: 1638 dcbd 85ed 833d 2f1e 943b f2af 923d
00000230: 8a36 b3bd fa7a 493d 3661 a5bd 4619 f0bc
00000240: c111 03be a32d 713d aa37 443c 1296 3e3d
00000250: 6500 95bd 20e4 2d3c f71d 14bd 34a6 b5bd
00000260: 4324 b23c 7569 81bd 9752 4dbd b465 b5bd
00000270: e365 abbc 5903 e83c 3a9a cabd 4442 5d3c
00000280: f5b6 09bc 0050 a8ba 7749 9cbc 6c29 a5bc
00000290: 4605 383d 0e3d 943d 0231 f2bc bf7d 943d
000002a0: 8103 f3bd 215c cbbd cc63 c2bd 307e 4ebc
000002b0: ef04 adbc 100f 78bc 30e7 883d bc92 d6bc
000002c0: 84c1 c1bd 5bf4 afbc af3d 16bc ba46 59bd
000002d0: 2013 7c3d ebae 08bd db9d 733d 35c7 873d
000002e0: 6baf 91bd b4ff ff3c 20cc bebd 35a0 213d
000002f0: c5b6 9bbc 4cab 213d 8ecb c0bd 1787 00bd
00000300: 86d7 453d b2e4 dabd e0b8 96bd 55ab b3bd
00000310: e661 c33a 0b6b 91bd 4f1f 673d 2ee9 c0ba
00000320: 0317 21bd 1131 253d dc99 ccbd daa9 833d
00000330: 7f4a 6cbd 695e c7bc 8756 bbbd 6001 05bc
00000340: f35e b6bc 7c4c 21bd a233 293d 2e8b 003c
00000350: 152b 0fbd ef20 f3bd 9cd9 cabd 6278 bebd
00000360: 68d9 6abd 483f 6dbd eac0 26bd c641 98bd
00000370: c4da 76bb 6e66 ddbb b954 953c 1e5c da3a
00000380: 2ae9 55bd 0bf1 5e3d 1000 c93c dbe2 15bd
00000390: a895 fcbc ba93 cfbd 5db4 6abd 3262 acbd
000003a0: fab0 88bd 8ae1 043d d83e 3c3d b890 8c3c
000003b0: 8042 d2bc c3a2 81bd d8ed 47bd 7aab 40bc
000003c0: 1a75 d0bd 5ac4 423d 998a 60bc 4125 9ebd
000003d0: c685 b1bd 0029 bcbd 3a8d 843b ee71 eabb
000003e0: 5f1c 383c 35fa 093d d787 b63c 860a bdbc
000003f0: e4a6 833b d87e 8fbd 5c6a 2bbd b5ec 34bd

dataset_encoder.transformer.layers.0.linear2.bias f4 [64]
-0.077231996 -0.020110346 -0.011523931 -0.015631912 0.059504572 0.02976086 -0.037332054 0.0333548
-0.014951628 0.06040263 0.061835706 0.06219095 -0.008771241 0.07312885 0.01099165 0.04106342
0.10825148 -0.06032025 0.041911118 0.017829474 -0.02321861 -0.0729612 -0.058203924 -0.035163756
0.021749834 -0.057661626 -0.086005084 0.055785105 0.0036898465 0.009660223 -0.085138366 -0.01208441
-0.06941644 0.028453715 -0.050317854 -0.004364019 -0.097797304 -0.017474506 -0.066461995 -0.020634495
0.058794446 0.09924298 -0.04890939 0.05541794 0.043662477 0.028530693 0.06542966 -0.04783582
0.09322523 -0.06453813 -0.0061994693 -0.08306281 0.05123144 -0.004543282 0.058056656 0.067292675
-0.057190362 -0.034059968 -0.065653145 -0.07911386 -0.05557957 -0.042774554 -0.09533509 0.09225397
00000000: cf2b 9ebd 74be a4bc dfce 3cbc 7f0e 80bc
00000010: 11bb 733d 0ccd f33c 7fe9 18bd 0b9f 083d
00000020: acf7 74bc c068 773d 7047 7d3d f0bb 7e3d
00000030: 40b5 0fbc 94c4 953d 5216 343c 1e32 283d
00000040: f4b2 dd3d 5e12 77bd feaa 2b3d 1e0f 923c
00000050: f434 bebc ae6c 95bd 3d67 6ebd df07 10bd
00000060: b52c b23c 992e 6cbd 6f23 b0bd ec7e 643d
00000070: 5ad1 713b e945 1e3c 065d aebd b0fd 45bc
00000080: 352a 8ebd c417 e93c 181a 4ebd 0b00 8fbb
00000090: f449 c8bd b226 8fbc 3a1d 88bd ac09 a9bc
000000a0: 72d2 703d e73f cb3d 3655 48bd ecfd 623d
000000b0: 6dd7 323d 33b9 e93c fcff 853d 7eef 43bd
000000c0: dfec be3d 912c 84bd eb24 cbbb d61c aabd
000000d0: 0fd8 513d d0df 94bb d1cc 6d3d bed0 893d
000000e0: 7140 6abd 7782 0bbd 2875 86bd 7306 a2bd
000000f0: 67a7 63bd 5f34 2fbd 0b3f c3bd a6ef bc3d

dataset_encoder.transformer.layers.0.norm1.weight f4 [64]
0.98365265 0.9973414 0.9962784 0.98517114 1.0001031 0.9905209 0.97542197 0.98116016
1.0163814 1.0002384 1.0002011 0.9811238 1.0081348 1.0165602 1.0003468 1.0151706
1.006579 1.0036137 0.9797834 0.9900168 1.0088512 0.9784729 0.9784428 0.9992613
1.010943 0.9941565 0.9944336 1.0102613 1.0132376 0.9879237 0.99507236 0.9791714
0.99561065 0.9915467 0.9935849 0.975221 1.0078241 0.99303174 0.99467593 0.98800105
0.99863964 0.99786067 0.986242 0.99638164 1.0053244 0.9693559 1.0175258 1.0158715
1.012951 1.0186095 0.98168045 1.0000688 0.9841961 0.9907298 0.9825176 0.9971584
1.007676 0.99447155 0.99172735 0.991007 1.0099217 0.9917577 1.0016792 0.9912989
00000000: a9d0 7b3f c451 7f3f 1a0c 7f3f 2d34 7c3f
00000010: 6103 803f c792 7d3f 41b5 793f 502d 7b3f
00000020: c918 823f d007 803f 9706 803f ee2a 7b3f
00000030: 900a 813f a51e 823f 5d0b 803f 1cf1 813f
00000040: 95d7 803f 6a76 803f 16d3 7a3f be71 7d3f
00000050: 0922 813f 337d 7a3f 3a7b 7a3f 97cf 7f3f
00000060: 9566 813f 0a81 7e3f 3393 7e3f 3e50 813f
00000070: c5b1 813f 91e8 7c3f 10bd 7e3f faaa 7a3f
00000080: 57e0 7e3f 01d6 7d3f 945b 7e3f 15a8 793f
00000090: 6100 813f 5437 7e3f 15a3 7e3f a3ed 7c3f
000000a0: d9a6 7f3f cc73 7f3f 5b7a 7c3f de12 7f3f
000000b0: 78ae 803f b527 783f 493e 823f 1408 823f
000000c0: 61a8 813f cc61 823f 694f 7b3f 4102 803f
000000d0: 47f4 7b3f 78a0 7d3f 4686 7b3f c645 7f3f
000000e0: 87fb 803f b095 7e3f d8e1 7d3f a2b2 7d3f
000000f0: 1d45 813f d5e3 7d3f 0637 803f c4c5 7d3f

dataset_encoder.transformer.layers.0.norm1.bias f4 [64]
-0.007830501 -0.015094869 0.011190487 -0.00084639847 -0.004431807 0.0057244776 -0.0033341574 -0.0026874172
-0.021489013 0.0121645 0.005287191 -0.0005751486 0.017027384 0.013840158 -0.010307436 0.020719644
0.020969134 0.0072578657 0.008990225 0.00037452165 -0.013091763 -0.003377134 0.004170997 0.0015467828
-0.021706033 -0.002468481 -0.0024665059 -0.00392928 0.028197315 -0.0013741319 -0.0019472702 -0.011796392
0.011746981 0.011347534 -0.013191131 -0.012752709 -0.018297154 0.011441093 -0.0026331956 0.006838119
0.0047878297 0.01357357 -0.00016433254 0.009239045 -0.0068696416 0.0072867614 -0.014323165 -0.014373874
0.01888461 0.016980536 -0.003963014 -0.00886324 -0.0068787048 -0.020124676 -0.0039343946 -0.01240378
-0.020948485 -0.006787247 -0.0170701 0.0008637762 0.016268592 0.017240414 -0.016143594 -0.0042431955
00000000: 804b 00bc 7850 77bc 4e58 373c d7e0 5dba
00000010: b138 91bb 6694 bb3b e181 5abb 611f 30bb
00000020: ba09 b0bc 9c4d 473c 2c40 ad3b 92c5 16ba
00000030: 037d 8b3c d4c1 623c 85e0 28bc 3ebc a93c
00000040: 76c7 ab3c 64d3 ed3b bd4b 133c 725b c439
00000050: d57e 56bc e852 5dbb dcac 883b 6bbd ca3a
00000060: dad0 b1bc 3dc6 21bb 1aa5 21bb 31c1 80bb
00000070: 0efe e63c 371c b4ba 8c3b ffba a745 41bc
00000080: 6976 403c 02eb 393c 9d1f 58bc bdf0 50bc
00000090: eae3 95bc 6c73 3b3c b191 2cbb 4d12 e03b
000000a0: 3ae3 9c3b ae63 5e3c ae50 2cb9 5d5f 173c
000000b0: bb1a e1bb c9c5 ee3b b5ab 6abc 6680 6bbc
000000c0: e6b3 9a3c c41a 8b3c 2cdc 81bb 1f37 11bc
000000d0: c266 e1bb 81dc a4bc 18ec 80bb 3939 4bbc
000000e0: 289c abbc 8e67 debb 98d6 8bbc 0a6f 623a
000000f0: b645 853c c53b 8d3c 923f 84bc 810a 8bbb

dataset_encoder.transformer.layers.0.norm2.weight f4 [64]
0.9821253 1.0006236 0.99262434 0.97229457 0.9839534 0.9875248 0.9925914 0.97534096
1.02556 1.0043433 0.997371 0.9807509 1.0054088 1.0169133 0.9966594 1.0188979
1.0161419 0.9985378 0.995039 0.9872827 1.0062987 0.97413844 0.9865437 0.9966884
1.0156875 0.99401975 0.9952235 1.0047027 1.0183744 0.9866778 0.9872152 0.98688304
0.9892515 0.9925087 0.9930615 0.9790379 0.9954751 0.99685365 0.99110276 0.981058
0.98341817 0.99508655 0.9843898 0.9883266 0.99748886 0.97032976 1.0081118 1.0105224
1.0210342 1.0164498 0.9819346 0.98709416 0.9712619 0.99972636 0.98141927 1.0110087
1.014225 0.98542506 1.0065103 0.9943739 1.0150958 0.99078935 1.004348 0.97110873
00000000: 906c 7b3f 6f14 803f a11c 7e3f 4ce8 783f
00000010: 5fe4 7b3f 6dce 7c3f 781a 7e3f f2af 793f
00000020: 8d45 833f 528e 803f b553 7f3f 7e12 7b3f
00000030: 3cb1 803f 372a 823f 1225 7f3f 3f6b 823f
00000040: f010 823f 2ca0 7f3f e0ba 7e3f 8fbe 7c3f
00000050: 65ce 803f 2361 793f 218e 7c3f f926 7f3f
00000060: 0c02 823f 1478 7e3f f8c6 7e3f 199a 803f
00000070: 185a 823f eb96 7c3f 23ba 7c3f 5ea4 7c3f
00000080: 963f 7d3f 0d15 7e3f 4739 7e3f 3aa2 7a3f
00000090: 75d7 7e3f cd31 7f3f e9b8 7d3f 9e26 7b3f
000000a0: 4bc1 7b3f febd 7e3f f800 7c3f f902 7d3f
000000b0: 6e5b 7f3f 8867 783f cf09 813f cc58 813f
000000c0: 40b1 823f 071b 823f 1160 7b3f 34b2 7c3f
000000d0: 9fa4 783f 11ee 7f3f 4b3e 7b3f bc68 813f
000000e0: 20d2 813f d144 7c3f 54d5 803f 4a8f 7e3f
000000f0: a9ee 813f 5fa4 7d3f 7a8e 803f 959a 783f
