src/automl/meta_model_uci.pth (torch, 38293 bytes, 22 tensors)

shared_layers.0.weight f4 [64, 52]
00000000: c32e 133e 2145 073e 9981 b4bd 06f1 613d
00000010: 01fa 4ebe 8e5d 013e 1ff3 c03b 8f7f 893c
00000020: 9f60 aebd 32c5 413e 80f3 6a3e 1802 153e
00000030: 941a 3a3d 1c5f 31be 64f0 c2bc 00fd c2bd
00000040: 7e85 d03a a200 b33c 7d92 3f3d 18de 04be
00000050: a8e6 13be 0fad 4dbe 1f2e 46be fa6f 7fbd
00000060: 5b6c 11be b562 67b9 4fb3 c2bd 9381 4f3d
00000070: 83c3 2a3d 62fb 16bd ebf9 3e3e a95e 9c3d
00000080: 17dc 1c3e 6940 b6bd a7d8 66bd 1139 bbbd
00000090: d060 a9bd dcac b43c d570 63bd 0a48 673d
000000a0: d38d e63d e8a6 373e a030 8d3d 136d bf3d
000000b0: d9d0 b4bc 9612 183e f84c c43d 21df 5fbe
000000c0: 0381 d4bd 1858 0abe 8036 20be 4fd5 ce3b
000000d0: 5001 09be 1105 963d 507c 1d3e af67 ee3d
000000e0: 37ab f33d a011 00bd 9130 913d 34f0 eb3d
000000f0: 0dcb 063e 2c8b 163d 9e96 21be c2db 093e
00000100: d9b8 5a3e be58 e93d a205 f2bb de0b 26be
00000110: 2efe 4dbe 63a0 213e 81c4 1cbe c256 c3bc
00000120: 49ec 8c3d 582a 753e 807d 8abc 594f 263e
00000130: 0d76 973d 4390 27be b9bc 4dbe 7993 57bd
00000140: 7f32 cf3d 46e1 47be 5756 21be 1666 44be
00000150: 78c8 3f3e c0f7 a03d 3bb6 013e 4790 75be
00000160: 6eaa edbd 66c3 163e 25ea 36be 6ceb 82bc
00000170: 61f7 533e ce8a 0f3b a06d ee3d 32f1 ee3c
00000180: 289b f3bd e075 173e 235c 25be 5a41 dbbc
00000190: 1044 5c3e b613 1f3d 90c6 aa3d 2f7f 8e3d
000001a0: b770 b8bd 7e72 7dbd d04d 3fbe 863c 723e
000001b0: 7aad 073e 8826 93bd a15d ddbd da03 193e
000001c0: 1df7 243d b2fc a2bd 942a 4abe 6cb2 9d3d
000001d0: da29 223e 34d0 d4bd 5254 24be dbc3 123e
000001e0: e3ce 173d ce2f 9f3b 28c6 f5bc f4df 41be
000001f0: 46a3 193e 940a 25be 636c 263e 5ea5 403e
00000200: a245 043e 6f9b 2fbd 7d6a 92bd 8492 25bd
00000210: 9152 75bd 1527 123e 6fe7 93bd 9787 9fbd
00000220: 8dcc 2c3c 43f6 fd3d 6ab3 d4bd a721 9ebc
00000230: 7bb0 d1bd f0b5 6e3c 4af9 353e 24cf febd
00000240: cdaf 06be 5f61 a5bd 773a 42be 9cc3 d2bd
00000250: 11da 9bbb 626a 753c a883 67bc 4ae1 323e
00000260: 81c0 f2bd dd9b 0cbe 6e62 2a3e 2dba 52be
00000270: e7ad 2ebe c9f3 2ebd cfb6 5c3d ee60 28be
00000280: a41e 4bbe bf82 8a3d 4854 e83d 521d a6bd
00000290: dde2 e43d e772 283d 088e 15be 0dce 513e
000002a0: 4127 a73d e971 783d 523d 27be d9d8 63be
000002b0: 5af0 293e 603f 07be a987 27be 8ad7 4a3e
000002c0: cfa9 0a3d 24d6 31bd ff20 d9bd 51a7 063e
000002d0: ebe7 153e 5811 b23d d9e9 cbbd 3412 8a3d
000002e0: 8af1 fbbd 79eb f7bb 1518 31bc 368a 58be
000002f0: 31ce 47be 9a50 c23d 0509 063e db3a 163e
00000300: cfb5 5fbc 01a2 91bc e7a5 843d d773 f03d
00000310: def7 39be 5bcb 79bd 1bb6 93bd 35ef 9a3d
00000320: 3b35 8b3c c30e e93d ec5c 9dbd fee3 be3a
00000330: 1bbd 05be 47c6 a5bd 5c14 fa3c 7543 ffbd
00000340: 577d f53d 5f0d 04bd 560b 1f3e 2e1a 2cbe
00000350: 7641 6cbe 5e64 2b3e 45cc a9bc 49f0 ea3d
00000360: 8574 423d fa4c 5a3e 6e8c cf3d a4a3 eebd
00000370: 8682 683d a8fb 5b3e cd8c 0c3e d6f6 92bd
00000380: 094f d03d f9eb 153d 1384 bcbd b38e 4a3e
00000390: ed00 5d3e 8b92 ff3d 1c6a 6bbe 9e6a 0cbc
000003a0: 7673 77be be8e 26bd 3fe0 223e bed1 2abe
000003b0: 9633 1f3e 2ce2 213e ffd0 4b3d b526 2a3e
000003c0: 42ac d5bd d103 1ebe 5662 a83d 6b0f 3a3d
000003d0: 6cda f3bd fc89 643d 6f92 eabc f534 6dbe
000003e0: 3617 373d 773f 1e3d 4b2e 30bd 9f2c e6bd
000003f0: 717e ec3d eaae 263e 357e 67be 7bd8 47be
0.14373307 0.13209964 -0.08813781 0.0551615 -0.20212556 0.12633345 0.0058883573 0.016784457
-0.08514523 0.1892288 0.2294445 0.1455158 0.045435503 -0.17321438 -0.023796268 -0.09520912
0.0015908924 0.021850888 0.04677056 -0.12975347 -0.14443457 -0.20085548 -0.19353531 -0.06236265
-0.1420149 -0.00022066648 -0.09506857 0.05066068 0.04169036 -0.03686083 0.18650024 0.076352425
0.15318333 -0.08899004 -0.05635896 -0.09141744 -0.08270419 0.022055082 -0.055527527 0.056465186
0.112575196 0.17934763 0.0689404 0.09346976 -0.022072243 0.1485084 0.09584993 -0.2186246
-0.103761695 -0.13510168 -0.1564579 0.0063120495 -0.13379407 0.07325185 0.15379453 0.1164087
0.11897891 -0.03126681 0.070893414 0.115204245 0.13163395 0.03675382 -0.15780112 0.13462737
0.21359576 0.11393879 -0.0073859254 -0.16215464 -0.20116493 0.15783839 -0.15309335 -0.02384508
0.06881005 0.23941934 -0.016905546 0.16241206 0.07395563 -0.16363625 -0.20091523 -0.052630875
0.10117053 -0.19519529 -0.15755592 -0.19179568 0.18728817 0.078597546 0.12667172 -0.23980819
-0.116047725 0.14722976 -0.17862757 -0.015981399 0.20699836 0.0021902802 0.11642003 0.029167745
-0.11894828 0.1479106 -0.16148429 -0.02676456 0.21510339 0.038837157 0.08338654 0.06957852
-0.09005874 -0.061876766 -0.18682027 0.236559 0.1324977 -0.07185084 -0.10808874 0.14942876
0.040274728 -0.07958354 -0.19742805 0.07700047 0.15836278 -0.10391274 -0.1604779 0.14332525
0.037062537 0.0048579937 -0.030001715 -0.18933088 0.1500369 -0.16117316 0.16252284 0.18813083
0.12917188 -0.042872842 -0.07149217 -0.04042293 -0.059893195 0.14272721 -0.07221877 -0.077895336
0.010546816 0.12400486 -0.10385783 -0.019303156 -0.10238739 0.0145697445 0.17770877 -0.12441853
-0.13153 -0.08075213 -0.18967615 -0.10291216 -0.00475622 0.014978977 -0.01413051 0.17468753
-0.118531235 -0.13731332 0.1663911 -0.20578833 -0.17058526 -0.04271296 0.053885277 -0.16443226
-0.19835907 0.06763219 0.113442004 -0.08111061 0.11176083 0.041125204 -0.14604962 0.20488758
0.08161784 0.06065551 -0.16331986 -0.2225069 0.16595593 -0.1320777 -0.16360344 0.19808784
0.03385335 -0.04341711 -0.10601997 0.13149764 0.14639251 0.08694714 -0.09956712 0.06741753
-0.12301929 -0.0075659123 -0.010808964 -0.21146473 -0.1951225 0.0948803 0.13089378 0.14670889
-0.013654186 -0.017777445 0.06476956 0.11740845 -0.1816096 -0.06098495 -0.07212468 0.07565156
0.016993156 0.11379769 -0.07683739 0.0014563797 -0.1306042 -0.08094459 0.030527286 -0.12464038
0.11986797 -0.032239314 0.15531668 -0.16806862 -0.23071846 0.16737506 -0.020727286 0.11471612
0.047474403 0.21318427 0.10134207 -0.11652306 0.0567651 0.21482718 0.13725586 -0.071759865
0.10171325 0.036601994 -0.09204879 0.19780998 0.21582384 0.12479123 -0.22989696 -0.008570341
-0.24165139 -0.040663473 0.15905856 -0.16681573 0.15547022 0.15808934 0.04975986 0.16616328
-0.10433246 -0.15431143 0.08221881 0.04542486 -0.11906895 0.055795655 -0.028634278 -0.23164733
0.04469987 0.038634744 -0.0430129 -0.112389795 0.11547554 0.16277662 -0.22606738 -0.19516174

shared_layers.0.bias f4 [64]
00000000: d29c c9ba a6ee fdba fdec 2cbb a623 e4ba
00000010: 7dec c539 eb55 9e3a 620a 0e3a 438a 023a
00000020: 015c 373b 93e2 0aba c106 1ebb 6922 0bbb
00000030: adc5 3fba c284 29bb eb03 07ba 6f8a c6ba
00000040: d36b c639 53db c8ba 997d adba ea7a df3a
00000050: 404a e0ba d70d 903a 8ca0 613a 7d5d 10b9
00000060: 95c5 87ba f8e0 323b 29a2 973a c8ed 2dba
00000070: 834e f438 8067 a0ba 4aea 55ba 872d 0dba
00000080: 3510 62ba 284c 15ba 859c 79b8 efc2 dd3a
00000090: 3f1f b63a 673a d33a 4958 26bb c500 bdb9
000000a0: 6789 e9ba 2ba5 be3a 6a7a 853a d767 b339
000000b0: 74f5 173b 29fb 5aba 4cc4 673a 1d90 253b
000000c0: 6a59 dc39 ab87 c1ba 144d 973a 042f 933a
000000d0: 3f8a 4a3a ebdc ecb9 94a1 9f39 bac7 5b3b
000000e0: 4563 6b3a b841 53b9 92a9 47b9 35d5 943a
000000f0: 4cba dfbb 1333 493a 8b74 21bb ca6b 97ba
-0.0015381819 -0.0019373491 -0.0026386373 -0.0017405644 0.00037750966 0.0012080049 0.0005418417 0.0004979709
0.0027978423 -0.00052980444 -0.0024112912 -0.0021230227 -0.0007315528 -0.0025866483 -0.0005150425 -0.0015147458
0.00037845838 -0.0015324153 -0.0013236284 0.0017050181 -0.0017111972 0.0010990453 0.0008606992 -0.00013767737
-0.0010358567 0.0027294736 0.0011568713 -0.00066348584 0.000116494506 -0.0012237877 -0.0008160217 -0.0005385507
-0.0008623631 -0.0005695247 -5.9511996e-05 0.0016919057 0.001389481 0.0016115428 -0.0025382212 -0.00036049463
-0.0017817438 0.0014545073 0.0010183577 0.00034218907 0.0023187073 -0.0008353466 0.0008841201 0.00252629
0.0004202829 -0.0014765164 0.0011543357 0.0011229222 0.0007726289 -0.00045178024 0.00030447228 0.0033535794
0.0008979331 -0.0002014701 -0.00019041289 0.0011355045 -0.0068276282 0.0007675152 -0.0024636115 -0.0011552509

shared_layers.1.weight f4 [64]
00000000: 79dc 6f3f c8c5 6f3f 3447 673f 30ba 713f
00000010: 0bdd 733f 2a1d 7c3f d5ac 713f c582 6e3f
00000020: 9966 6e3f 0169 6d3f 8552 5e3f 8a50 6e3f
00000030: d071 663f 0413 633f bd66 693f 76e9 773f
00000040: 2aa5 793f b0e7 613f 078e 853f 48fb 613f
00000050: 8e46 783f 7813 7f3f 8229 5b3f 2819 693f
00000060: 4cee 5f3f def6 873f 1fd8 6e3f 23ff 5a3f
00000070: 7130 7d3f be30 7d3f 6b07 6a3f 0096 673f
00000080: 41d4 6b3f 940a 783f c88b 743f 24e8 823f
00000090: 858d 623f 580e 553f d5d5 7d3f c222 643f
000000a0: fe6a 623f 40d3 693f 9823 7b3f 02b8 5b3f
000000b0: 15fd 573f 6b41 5e3f be68 653f 2088 643f
000000c0: 726e 593f e70f 6e3f f249 753f 35d9 7a3f
000000d0: 6c36 673f 2b11 5e3f 522a 603f f907 6a3f
000000e0: c38c 633f 6c75 6f3f 7433 6e3f 19cd 753f
000000f0: e26d 653f f095 7d3f 3303 6c3f 88df 623f
0.9369579 0.93661165 0.9034302 0.94424725 0.9525916 0.98482 0.94404346 0.9316829
0.931253 0.9273835 0.86844665 0.9309164 0.90017414 0.8870089 0.9117239 0.9684061
0.97517645 0.8824415 1.0433968 0.8827405 0.9698266 0.9963908 0.8561021 0.9105401
0.8747299 1.0622213 0.93298525 0.8554556 0.9890204 0.989025 0.9141757 0.90463257
0.9212075 0.9689114 0.9552579 1.0227094 0.8849719 0.8322501 0.99154407 0.89115536
0.8844451 0.91337967 0.98101187 0.8582765 0.8437055 0.8681857 0.8961295 0.8927021
0.8493415 0.92993015 0.95815957 0.9798768 0.90317416 0.86744946 0.87564576 0.91418415
0.8888666 0.93538547 0.9304726 0.9601608 0.8962079 0.9905691 0.9219238 0.8862233

shared_layers.1.bias f4 [64]
00000000: 81c7 89bd 1b7a 4abc 9ddc 80bc 382e 393c
00000010: c323 983c 518b adbc 99e4 823c 883d e6bb
00000020: 08ea 9ebc 7770 913c 14d6 abbd 3481 10bd
00000030: 8655 d43a 46b5 4abd 6308 72bd e630 7fbc
00000040: e7b8 723d 7b8f 87bd 93ca 8a3d 54f5 39bd
00000050: bc52 243d 5df4 b03d 6c62 68bd d345 c1bc
00000060: 631f 8bbd 3094 f53d 29eb 703b 4b18 a4bd
00000070: b8c4 103d d9fb 883b ebde 15bb 436f 843c
00000080: 7414 2f3d 3b19 143d e37d e73c 2b17 b93d
00000090: 7655 1fbd 47d0 abbd 44a6 9a3d fdd8 48bd
000000a0: b3ed 84bd ac62 edbc 54be fc3c a16d 82bd
000000b0: e29e 48bd 0ed7 47bd efe7 403b 652b bebc
000000c0: 490a 91bd e9cb 71bc c443 4e3c d320 2d3d
000000d0: aa89 953c ac4b 72bd 02ef 8abd c5c3 14bd
000000e0: e147 81bd 5c01 273d ecd7 58bb ece6 4cbb
000000f0: 3c8e a2bc c78f 9b3d 9795 92bd 87d0 46bd
-0.067275055 -0.012358214 -0.015730197 0.011302523 0.01857174 -0.021184595 0.015978144 -0.007026378
-0.019398704 0.017753823 -0.083904415 -0.035279468 0.0016199804 -0.049489282 -0.05909003 -0.015575623
0.059258368 -0.066191636 0.06776919 -0.04539998 0.040117964 0.086403586 -0.056734487 -0.023592865
-0.06793096 0.11991155 0.003676126 -0.08012446 0.035343856 0.004180413 -0.0022868465 0.016166335
0.042744115 0.036156874 0.02825827 0.09037622 -0.03889986 -0.08389335 0.07551244 -0.04903506
-0.0649065 -0.028977714 0.030852474 -0.06368566 -0.048979647 -0.048789077 0.0029435118 -0.023214051
-0.0708204 -0.014758089 0.012589399 0.04226763 0.01825412 -0.059154198 -0.06783868 -0.036319513
-0.06312538 0.04077278 -0.0033087684 -0.003126557 -0.019843213 0.07595783 -0.07157438 -0.04853871

shared_layers.1.running_mean f4 [64]
00000000: 4630 caba 6cab feba 40b0 2cbb 60b4 e5ba
00000010: ecb5 c739 a7ab a03a 7dfa 033a 333e 023a
00000020: a6e1 373b a9a4 08ba 794b 1ebb 4db9 0bbb
00000030: 8ee2 3eba 696c 2abb c330 07ba 4ab9 c5ba
00000040: 1b20 cf39 a2a7 c8ba 6853 afba 5e0a e03a
00000050: a98d e1ba 46d0 903a 6410 623a 9089 13b9
00000060: 9b16 88ba 7b9f 323b 51f4 973a 60f7 2eba
00000070: b2ba f338 7cf0 9cba 1a3b 56ba fa7f 0dba
00000080: 7ee9 63ba 9c70 1bba 738e 62b8 7282 dc3a
00000090: 7e8c b63a 45d9 d33a 7102 26bb 5ff6 bcb9
000000a0: ebe7 ebba 4f35 be3a ee31 863a 8fae b839
000000b0: 85fd 173b d5d9 5aba 927b 6a3a ccd0 253b
000000c0: 055d dd39 6266 c3ba 2fb1 983a 8dbc 933a
000000d0: 5cc3 4a3a d4ef edb9 9f9b a039 eb94 5c3b
000000e0: c324 6b3a a341 5ab9 0643 48b9 cd98 943a
000000f0: 09e0 dfbb 6faa 4c3a a3bc 21bb a34a 97ba
-0.0015425764 -0.001942975 -0.002635017 -0.0017525069 0.0003809178 0.0012258188 0.0005034579 0.0004968375
0.002805808 -0.00052125246 -0.0024153872 -0.0021320165 -0.0007281684 -0.002600456 -0.00051571074 -0.0015085128
0.00039506037 -0.0015308748 -0.0013376297 0.0017092933 -0.0017208356 0.0011048398 0.0008623658 -0.00014070258
-0.0010382714 0.0027255702 0.0011593198 -0.0006674435 0.00011621918 -0.0011973525 -0.0008172259 -0.0005397793
-0.0008694156 -0.0005929561 -5.4015265e-05 0.0016823544 0.0013927368 0.0016162774 -0.0025331045 -0.00036041715
-0.0017998194 0.0014511737 0.0010238269 0.0003522527 0.002319188 -0.00083484995 0.0008944805 0.0025301455
0.0004222171 -0.0014907832 0.0011649485 0.0011271402 0.00077347993 -0.00045382848 0.00030633525 0.0033658098
0.00089700165 -0.00020814552 -0.00019098455 0.0011337042 -0.006832127 0.0007807379 -0.0024679087 -0.0011542629

shared_layers.1.running_var f4 [64]
00000000: 589e 323f 10d4 903f c70e cb3f 5c9d 0640
00000010: 87b9 a53f a021 2c3f 2e27 833e 97f1 e63f
00000020: 7cd6 cf3f 8595 d23f 3d04 f33f 6fbe 8f3f
00000030: d19d 0540 6281 ab3f e878 723f ca2a 0e3f
00000040: c092 8b3f 17e0 5240 3625 e23e e2de c03f
00000050: c9cf a73f 6dd2 4d40 e166 b93f 9f11 4340
00000060: 9dd2 9d3f 93ac 4c3f 899d 8d3f 0ea1 2d40
00000070: cef9 e83f 8b8b 7a3e 60bf 0240 0670 953f
00000080: ae04 d03f 8f41 ef3e 98bb 6c3f 1ec9 123f
00000090: 6415 9c3f 6bff 5e40 0c03 0440 98d4 7740
000000a0: 7cc1 323f 2449 923f 86ee 183f b9a7 1740
000000b0: f6ad 4c40 6bd3 5840 aba4 7640 410d d73f
000000c0: 0a68 5240 f676 1640 9634 1240 4c19 6c3f
000000d0: e593 e23f b63a d33f e82f 6240 6672 cc3e
000000e0: ac4b 4e3f 954d a93f 0cdc 4e40 5477 d83f
000000f0: eede a63f 1114 b83f 6a7c 963e 8b16 4d40
0.69772863 1.1314716 1.5863885 2.1033545 1.2947243 0.6723881 0.2561583 1.8042477
1.623733 1.645188 1.8985668 1.1229991 2.0877573 1.339886 0.9471574 0.5553404
1.090416 3.2949274 0.44169015 1.5068018 1.3110286 3.2159684 1.4484521 3.0479505
1.2329899 0.7995083 1.1063701 2.712955 1.8201234 0.24467294 2.0429306 1.1674812
1.6251428 0.46729705 0.92473745 0.5733813 1.2194028 3.4843395 2.062686 3.8723507
0.69826484 1.1428571 0.5973896 2.369612 3.1981177 3.387904 3.8538005 1.680092
3.2876 2.3510108 2.2844596 0.922261 1.7701384 1.6502292 3.534174 0.3993103
0.80584216 1.3226801 3.2321806 1.6911416 1.3036783 1.4381124 0.29391795 3.204501

shared_layers.4.weight f4 [24, 64]
00000000: e764 edbd 208e ce3d 93c7 dc3d b8e0 05be
00000010: 6b3b 8b3d 3eb8 78ba dde7 663d ed36 3f3e
00000020: 64a9 4d3c 2fe7 8b3b fe78 27be 5871 ebbb
00000030: ed28 353e a8a2 883d 5e45 7abe 2cb1 973e
00000040: bc31 0f3e 78dc f1bd cb4d 133d 293d e3bc
00000050: 315c 523e 076a 893e a0cb 903d 5e96 93be
00000060: e6db f2bd 815e 2c3c 4498 1c3e 0baa 38be
00000070: 47ac 613e e0eb 373e 9787 523e 419f f4bd
00000080: 23ab 8dbe 12a5 dc3d b315 4dbe 4716 2a3d
00000090: 6af1 1ebe 8444 00be 4c8d 16be afa7 953c
000000a0: 1db7 34be e802 a7bb 9a06 1fbe 4e87 d9bc
000000b0: b265 563e 62c9 0fbe a8ee 03be c3e9 02be
000000c0: 991e 133e 4fa8 19be 0a04 853e c698 09bd
000000d0: ca24 5ebe e1a9 fc3d 9557 523d 90c2 193e
000000e0: d940 8c3d 6051 093e 688d 32bd 9d62 51be
000000f0: b7ab 8e3d 3dbb 9cbd 3825 93be 5c7e 9fbe
00000100: bb34 a1bd ff22 1f3e 1a2d 5bbe 571a 163c
00000110: 1cfd 34bd 69d3 30be 8698 fbbd ded5 11bd
00000120: f8f1 65b7 d612 b2bd b8e4 913d b171 403d
00000130: 0eea 6d3e 6aca c43d ba11 aebd 3426 35be
00000140: 513d 8e3e 483c 80be 643b 5fbc 1d75 a43b
00000150: 9f3b 35be a76d f73d d80f 86bd dc07 8dbd
00000160: ffb1 36be 24eb 0d3e e69e 833e 8473 ca3c
00000170: 912f c53d 636a e8bd 1cf9 c7bd e3fa 753d
00000180: a8a2 e83d 038e f23c d898 853e 2809 6fbd
00000190: 4dcc 253d aa13 083e cbd7 5f3e fdbd 3e3c
000001a0: c560 513b cb7b 283d c80c 303e c7d5 663e
000001b0: dd42 f8bd 85df fa3d d7a3 503d b4db 1d3d
000001c0: 1fab 8c3e d8d0 21be f4ef eb3d 0825 e73c
000001d0: 4d8f 29bd b792 afbd 6741 983e 98d4 04be
000001e0: c53f 103d 694f f53d 4b8c 283e 1b2a b1bd
000001f0: e393 5fbd 1afb cf3d b435 86be f93b 483d
00000200: cc30 5cbe ab48 09be 403f 963e 8251 46be
00000210: e440 8dbd 62bf 0abe 6d8d 1dbc 6cc1 753d
00000220: 6b43 7fbe b196 123e 3c3d 87bd bb08 473d
00000230: 7154 593d 6de1 9ebe fb9f 72bd f0cc 17be
00000240: 81cf ab3c 8d6d 47bc 3087 5dbe e5f8 06bb
00000250: 8f86 0c3e c486 cabd 862f 50bd 6988 6a3c
00000260: 8e42 59bd b298 92be 5842 0f3e d44b 22bd
00000270: 07af b8bd 9108 c73c d53b 32be 72c8 3a3e
00000280: e3d5 2dbe 216c 5d3e 8fca 1d3d 06ed bcbd
00000290: f6bb c1bd 2623 413e 1850 2a3d 6cbd d03c
000002a0: 52a9 00be 3901 3fbe 201a 3c3e 3892 523d
000002b0: d600 e33d a902 3cbe 21fa 2c3e 0f22 643e
000002c0: e2d0 14bd 8103 da3d 0be9 253e 71cc d3bc
000002d0: 7609 99be 75a9 6bbd 3054 1c3e 604a b7be
000002e0: acde 64bd f017 6dbe 4cd3 9e3d f104 95be
000002f0: ac40 5c3e 3d5c e03d 3dcf 1dbe 515c d13b
00000300: 5174 873e 7e46 e2bd be5c 5fbe 9542 2bbe
00000310: 6f07 a4bd 522e e5bd d6a3 673c 74d2 123e
00000320: 66c1 653e 62ed 2ebe 6ec0 5abe d58c 0dbe
00000330: fa0b fc3d 29ec da3d 5c0d ae3c 0178 cd3d
00000340: 5f42 b7bd 8258 3bbd 9722 90be 6852 3c3e
00000350: f679 68be 4a23 243d c300 7a3e 0676 b5bc
00000360: 56f4 d7bd fb4d cabc e8e6 233e 042b 2fbe
00000370: e665 d6bd 8494 143e 5058 0e3e 9b2c 873e
00000380: fe69 3bbe 66bb 1c3d c2b5 35be 3fa1 fbbd
00000390: 61f7 c8bc c710 813b adbc 1ebe 1433 d9bd
000003a0: 1059 403e 57a6 abbd 80fb 82be 78f2 643e
000003b0: 52ab d6bd 4c28 023e 956b b43d 46cb c7bd
000003c0: e706 f13b a12e e0bc 5b03 74be be56 6cbd
000003d0: 5e01 9f3d 9b3a 983d a16c 803d c863 343e
000003e0: 1767 ab3b 63f6 413d 69ce 1bbe 0623 d1bd
000003f0: 4369 19be 108e 57be 49e1 873e 1c43 8f3e
-0.11591511 0.10085702 0.10780253 -0.13074005 0.067984425 -0.00094879034 0.056373466 0.18673296
0.012552593 0.0042695026 -0.16354749 -0.0071851425 0.17691393 0.06671649 -0.24440524 0.2962736
0.13983816 -0.11809629 0.03596286 -0.027739124 0.2054298 0.26838705 0.070700884 -0.2882566
-0.118583485 0.010520578 0.1529246 -0.18033616 0.22038375 0.17961073 0.20559536 -0.11944438
-0.2766963 0.10773672 -0.20027809 0.04152515 -0.1552178 -0.12526137 -0.14702338 0.018268434
-0.17647977 -0.005096782 -0.15529862 -0.026553776 0.20937231 -0.14041665 -0.12884009 -0.12784486
0.14367141 -0.15005611 0.25979644 -0.03359296 -0.21693721 0.12337089 0.051353056 0.15015626
0.06848306 0.13409948 -0.043591887 -0.20447774 0.06966346 -0.076529 -0.28739333 -0.31151092
-0.07871386 0.15540694 -0.21403924 0.009161553 -0.044186696 -0.17268147 -0.12284951 -0.03560435
-1.3705801e-05 -0.08694999 0.07123703 0.046983425 0.23233816 0.0960892 -0.08499475 -0.17690355
0.27781156 -0.2504599 -0.013625 0.005018844 -0.17698525 0.120814614 -0.06545991 -0.06886265
-0.17841338 0.1385923 0.25707167 0.024713285 0.09628213 -0.11348417 -0.09764311 0.060053717
0.11359149 0.029608732 0.26093173 -0.05835834 0.04047804 0.13288751 0.21859662 0.011641976
0.0031948548 0.041133683 0.17192376 0.22542487 -0.12122128 0.12249664 0.0509375 0.038539603
0.27474305 -0.15802324 0.11520377 0.0282159 -0.041396428 -0.085729055 0.29737398 -0.12971723
0.035217065 0.11978037 0.16459768 -0.08650609 -0.054584395 0.10155316 -0.26212847 0.04888532
-0.2150299 -0.13406627 0.2934513 -0.1936703 -0.068971425 -0.13549569 -0.009616238 0.059998915
-0.24928062 0.14315297 -0.066034764 0.04859231 0.053059045 -0.3103136 -0.0592346 -0.14824271
0.020972969 -0.012172115 -0.21633601 -0.002059513 0.13723205 -0.09888986 -0.050826572 0.014314749
-0.053041987 -0.28632122 0.13990152 -0.039623097 -0.09017759 0.024296077 -0.17405637 0.18240526
-0.16976123 0.21623279 0.038523253 -0.09224896 -0.09459679 0.18861064 0.04158029 0.025480948
-0.1256459 -0.1865281 0.18369341 0.051408976 0.11084144 -0.1836039 0.16892292 0.22278617
-0.03633202 0.106451996 0.1620218 -0.025854321 -0.2989003 -0.057534654 0.1526649 -0.3579893
-0.05587642 -0.23153663 0.077551454 -0.29105332 0.21509045 0.10955093 -0.15411086 0.006389179
0.2645593 -0.110486016 -0.21812722 -0.16724618 -0.0800923 -0.111904755 0.014138183 0.14338094
0.22437057 -0.17082742 -0.21362469 -0.13823254 0.12306972 0.10689575 0.021246605 0.100326546
-0.08948206 -0.045738705 -0.2815139 0.1839081 -0.22702774 0.040072717 0.24414353 -0.022151005
-0.1054465 -0.024695387 0.16006052 -0.17106253 -0.10468654 0.14509779 0.13900876 0.2640122
-0.18302152 0.038264655 -0.17745116 -0.122866146 -0.024532022 0.0039387676 -0.15501662 -0.106054455
0.18783975 -0.08381336 -0.25582504 0.2235812 -0.104818955 0.12710685 0.08809582 -0.09755568
0.007355559 -0.027365984 -0.23829405 -0.05769991 0.07763933 0.07433053 0.06270719 0.17616189
0.005230795 0.047354113 -0.15215458 -0.10211758 -0.1498156 -0.21050286 0.26539066 0.27980888

shared_layers.4.bias f4 [24]
00000000: 9522 2cbb 4130 96b7 a8e1 28bb e35d 6abb
00000010: 0386 48bb 4e2c 043a 3dad ceba d7b8 2cbb
00000020: a621 3dbb a4bf f139 c847 be39 2221 8439
00000030: a4da ebba 780a 4dbb 5db6 45ba f54d baba
00000040: 699b 24bb e67c 25bb a62f 1f3b 39a8 67ba
00000050: 4f5e d73a 2056 15ba 6668 80bb d52f 0c3b
-0.002626573 -1.7903863e-05 -0.0025769267 -0.0035761527 -0.0030597455 0.00050420023 -0.0015768182 -0.002635529
-0.0028859167 0.00046109885 0.00036293105 0.00025201688 -0.0017994237 -0.0031286757 -0.0007542128 -0.0014213907
-0.0025117046 -0.0025251447 0.0024289875 -0.0008837018 0.0016431304 -0.00056967326 -0.0039186953 0.0021390815

shared_layers.5.weight f4 [24]
00000000: f31d 8d3f 806d 783f d60d 643f f0b8 923f
00000010: a607 603f 271b 833f d5ea 623f d01d 643f
00000020: 5d49 6b3f 1d93 653f 4a0d 953f 8409 703f
00000030: 2540 4c3f 85ff 423f 05ef 563f 94a1 753f
00000040: 95e4 4c3f 9ffd 7e3f 4b0d 7d3f 7013 573f
00000050: 05bb 413f 1b1f 663f b8ce 8e3f 0786 6a3f
1.1024765 0.97042084 0.8908361 1.1462688 0.8751167 1.0242661 0.88639575 0.8910799
0.9190882 0.896776 1.164468 0.9376452 0.79785377 0.7617114 0.83958465 0.95949674
0.8003629 0.99605745 0.9884841 0.84014034 0.75675994 0.89891213 1.1156836 0.9161076

shared_layers.5.bias f4 [24]
00000000: f839 533e 1a02 51bd 2ba4 c53d 737d f43d
00000010: 1542 ff3d 26f8 91bc 6e5f 9bbd 17dd 2e3d
00000020: 93bb 083c 621c 393b 3cff 143e 7c1a c83d
00000030: 903f 06be 12f4 15be 18ee 82bd 2956 c03d
00000040: 7028 a5bd ada8 923d ff3e 1c3e 9919 e4bc
00000050: 9c4e 34be cb2b 40bd 6226 d93d dc63 9d3d
0.20627582 -0.051027395 0.09650453 0.1193799 0.12463776 -0.017818522 -0.07586561 0.042691316
0.008345502 0.0028245677 0.14550489 0.097706765 -0.13110185 -0.14643887 -0.06393069 0.09391434
-0.080643535 0.071610786 0.15258406 -0.027844237 -0.17608112 -0.046916764 0.10603024 0.07685062

shared_layers.5.running_mean f4 [24]
00000000: eef1 5ebd a8aa 1a3f daec 3dbf ccc3 ddbe
00000010: a835 63bf 5b61 a63e 16e6 a0bf df64 42bf
00000020: 398d c6be 9056 87bd edf9 16be bec0 15bf
00000030: d98a 6f3f 9f24 003f 7ed0 9cbe c044 b73e
00000040: d543 e03e b395 e13e cb35 aabe 98dd 8c3e
00000050: 55e1 b33e 5088 ad3e f0b0 7d3d a34d 81bd
-0.05442994 0.6041665 -0.7418953 -0.43313444 -0.8875375 0.3249615 -1.2570217 -0.7593517
-0.3877962 -0.06608307 -0.14743777 -0.58497226 0.9357124 0.5005588 -0.30627817 0.3579464
0.43801752 0.44059524 -0.33244166 0.27512813 0.35132852 0.3389306 0.06193632 -0.06313636

shared_layers.5.running_var f4 [24]
00000000: 0f50 1440 dad7 3040 14d7 1140 a1da 1540
00000010: 3148 4940 a15a 2740 2d72 d93f 9c07 2440
00000020: 790b 7140 4674 2d40 cd6c 3040 9e82 0340
00000030: 647a 1b40 3fa2 2940 5ca0 3a40 b64f 3740
00000040: effb a83f 9dd9 0a40 760d 3c40 2d06 0c40
00000050: dea6 2440 95e8 eb3f da8c 6c40 511e 913f
2.3173864 2.7631745 2.2787523 2.341469 3.1450312 2.6149065 1.6987969 2.5629644
3.7663252 2.7102218 2.7566407 2.0548472 2.4293451 2.6505277 2.9160376 2.8642402
1.3201884 2.169532 2.9383216 2.187877 2.5726848 1.8430353 3.696097 1.1337377

algorithm_heads.0.weight f4 [1, 24]
00000000: edea 1dbf 247e a43d b5a8 b53d 12bc dbbd
00000010: 326a 6d3e 16d4 113e 3268 15bf 9ea1 b0bd
00000020: 7b69 bcbe 1282 1fbf ca4c 113f 595b c3be
00000030: 2843 05be 3057 f73e e6c6 8e3d 2e6c bb3e
00000040: 598c 21bf 2b6d 24bc e207 22be 0061 bfbe
00000050: 9267 11bf ec90 0ebf 957a a1be 65b3 3bbe
-0.61686593 0.08031872 0.08870069 -0.10729231 0.23185042 0.1424106 -0.58362114 -0.08624576
-0.36799225 -0.62307847 0.56757796 -0.3815563 -0.130139 0.48308706 0.069715306 0.36605972
-0.6310478 -0.010035793 -0.1582332 -0.37378693 -0.5679866 -0.55689883 -0.31538835 -0.18330152

algorithm_heads.1.weight f4 [1, 24]
00000000: 07e4 8b3c b5f1 41be 0915 42be bc53 92be
00000010: ad3a 49be e8c3 1bbe 8d5f 00be 6161 aabe
00000020: 5cd9 0f3e ca25 a43e 12fc e83e 03d0 9abe
00000030: dcfb 90bd b5a4 043f f68f 39be 1c3b ba3e
00000040: 4ffa c73d b97f c83d 840b 18be ad54 173e
00000050: dfd0 9abe eb5f 8e3d c754 50be 61df d63d
0.017076505 -0.1893986 -0.18953337 -0.2857951 -0.1965129 -0.15211451 -0.1253645 -0.3327742
0.1404776 0.3206008 0.45504814 -0.30236825 -0.07079288 0.51813823 -0.18121323 0.36373222
0.097645395 0.09789986 -0.14848143 0.14778395 -0.3023748 0.06951889 -0.2034484 0.10491825

algorithm_heads.2.weight f4 [1, 24]
00000000: c74d c43e 8ff1 053d 4d51 213f 2e2e 053f
00000010: 6074 153f 1323 53be b041 70bd d269 f9bc
00000020: a4d9 263f 25a6 003e c34a 463e 3283 de3d
00000030: d884 76be 5c42 bbbd 0a1a ab3e e19a a53e
00000040: 9aca 85bd 33b8 03be 1356 9fbd 8649 bdbd
00000050: 7e6e 41be ad71 213e dea7 c3bd 7067 0f3e
0.3834059 0.03270107 0.6301468 0.5202359 0.583807 -0.20618849 -0.058656394 -0.030445967
0.65175843 0.12563379 0.19364457 0.10864867 -0.24074113 -0.091435164 0.33418304 0.32344726
-0.06532784 -0.12863235 -0.07780089 -0.09242539 -0.18889806 0.1576602 -0.095535025 0.14004302

algorithm_heads.3.weight f4 [1, 24]
00000000: 4ad8 fe3e 9d6b 13be 33f8 9a3e 2e6e d7bc
00000010: 160e 173b ae02 943e 6826 b53d 870e 083f
00000020: 822a 2ebe ccaa 81bd 26c9 863e 22f0 5f3d
00000030: 32fd a53e ddc2 88be 245d 3abe 8460 843e
00000040: e946 293e bb0c 173f af15 053e aacf b53e
00000050: 3682 753e 0b02 ca3c 12ce 743d adc0 81be
0.4977439 -0.1439652 0.30267486 -0.026297655 0.0023049167 0.28908294 0.08845216 0.53147167
-0.17008403 -0.06331405 0.2632534 0.054672368 0.32419735 -0.2671117 -0.18199593 0.25854886
0.16530956 0.590038 0.12996553 0.35509998 0.23975453 0.024659177 0.059766836 -0.25342312

algorithm_heads.4.weight f4 [1, 24]
00000000: 0aa9 623e 8fbb 413e 9d7e 5c3e fbc1 033f
00000010: 14fd 223e b79d 18bf 8135 873c 5e2d 593e
00000020: 8edb 02be 71e0 89bd 8dde de3d f0d2 15bf
00000030: ac7a 9e3e 6a36 d2bd cb0b c0bd 9718 89bd
00000040: b7c9 c2bc 1bda 463d fe8e 793e f18a 093e
00000050: 6fd7 873e c511 54be 2f23 fc3d 9510 cebc
0.22134796 0.18919204 0.21532674 0.51467866 0.15916854 -0.59615654 0.016505005 0.21208712
-0.12779066 -0.06732262 0.10882292 -0.5852499 0.30952966 -0.10264285 -0.09377249 -0.06694143
-0.023777826 0.048547845 0.24370953 0.13431908 0.2653155 -0.20709904 0.12311398 -0.025154391

algorithm_heads.5.weight f4 [1, 24]
00000000: 962e d53d 05e5 153c 65ff 8abe 6951 7c3d
00000010: 33c6 d5bd 522f 5c3d f375 6fbe b172 c73e
00000020: 079f 3abe 4ea2 9d3d 189c 52be 3882 a23e
00000030: 905e 3dbe b34a e83d 3eed f93e 9f81 ec3d
00000040: 765d a6bd 038c aa3e f2f2 a93d 3ecb 343e
00000050: edec 79be ccee 98be c222 28be 12e2 793e
0.10409276 0.009148841 -0.27147976 0.061601076 -0.10438194 0.053756066 -0.23384838 0.3895469
-0.18224727 0.07696973 -0.20567358 0.31739974 -0.18493104 0.11342373 0.48813814 0.11548161
-0.08123295 0.33309945 0.08298291 0.17655656 -0.24406786 -0.29869688 -0.16419509 0.24402645

algorithm_heads.6.weight f4 [1, 24]
00000000: 230a a5be 8d51 36be 2d57 b5be cdeb 123e
00000010: 2e19 c5be 2c06 72bd f0ab 1e3e 896b 92be
00000020: e8f0 da3d 62ed 81bd 8a87 03bd e707 aebe
00000030: d78e 5dbe 1083 29be b55c 28be bd54 143d
00000040: eda0 84bc c0dc 18be f205 81be 0b8e a0be
00000050: 92e6 e0bb 94df c13d 1846 d6be e85a 6c3d
-0.32234296 -0.17804547 -0.35418072 0.14347763 -0.38495773 -0.059087917 0.15495276 -0.28597668
0.106904805 -0.06344105 -0.032111682 -0.33990404 -0.2163652 -0.16553903 -0.16441615 0.036213625
-0.016190017 -0.1492796 -0.25199848 -0.3135837 -0.0068634236 0.09466472 -0.41850352 0.057703882

algorithm_heads.7.weight f4 [1, 24]
00000000: a79a 03bf f5d5 1bbf d4a6 07bf 18cf 92bd
00000010: 45e3 dd3d 267d 8ebe 3ba7 f8bd 3c11 2abe
00000020: d1b9 123d 5a53 873d 63f1 c1be 9ebf 55be
00000030: 7de5 f73d 5f42 52bd b1a6 763e 47c6 fd3d
00000040: 943c 5c3c 95a4 21be d309 15be b470 da3c
00000050: ef60 ad3c 8959 05bf acd2 1dbf 25c4 b7bd
-0.51407856 -0.6087335 -0.52988935 -0.07168406 0.10834364 -0.27829856 -0.12141272 -0.16608137
0.03582174 0.06607695 -0.37879476 -0.20873877 0.12104318 -0.051332828 0.24087025 0.12391334
0.013442177 -0.1578544 -0.14554529 0.02666507 0.021164386 -0.52089745 -0.61649585 -0.089729585

algorithm_heads.8.weight f4 [1, 24]
00000000: 3165 c63e 2e60 d53e 347b 0bbe 6221 c6be
00000010: bd6d 1b3e 6a00 933e 7eaf 833d d32c 3c3e
00000020: d066 8abd b0c9 983e 6a86 1bbf 267f e6bd
00000030: 1aae 803e ade0 593e a417 193d 6c69 023e
00000040: db1d 87bd f2f1 663e ed68 dcbe a4fa 303c
00000050: e949 8ebe 4c75 12be 00db aa3e 05b6 acbe
0.38749078 0.41674942 -0.13621217 -0.38697344 0.1517858 0.28711253 0.06429957 0.18376474
-0.06757891 0.29841375 -0.60751975 -0.112547204 0.2513283 0.21277113 0.03737606 0.12735528
-0.06597491 0.22553232 -0.43048802 0.010801945 -0.27790764 -0.14302558 0.3337021 -0.3373262

algorithm_heads.9.weight f4 [1, 24]
00000000: d4f5 1b3e 32a2 9a3e 2c08 52bd 43ce 9bbe
00000010: bf19 2bbf 3eda eb3d 18a3 0ebf 79f9 b3be
00000020: 3643 94be 3a00 1fbe 3ee9 19bf 8384 0f3e
00000030: ea3b d63e 0d4c d93c d7c5 893d 435c 0ebe
00000040: 9892 953d f106 9c3e e113 21bf d778 2cbe
00000050: 2a8f a1bd c3f2 02be 80a3 143f 0246 01bf
0.15230495 0.3020187 -0.051277325 -0.30430803 -0.6683616 0.11516236 -0.5571761 -0.3515127
-0.28957528 -0.1552743 -0.60121524 0.14015393 0.41842586 0.026525522 0.06727188 -0.13902383
0.07303351 0.30474046 -0.6292096 -0.16842972 -0.078886345 -0.12787919 0.5806198 -0.5049745
