src/automl/meta_model.pth (torch, 92021 bytes, 28 tensors)

shared_layers.0.weight f4 [128, 52]
0	0x3e01d180	0.12677574
1	0xbc34aab5	-0.011027028
2	0xbd37ec09	-0.044902835
3	0x3da13fdd	0.07873509
4	0xbdff3bf7	-0.12462609
5	0xbe0c159f	-0.13680123
6	0x3d2613e0	0.040546298
7	0xbd95bfd1	-0.07311977
8	0xbe1e1920	-0.15439272
9	0x3e3e7cec	0.18602341
10	0xbe18c84e	-0.1492016
11	0x3e4d455c	0.2004599
12	0xbd9ba08b	-0.075989805
13	0x3de4a9c1	0.111651905
14	0xbd5b3f05	-0.053526897
15	0x3de8ff80	0.11376858
16	0x3d4e8d94	0.05042799
17	0x3e2430a2	0.16034177
18	0xbbf891d8	-0.0075857453
19	0xbdf2f484	-0.11863044
20	0xbdf45dc6	-0.11931948
21	0xbdcec957	-0.10096996
22	0x3c16bd33	0.009200382
23	0xbe0c993d	-0.13730331
24	0x3d82f4e1	0.06394363
25	0x3dd209eb	0.10255798
26	0xbe07dfab	-0.13268916
27	0x3dd5e423	0.10443904
28	0x3cb6e588	0.022326246
29	0xbe31d7fb	-0.17367546
30	0xbe3c69e8	-0.18399775
31	0x3df6a40d	0.12043009
32	0xbda14118	-0.07873744
33	0x3e2579f2	0.161598
34	0x3d97b757	0.07408016
35	0xbdd25b39	-0.102713056
36	0xbdcb8602	-0.09937669
37	0xbcd9e7fa	-0.026599873
38	0xb9c994e9	-0.00038448654
39	0xbdf29683	-0.11845114
40	0x3e054491	0.13014437
41	0xbe20bd76	-0.15697274
42	0x3db3323a	0.08749814
43	0xbdd01577	-0.10160344
44	0x3e07a4dd	0.13246484
45	0x3cdb9786	0.02680565
46	0x3e1f945f	0.15583943
47	0x3d4a805e	0.049438827
48	0x3d2f61a5	0.04281773
49	0xbd6940ec	-0.05694668
50	0xbdab0394	-0.08350292
51	0xbde1f705	-0.11033443
52	0xbdf69ea7	-0.12041979
53	0xbb981f2f	-0.0046423892
54	0x3dfabb0d	0.12242708
55	0xbe22a4ea	-0.15883222
56	0xbd261cbb	-0.040554743
57	0x3d8600ad	0.06543098
58	0x3d199ba0	0.03750193
59	0xbdbc78f3	-0.09202757
60	0x3d5ca390	0.053866923
61	0x3e07b9f6	0.13254532
62	0x3db5aeaf	0.08871209
63	0x3e15cc44	0.14628702
64	0x3d3f7602	0.0467434
65	0x3b162012	0.00229073
66	0xbd59f393	-0.053210806
67	0xbdb89a0b	-0.09013756
68	0x3e12e1c0	0.1434393
69	0xbd3662d1	-0.044527832
70	0x3d5517f6	0.052024804
71	0x3e07a1da	0.13245335
72	0x3c2cfb75	0.010557999
73	0x3e02b237	0.12763296
74	0xbc75013a	-0.014953906
75	0x3d47c48c	0.048771426
76	0xbe176f73	-0.14788608
77	0xbe29836e	-0.16554043
78	0xbdcb56cd	-0.09928665
79	0x3cabe2d3	0.020982182
80	0x3ddf8f5a	0.10916014
81	0x3e3a1f98	0.18176115
82	0xbd9e7ed4	-0.07739034
83	0xbe508eb2	-0.20366934
84	0xbe2999d6	-0.1656259
85	0x3d797d6b	0.060910624
86	0x3e18b543	0.14912896
87	0xba90aa04	-0.0011036997
88	0x3c1e7b00	0.00967288
89	0xbcfdffde	-0.031005796
90	0xbd1662ac	-0.036715195
91	0x3da09360	0.078406096
92	0x3d3cc74e	0.04608851
93	0xbe1c75d0	-0.15279317
94	0x3e1d2ed9	0.15349902
95	0xbca4a9d7	-0.020100517
96	0xbc3b6edf	-0.011440008
97	0xbd662dc7	-0.056196
98	0x3dd59136	0.104280874
99	0xbdcce089	-0.10003764
100	0x3deabfa1	0.114623316
101	0xbd5eddd7	-0.05441078
102	0x3beed74b	0.0072888485
103	0x3b070fb3	0.0020608723
104	0x3d69fa14	0.05712326
105	0x3bf6287b	0.00751215
106	0x3e22ca40	0.15897465
107	0xbddb3cdf	-0.107049696
108	0x3e107e3d	0.14110656
109	0xbe0bd5ee	-0.13655826
110	0xbe130d8f	-0.14360641
111	0xbdc86409	-0.09784705
112	0x3dc1fefa	0.09472461
113	0x3dc91347	0.0981813
114	0x3dcdc006	0.10046391
115	0x3dd33959	0.103136726
116	0xbd986b5a	-0.07442351
117	0x3de16e16	0.11007325
118	0x3d487eca	0.04894904
119	0xbc736ed2	-0.014857965
120	0x3e35fd8e	0.17772505
121	0x3db16a47	0.08662849
122	0xbe2323a0	-0.15931559
123	0x3dcaa29e	0.09894298
124	0xbd6da402	-0.05801774
125	0xbdc15fe2	-0.09442116
126	0x3de539e3	0.11192682
127	0x3e207fd1	0.15673758
128	0xbc6c91ff	-0.014439105
129	0xbe370499	-0.17872848
130	0x3e322d75	0.17400153
131	0xbdc3677d	-0.09541223
132	0x3e48ad9b	0.19597475
133	0x3e11eae3	0.14249758
134	0xbd4f3c14	-0.050594404
135	0xbdb47bb9	-0.08812661
136	0x3e117a96	0.14206919
137	0x3d35b0e1	0.044358138
138	0x3dd45be6	0.10369091
139	0x3dd1b4ba	0.10239549
140	0x3d5833cb	0.05278377
141	0xbd6a857a	-0.0572562
142	0xbe12ec11	-0.14347865
143	0xbe05a557	-0.13051353
144	0xbc7e0b61	-0.015505643
145	0x3e15f89f	0.14645623
146	0x3e36e7de	0.17861888
147	0xbe269666	-0.1626831
148	0xbde0c5a4	-0.10975197
149	0xbe119704	-0.14217764
150	0x3daf9b0a	0.08574493
151	0x3dea387c	0.11436555
152	0xbe037831	-0.12838818
153	0x3ca59596	0.02021293
154	0x3d2efa1d	0.042718995
155	0xbcf3fc3a	-0.029783357
156	0xbd554819	-0.05207071
157	0xbd8c9231	-0.06863821
158	0x3db14c2a	0.08657105
159	0x3da9c5c3	0.08289673
160	0x3de97daf	0.11400925
161	0xbe1cc33d	-0.15308852
162	0x3e23ba3f	0.15989016
163	0x3c3db20a	0.011578092
164	0xbd7d1ff3	-0.061798047
165	0x3dd574e6	0.10422687
166	0x3e3b9c46	0.18321332
167	0x3ca39435	0.019968132
168	0x3daac39c	0.08338091
169	0x3ca20efb	0.019782534
170	0x3d047a2d	0.03234308
171	0xbcdaa9eb	-0.026692351
172	0xbdeca4c2	-0.115548626
173	0xbe0d1922	-0.13779119
174	0xbd90f790	-0.07078469
175	0x3e0ee48c	0.13954371
176	0xbd1514ae	-0.036396675
177	0xbd3f9196	-0.0467697
178	0x3e058102	0.13037494
179	0x3daf5c52	0.085625306
180	0x3d778332	0.060427852
181	0xbce9aaa5	-0.028523752
182	0xbca9c903	-0.020725733
183	0xbd5d2a0f	-0.05399519
184	0xbe1aa614	-0.15102416
185	0x3d8d0bf1	0.06887043
186	0xbdee529a	-0.11636849
187	0xbd24cb6d	-0.040233064
188	0xbe1e38db	-0.15451376
189	0x3dfc955c	0.123331755
190	0xbe43c214	-0.19117004
191	0x3ce27bb6	0.02764688
192	0xbe273b64	-0.1633125
193	0xbe1bc0f7	-0.15210329
194	0xbcea004f	-0.0285646
195	0x3e02dc80	0.12779427
196	0x3c27b54f	0.010236098
197	0xbdfc035f	-0.123053305
198	0x3e347eec	0.17626542
199	0x3e0b0ec2	0.13579848
200	0x3e0194da	0.12654439
201	0xbd5ac499	-0.053410146
202	0x3e110a22	0.14164022
203	0x3df821b6	0.12115805
204	0xbac1776f	-0.0014760325
205	0xbe14dccd	-0.14537354
206	0xbc8a35b8	-0.016871318
207	0xbe217812	-0.1576846
208	0xbe37a698	-0.17934644
209	0xbd07609b	-0.033051115
210	0xbc3bc133	-0.0114596365
211	0xbda83e9f	-0.08215069
212	0x3e5cc717	0.21560322
213	0xbe1f62b7	-0.15565
214	0x3dc4980b	0.095993124
215	0xbd5f04e2	-0.054448016
216	0xbe304ec4	-0.17217547
217	0xbd58efa8	-0.05296293
218	0x3e243fde	0.16039988
219	0xbc30755a	-0.010770166
220	0xbe203525	-0.15645273
221	0x3dec8cc5	0.11550287
222	0xbdef7038	-0.11691326
223	0xbe125b89	-0.1429273
224	0xbddeb2b3	-0.10873928
225	0x3e14d572	0.14534548
226	0xbd76fa45	-0.06029727
227	0xbe169d74	-0.14708501
228	0xbdc901cb	-0.09814795
229	0xbe2be7b5	-0.16787608
230	0xbd227417	-0.039661493
231	0x3c88a115	0.016678372
232	0xbda7f500	-0.08201027
233	0xbe094de4	-0.13408619
234	0x3d539d81	0.05166388
235	0xbd51de0f	-0.051237162
236	0x3e0ddf96	0.13854823
237	0x3ddaca86	0.106831595
238	0xbc594435	-0.013260891
239	0xbdf27bbe	-0.11840008
240	0xbe1f6776	-0.15566811
241	0xbd8885fd	-0.06666181
242	0x3e1e854d	0.15480538
243	0xbd476ded	-0.048688818
244	0xbdb86ed4	-0.09005514
245	0x3d35858b	0.04431681
246	0xbc818655	-0.015811125
247	0xbdff20bc	-0.124574155
248	0x3db75231	0.08951224
249	0xbe1d5bd4	-0.15367061
250	0x3e0a8f31	0.13531186
251	0x3c5af698	0.013364457
252	0xbcb328b0	-0.021869987
253	0xbd79d1ef	-0.060991224
254	0x3dbef396	0.09323804
255	0xbe03df40	-0.12878132

shared_layers.0.bias f4 [128]
0	0x3a066c0a	0.00051277934
1	0x38a53f23	7.879573e-05
2	0xb8bcc100	-9.0004876e-05
3	0x3a11d24b	0.0005562647
4	0x3944ea2f	0.00018779257
5	0x3753648e	1.2599992e-05
6	0xb9090369	-0.00013066609
7	0x3918c385	0.00014568686
8	0x3a111feb	0.0005536067
9	0xb9b09eb1	-0.0003368757
10	0x39998299	0.00029279737
11	0xb924ea44	-0.0001572753
12	0xba2c767e	-0.0006578936
13	0xb8754d80	-5.848473e-05
14	0xb8863b74	-6.400692e-05
15	0xb98769ab	-0.00025827935
16	0x39c43f96	0.00037431408
17	0xba02dba6	-0.00049918366
18	0xb9424c09	-0.00018529607
19	0xb802f855	-3.1225693e-05
20	0x38bb532a	8.9323454e-05
21	0xb881062d	-6.15235e-05
22	0x378675af	1.6028845e-05
23	0xb9b0b9d8	-0.000337078
24	0xb8abba94	-8.188668e-05
25	0x3a2c82c4	0.0006580765
26	0xb671dfcc	-3.6042065e-06
27	0xb95b4c14	-0.00020913809
28	0xb8f0d898	-0.000114844355
29	0xba2fc1d0	-0.00067046005
30	0x3a4f66c8	0.0007911739
31	0xba14b4bb	-0.0005672683
32	0xb80ac132	-3.308169e-05
33	0xb99ec95d	-0.00030286136
34	0x39ce7628	0.00039379415
35	0xba0cc0e9	-0.0005369322
36	0x38962b7b	7.160656e-05
37	0x39706a32	0.00022927744
38	0x39a90892	0.00032240577
39	0xba5d357e	-0.0008438452
40	0xb9da1fe4	-0.0004160396
41	0x39499ff9	0.00019228448
42	0x3982af09	0.00024925944
43	0xb9a4dfdc	-0.00031447306
44	0xb98124a0	-0.00024632085
45	0xba237ad5	-0.000623626
46	0xba53f6ac	-0.0008085768
47	0xba909387	-0.0011030295
48	0x390891e3	0.00013024318
49	0x39a2fa05	0.00031085327
50	0x3a301557	0.0006717047
51	0xba1893cd	-0.0005820364
52	0x39a9d146	0.00032390113
53	0x39acab27	0.00032933915
54	0xb94ab00b	-0.00019329802
55	0x380a6b91	3.3001943e-05
56	0x3a622a54	0.0008627523
57	0xba41bc23	-0.00073904
58	0x39ea0855	0.00044638166
59	0x390cf136	0.00013441299
60	0xb9bb88dd	-0.0003576939
61	0xba0d68a2	-0.00053943146
62	0x3a11b16d	0.00055577495
63	0x39b192a5	0.0003386933
64	0x392f58e3	0.00016722413
65	0x39ff9459	0.00048747918
66	0xba6e2522	-0.0009084513
67	0xb7db4246	-2.6137695e-05
68	0xb94e9118	-0.00019699743
69	0x39608954	0.00021413463
70	0x3913500a	0.0001404883
71	0x3993435e	0.00028088217
72	0x394203c1	0.0001850268
73	0x368e1066	4.233839e-06
74	0x37a5e3c5	1.9775596e-05
75	0x39be08bf	0.0003624614
76	0x39c99b4e	0.00038453419
77	0xb9a1d54e	-0.00030867237
78	0x39d49b68	0.00040551578
79	0xb943af1d	-0.00018661884
80	0x379b4e1a	1.8513809e-05
81	0xb9f9e0e3	-0.00047660535
82	0xba17a527	-0.00057848025
83	0xb9c5d5f1	-0.00037734167
84	0x38b5b285	8.6640044e-05
85	0x388d75b3	6.745327e-05
86	0x37f36275	2.9013705e-05
87	0x39f740d9	0.00047159826
88	0x37f714a3	2.9454304e-05
89	0x38976a08	7.219991e-05
90	0xb975da36	-0.0002344631
91	0xb83a082b	-4.4353463e-05
92	0x39c5bd10	0.0003771563
93	0x3836f2d7	4.3618344e-05
94	0xba49e079	-0.00077009905
95	0xb7698ecb	-1.3921129e-05
96	0xb8c6d4cd	-9.481013e-05
97	0xb8c86d2e	-9.5570795e-05
98	0xba0c688f	-0.00053561566
99	0x392a6528	0.00016250147
100	0x39e966cf	0.00044517822
101	0xba0a927f	-0.0005286112
102	0xb8e73d8e	-0.00011026404
103	0x39d4d331	0.0004059314
104	0x39618783	0.00021508154
105	0xba1057de	-0.00055062573
106	0x392fbdb6	0.00016759973
107	0xb8b0c842	-8.429635e-05
108	0x38c30f87	9.301217e-05
109	0xb8f9069f	-0.000118744785
110	0xb9535156	-0.00020152828
111	0xba1692a9	-0.00057439
112	0xb9362262	-0.00017369681
113	0xb9cc9bb7	-0.0003902593
114	0xb9237ee2	-0.00015592159
115	0xb94586c4	-0.00018837588
116	0xb942c5d7	-0.00018574983
117	0xb9b2b9c7	-0.0003408922
118	0xb9b9f1cf	-0.0003546611
119	0x3a316eee	0.0006768544
120	0x39645f0f	0.00021779186
121	0x3856ac3c	5.118198e-05
122	0x37a5faf6	1.9786396e-05
123	0x39bbaef9	0.00035797784
124	0xb71b6a01	-9.263401e-06
125	0xb9101ce4	-0.00013743673
126	0x39f96d15	0.00047574253
127	0x3890865d	6.891482e-05

shared_layers.1.weight f4 [128]
0	0x3f74faca	0.95695174
1	0x3f830bd6	1.0237987
2	0x3f7a53e5	0.9778426
3	0x3f7f71db	0.99783105
4	0x3f791542	0.9729806
5	0x3f7d2b9b	0.9889466
6	0x3f7eb8be	0.99500644
7	0x3f8083de	1.0040243
8	0x3f7af82a	0.9803492
9	0x3f7ff997	0.9999022
10	0x3f82226b	1.0166754
11	0x3f80a638	1.0050726
12	0x3f7f9c51	0.99847895
13	0x3f7d3f27	0.9892449
14	0x3f8055a2	1.0026133
15	0x3f78cb3a	0.971851
16	0x3f7f1315	0.9963849
17	0x3f806eac	1.0033774
18	0x3f7b01fa	0.9804989
19	0x3f848c52	1.0355322
20	0x3f801751	1.0007116
21	0x3f81d3d5	1.0142771
22	0x3f82991c	1.0202975
23	0x3f7f33f8	0.99688673
24	0x3f7fcc97	0.99921554
25	0x3f8320ee	1.0244424
26	0x3f7aebd5	0.980161
27	0x3f788ab2	0.9708663
28	0x3f7db4b9	0.99103886
29	0x3f80618c	1.0029769
30	0x3f818384	1.011826
31	0x3f75d064	0.96021104
32	0x3f802d27	1.0013779
33	0x3f81a845	1.0129477
34	0x3f8001cc	1.0000548
35	0x3f77c507	0.96785015
36	0x3f6ec7eb	0.932738
37	0x3f800ade	1.0003316
38	0x3f7bccea	0.9835955
39	0x3f7e3864	0.99304795
40	0x3f7e1003	0.9924318
41	0x3f7f58ef	0.99745077
42	0x3f779ca6	0.967234
43	0x3f83fbcb	1.0311216
44	0x3f8365c9	1.0265437
45	0x3f80c440	1.0059891
46	0x3f7c0c93	0.98456687
47	0x3f850f5b	1.0395311
48	0x3f802458	1.0011091
49	0x3f821352	1.0162146
50	0x3f7b6809	0.9820562
51	0x3f84fdfa	1.0390007
52	0x3f7cb35f	0.987112
53	0x3f78ee0d	0.97238237
54	0x3f7d6906	0.9898838
55	0x3f8053ac	1.0025535
56	0x3f801ddb	1.0009111
57	0x3f806c03	1.0032963
58	0x3f7a8782	0.9786302
59	0x3f812856	1.0090435
60	0x3f7feced	0.99970895
61	0x3f7f583e	0.9974402
62	0x3f73efc6	0.9528774
63	0x3f79bd27	0.9755425
64	0x3f7de738	0.99180937
65	0x3f81bce7	1.0135773
66	0x3f7cfd0c	0.9882362
67	0x3f80448d	1.002092
68	0x3f7ff1fe	0.99978626
69	0x3f81d871	1.0144178
70	0x3f7c2bca	0.98504317
71	0x3f7bd8a3	0.98377436
72	0x3f7c0f30	0.98460674
73	0x3f828d10	1.0199299
74	0x3f81394f	1.0095614
75	0x3f81c3f4	1.0137925
76	0x3f76e8dc	0.96449065
77	0x3f82faf2	1.0232832
78	0x3f81c75c	1.0138965
79	0x3f7e0a3a	0.99234354
80	0x3f83d19b	1.0298342
81	0x3f8391df	1.0278891
82	0x3f809dd8	1.004817
83	0x3f7b5446	0.98175466
84	0x3f7e29a1	0.9928227
85	0x3f7bbf68	0.9833894
86	0x3f7947b2	0.97375023
87	0x3f83de6f	1.0302256
88	0x3f77dfc2	0.968258
89	0x3f881984	1.0632787
90	0x3f81a3f2	1.0128157
91	0x3f7fdf96	0.9995054
92	0x3f7dbf5a	0.99120104
93	0x3f7ad294	0.97977567
94	0x3f779db8	0.96725035
95	0x3f75ba54	0.9598744
96	0x3f81160c	1.0084853
97	0x3f804768	1.0021791
98	0x3f803d0c	1.001863
99	0x3f85a779	1.0441734
100	0x3f80c9b1	1.0061551
101	0x3f8091b4	1.0044465
102	0x3f8494dd	1.035793
103	0x3f7506e8	0.95713663
104	0x3f7dd8cf	0.9915895
105	0x3f8004a8	1.0001421
106	0x3f7aa08c	0.97901225
107	0x3f80555e	1.0026052
108	0x3f7c149b	0.9846894
109	0x3f7fc30f	0.9990701
110	0x3f7bae57	0.98312896
111	0x3f81f9b6	1.0154331
112	0x3f7d3645	0.98910934
113	0x3f776ebf	0.9665336
114	0x3f7a12fb	0.9768521
115	0x3f7e81d8	0.99416876
116	0x3f802792	1.0012076
117	0x3f7dffb0	0.99218273
118	0x3f8147e2	1.0100062
119	0x3f8233d8	1.0172071
120	0x3f80df33	1.0068115
121	0x3f8005db	1.0001787
122	0x3f7d6adf	0.989912
123	0x3f80e58d	1.0070053
124	0x3f7bb439	0.9832187
125	0x3f88fde2	1.0702479
126	0x3f7e7f3b	0.9941289
127	0x3f7ad224	0.979769

shared_layers.1.bias f4 [128]
0	0xbca59b92	-0.020215783
1	0xbccbf58f	-0.024897365
2	0xbbd870d0	-0.006605245
3	0xbc6afb70	-0.014342174
4	0xbcdaf44c	-0.026727818
5	0xbce61f58	-0.028091118
6	0xbd2f53db	-0.04280458
7	0xbc44d5c5	-0.012013857
8	0xbcbecdbd	-0.023291463
9	0x3d0520b8	0.032501906
10	0xbc9be711	-0.01903108
11	0x3ad8948d	0.0016523764
12	0xbcf29cdf	-0.029615818
13	0x3c1fc6a1	0.009751947
14	0x3b3735a1	0.002795555
15	0xbc656a4b	-0.014002393
16	0xbcd48325	-0.02594144
17	0x398d8046	0.00026989187
18	0xbc9ca8fe	-0.01912355
19	0x3d409aed	0.04702275
20	0x3c72a2b1	0.0148092965
21	0x3c6bdb10	0.01439549
22	0x3d94497b	0.07240578
23	0x3c1a0adb	0.009402002
24	0x3cdd566c	0.027018748
25	0x3b537930	0.0032268278
26	0xbcd68b33	-0.026189422
27	0xbc8644e2	-0.016390268
28	0xbca34869	-0.019931989
29	0x3c22ada7	0.009929097
30	0x3c778343	0.015106979
31	0xbd5a7a28	-0.053339154
32	0x3c29ffc4	0.010375921
33	0xba365061	-0.00069547264
34	0x3c273a8e	0.010206832
35	0xbc49d597	-0.01231899
36	0xbd81a1e6	-0.06329708
37	0xbc41a08c	-0.0118180625
38	0xbc1a35ea	-0.009412268
39	0xbc34fab1	-0.011046098
40	0xbbdc0510	-0.0067144707
41	0xbd21aced	-0.039471556
42	0xbc3656d6	-0.011129102
43	0x3c169fa3	0.009193334
44	0x3ba23e85	0.0049513006
45	0xbc1c2019	-0.009529137
46	0xbd315f64	-0.043303862
47	0x3d25ce03	0.04047967
48	0xbab4949a	-0.0013777197
49	0x3d0ebba6	0.034846924
50	0xbc64e111	-0.013969676
51	0xbcc6626d	-0.024216855
52	0xbc7d6306	-0.015465504
53	0xbc866323	-0.016404694
54	0xbc9bcefb	-0.019019594
55	0x3a19aeb1	0.0005862518
56	0x3b6884f5	0.003547964
57	0xbb18bcd8	-0.002330592
58	0xbca8c25f	-0.020600496
59	0x3c1aacd4	0.0094406195
60	0xbc5b8e75	-0.013400664
61	0x3c419e4c	0.011817526
62	0xbd0f6fd8	-0.035018772
63	0xbce8463e	-0.028353807
64	0xbc72e1bb	-0.014824326
65	0xbc4471f9	-0.011990064
66	0xbcada3d8	-0.02119629
67	0xbd0e98f5	-0.03481384
68	0x3be68e96	0.0070360405
69	0xbb9135b3	-0.0044314503
70	0xbd55686f	-0.05210155
71	0xbc3ff3c4	-0.011715833
72	0xbcd55344	-0.02604068
73	0x3cb17e86	0.021666776
74	0xbccba7f9	-0.024860369
75	0x3cd58196	0.026062768
76	0xbb85fe7e	-0.0040891757
77	0x3bc1f2ee	0.005918852
78	0xbcdd6ac9	-0.027028458
79	0xbc83f240	-0.016106725
80	0x3c51d2dd	0.012806621
81	0x3cd5aa2a	0.026082117
82	0xbca98c55	-0.020696798
83	0x3bb0b788	0.0053929724
84	0xbc9a150a	-0.01880886
85	0xbc4daf03	-0.012553933
86	0xbc8803b8	-0.016603336
87	0xbbdb12be	-0.006685584
88	0xbc982ddf	-0.01857656
89	0x3d1b4291	0.03790528
90	0x3c8e278c	0.017352842
91	0xbcd732b6	-0.026269298
92	0x3c80c5b9	0.015719282
93	0xbc211824	-0.009832416
94	0xbd78e4a0	-0.06076491
95	0xbd19fd96	-0.037595354
96	0xbbb05dd7	-0.0053822803
97	0xbc39afc4	-0.01133341
98	0xbcc12282	-0.023576025
99	0xbc0246e9	-0.007951477
100	0xbcede163	-0.029038137
101	0x3cc155f0	0.023600549
102	0x3cad7e3a	0.021178354
103	0xbd81bccc	-0.06334838
104	0xbc59ace3	-0.013285848
105	0xbb47f379	-0.0030510111
106	0xbcd7994e	-0.026318219
107	0xbc1d516f	-0.009601935
108	0xbc3b27a4	-0.011423025
109	0xbca0fa2c	-0.019650541
110	0xbd06fe59	-0.03295741
111	0x3c9a6372	0.018846247
112	0xba00dc7c	-0.0004915667
113	0xbd246962	-0.040139563
114	0xbccb3e5e	-0.024810012
115	0xbd4e594e	-0.050378136
116	0xbca760b9	-0.020431863
117	0xbcd08e44	-0.025458463
118	0xbb55a40b	-0.0032598998
119	0xbc39e68b	-0.01134647
120	0xbcaef747	-0.021358145
121	0x3a55f8bc	0.00081623695
122	0xbbf9f121	-0.0076276218
123	0xbbaed399	-0.005335283
124	0xbcb41dc8	-0.021986857
125	0x3aed3b2b	0.0018099298
126	0xbadc3180	-0.001679942
127	0xbc209a16	-0.009802362

shared_layers.1.running_mean f4 [128]
0	0xba5691a4	-0.00081851543
1	0x3baed461	0.005335376
2	0xbb94728c	-0.0045302566
3	0x3b1054ea	0.002202327
4	0x3b514d40	0.0031936914
5	0xbae915ca	-0.0017782983
6	0xbace1f88	-0.001572595
7	0xbba4fad6	-0.005034785
8	0xbb8a2a0b	-0.0042164377
9	0xbab9998c	-0.001416014
10	0x3ba49812	0.005023011
11	0xbbfc2129	-0.0076943827
12	0x39be5620	0.00036303792
13	0xb90337b0	-0.00012513879
14	0x3b410094	0.0029449807
15	0x3c1be835	0.009515812
16	0x388822c0	6.491458e-05
17	0xbb69c416	-0.0035669855
18	0x3b2cf56f	0.0026391407
19	0xba0182b8	-0.0004940438
20	0x39e02f88	0.00042760023
21	0x3a368218	0.00069621345
22	0x3af4a6c0	0.0018665418
23	0x3af031c0	0.0018325374
24	0xba897562	-0.0010487253
25	0xb86f3580	-5.7031866e-05
26	0xbb865200	-0.0040991306
27	0xbc48723f	-0.01223427
28	0xbab92d68	-0.0014127912
29	0x3a1d6510	0.0006004134
30	0x3b859d62	0.0040775994
31	0xbadce788	-0.001685367
32	0xbb92dd3a	-0.0044819387
33	0x3b5d5f73	0.0033778816
34	0x3b335100	0.0027361512
35	0xba03bf24	-0.00050257356
36	0xbb97053c	-0.0046087783
37	0xbae4c758	-0.0017454429
38	0xbb998838	-0.004685428
39	0x3c1ba86b	0.009500603
40	0xbbbe06d0	-0.005799152
41	0x3b88c511	0.004173883
42	0x3c1cd3e1	0.009572
43	0x3a33dec8	0.0006861505
44	0xbc012658	-0.007882677
45	0xbb5fcfbc	-0.003415092
46	0xbb545f42	-0.003240541
47	0xbb0516c6	-0.0020307763
48	0xb801fd00	-3.099162e-05
49	0xbbdfc1e6	-0.0068285344
50	0x3b544304	0.0032388577
51	0xbabd8b5f	-0.0014461091
52	0x3a98cff8	0.0011658659
53	0x3b9a66bc	0.004711954
54	0x3bc7e1f2	0.006099933
55	0xbbb82257	-0.005619328
56	0xb9e083e0	-0.00042822864
57	0x3987ba60	0.00025888067
58	0xb9788f20	-0.00023704441
59	0x3b8803de	0.0041508516
60	0x39be2074	0.00036263803
61	0xbb909dc3	-0.004413338
62	0xbb91e11c	-0.004451884
63	0xbb935cb8	-0.004497137
64	0xb83bbf00	-4.4762157e-05
65	0xbbaa8df4	-0.0052049104
66	0x3bc9cb67	0.0061582807
67	0x3c27a4cf	0.0102321645
68	0xba8c616c	-0.0010710186
69	0x3adb2b2a	0.0016721238
70	0xbc0e120b	-0.008671294
71	0x3bc809fe	0.006104707
72	0xbbc7d620	-0.0060985237
73	0xbb55c0a0	-0.0032616034
74	0x3bcd2610	0.006260641
75	0x3c35f322	0.011105331
76	0xbb564643	-0.0032695688
77	0xbb915d9a	-0.004436207
78	0xb98a2a90	-0.00026353123
79	0xbc0a6001	-0.008445741
80	0xba290ce8	-0.00064487616
81	0xba8cf308	-0.0010753581
82	0xb8c08700	-9.180419e-05
83	0xb9ce6e20	-0.0003937343
84	0xba50dc88	-0.0007967432
85	0xbbd3c49a	-0.0064626457
86	0xba50c870	-0.0007964438
87	0xbaa2a0a8	-0.0012407498
88	0x3b1038bc	0.0022006473
89	0x3bf1af6a	0.0073756473
90	0xbb8463fc	-0.0040402394
91	0x3a44069b	0.0007477791
92	0x3b32e1b8	0.0027295183
93	0x3bad2bc6	0.005284759
94	0x3b821640	0.0039699376
95	0x3b91f2fc	0.004454015
96	0x3a1980fc	0.0005855707
97	0xbb85eac0	-0.0040868223
98	0x3b0df9ae	0.0021663713
99	0x3b94d422	0.0045418898
100	0x3ad8bd08	0.0016535828
101	0x3b1454b6	0.00226335
102	0xbbe69796	-0.0070371134
103	0x3bba8459	0.0056920466
104	0x3ac218d4	0.0014808425
105	0xba8b6a7c	-0.0010636593
106	0xbbe851ca	-0.007089828
107	0xbaf30a6a	-0.0018542532
108	0xba12d710	-0.0005601505
109	0xbc23a394	-0.0099877305
110	0x3c03ff9d	0.008056548
111	0xbc18f1b1	-0.0093349675
112	0xbb27ab17	-0.0025584155
113	0xbaccc256	-0.0015621881
114	0x3b3c50b0	0.0028734617
115	0x3baa5c8c	0.0051990207
116	0x3c046b06	0.008082157
117	0x3aa82450	0.0012828205
118	0xbbb670ae	-0.0055676317
119	0x3a845126	0.0010094985
120	0xbaac5414	-0.0013147616
121	0xba68e1e0	-0.00088837557
122	0x3ae23ffc	0.00172615
123	0x39172f04	0.00014417997
124	0xbb762166	-0.0037556528
125	0x3ac28f4a	0.0014843729
126	0xba9d0c1c	-0.0011981758
127	0x3bcdeef8	0.006284591

shared_layers.1.running_var f4 [128]
0	0x3eabb9ef	0.33540294
1	0x3e94414d	0.2895607
2	0x3f4bc0c6	0.79591024
3	0x3eec9c72	0.46213108
4	0x3f256609	0.6460882
5	0x3f06ce5b	0.52658623
6	0x3ec3a976	0.38215226
7	0x3ea76576	0.32694596
8	0x3f20e001	0.628418
9	0x3eb8c410	0.36087084
10	0x3f79626a	0.9741579
11	0x3eda6058	0.4265163
12	0x3e41aa23	0.18912558
13	0x3eefa261	0.46803573
14	0x3e92fa88	0.28706765
15	0x3f4ebf3b	0.80760545
16	0x3f03f985	0.5155261
17	0x3e7f48c6	0.24930105
18	0x3ec8b3fe	0.39199823
19	0x3e37723c	0.1791467
20	0x3f5a95ae	0.85384643
21	0x3e0a3f96	0.13500819
22	0x3e9a90b6	0.3018853
23	0x3f158d34	0.58418584
24	0x3e343677	0.17598902
25	0x3e964c5f	0.29355142
26	0x3f83bb9f	1.0291632
27	0x3ff47ed2	1.9101202
28	0x3f05f792	0.5233089
29	0x3e8ace7e	0.27110666
30	0x3f444efd	0.76683027
31	0x3ee154d1	0.44010022
32	0x3fa68636	1.3009708
33	0x3e5a132d	0.21296377
34	0x3ebf9581	0.3741875
35	0x3f152722	0.58262837
36	0x3f82a011	1.0205098
37	0x3e4d0139	0.20019998
38	0x3f1788a1	0.59192854
39	0x3f48bb74	0.7841103
40	0x3f15b578	0.58480024
41	0x3f01ce03	0.50704974
42	0x3f3bfff4	0.7343743
43	0x3ea4bd92	0.3217588
44	0x3f04731d	0.5173815
45	0x3e83bc24	0.25729477
46	0x3e894794	0.26812422
47	0x3e51149d	0.2041802
48	0x3e2a4b49	0.16630282
49	0x3f29c6f1	0.66319185
50	0x3ee067ce	0.43829197
51	0x3eaaa5c9	0.3332961
52	0x3f1f227c	0.62161994
53	0x3f68bcc5	0.9091304
54	0x3f8b65e0	1.0890465
55	0x3eb8a4f4	0.3606335
56	0x3e55d2d4	0.20881206
57	0x3eec78b7	0.46185848
58	0x3e6efbe2	0.23338273
59	0x3f1a6c3d	0.6032141
60	0x3e5a15fb	0.21297447
61	0x3ef1e566	0.4724533
62	0x3eee5444	0.46548665
63	0x3ee64db2	0.44981152
64	0x3e5d61d8	0.21619356
65	0x3edf407b	0.43603882
66	0x3eed6fbd	0.46374312
67	0x3f1763f3	0.59136885
68	0x3ea190ed	0.31555882
69	0x3eb7d8f5	0.35907713
70	0x3f6a525a	0.9153191
71	0x3e8cf87c	0.2753333
72	0x3f2e437e	0.68071735
73	0x3f31e2d4	0.6948674
74	0x3efa9a15	0.4894568
75	0x3f3d9a02	0.7406312
76	0x3eaa975a	0.33318597
77	0x3f00dc68	0.50336313
78	0x3edbf238	0.42958236
79	0x3f1ecf7a	0.62035334
80	0x3e414aea	0.18876234
81	0x3e904c06	0.28183
82	0x3e0fb0e4	0.14032322
83	0x3f1662b2	0.5874435
84	0x3f746b68	0.9547639
85	0x3eb98471	0.36233857
86	0x3eaac379	0.3335226
87	0x3f2638fa	0.6493069
88	0x3f597881	0.849495
89	0x3ee1548f	0.44009826
90	0x3ebfaf4e	0.37438434
91	0x3ef94206	0.48683184
92	0x3f5134c1	0.8172112
93	0x3f24b9f9	0.6434627
94	0x3ef54c08	0.4790957
95	0x3ebb8276	0.3662297
96	0x3f39e696	0.7261747
97	0x3f125cb7	0.5717272
98	0x3e84d88f	0.2594647
99	0x3eaff425	0.34365955
100	0x3e6e7a2f	0.23288797
101	0x3eb446cc	0.35210264
102	0x3eda862c	0.4268049
103	0x3f613689	0.8797384
104	0x3eeeebdb	0.46664318
105	0x3e9cfcbd	0.30661574
106	0x3f0bc97d	0.5460432
107	0x3f21c82b	0.6319606
108	0x3f48a119	0.78370816
109	0x3f1eefee	0.62084854
110	0x3edce636	0.43144387
111	0x3f18b789	0.5965505
112	0x3f170a1f	0.5899982
113	0x3ec5907f	0.38586804
114	0x3f11e2c7	0.5698666
115	0x3f19c227	0.6006188
116	0x3f41f6be	0.75767124
117	0x3f3b870e	0.7325295
118	0x3f258942	0.64662564
119	0x3e4cfe41	0.20018865
120	0x3e4f33dd	0.20234628
121	0x3e611f3b	0.2198457
122	0x3f9426b6	1.1574314
123	0x3e71b3fe	0.23603818
124	0x3f25e8b5	0.6480821
125	0x3e3ce267	0.1844574
126	0x3e876da3	0.26450834
127	0x3f267d48	0.65034914

shared_layers.4.weight f4 [64, 128]
0	0x3e148f70	0.14507842
1	0xbd80d8d0	-0.06291354
2	0xbdd1707d	-0.102265336
3	0xbde62cdb	-0.11239024
4	0x3cb409cf	0.021977333
5	0x3d9b6fcc	0.07589683
6	0x3e0841df	0.13306378
7	0xbd194572	-0.037419744
8	0xbd03a349	-0.032138143
9	0x3dd569a3	0.10420539
10	0x3dadc665	0.084851064
11	0xbe1ea007	-0.15490733
12	0xbd839c2d	-0.064262725
13	0x3d0bdd66	0.03414669
14	0xb9a0352d	-0.00030557197
15	0xbe388751	-0.18020369
16	0xbd9412b5	-0.072301306
17	0xbdedd8b3	-0.11613598
18	0x3dfe173c	0.12406775
19	0x3de0103f	0.10940599
20	0xbd8b9a13	-0.06816497
21	0xbe1413d5	-0.1446069
22	0xbd705ef0	-0.05868429
23	0x3c1ba9d4	0.009500939
24	0xbd5c5b14	-0.053797796
25	0x3d96d61a	0.073650554
26	0xbdd80358	-0.10547513
27	0xbde35479	-0.11100096
28	0xbdf47bb8	-0.1193766
29	0xbded7336	-0.1159424
30	0xbdcc6e6e	-0.09982
31	0x3db132ab	0.08652242
32	0xbdbff49c	-0.093728274
33	0xbd28209d	-0.041046727
34	0xbdd9a04b	-0.106262766
35	0x3da114cb	0.07865294
36	0xbc8e2f93	-0.01735667
37	0xbd89f991	-0.06737054
38	0xbd201657	-0.039083805
39	0xbe3c5e86	-0.18395433
40	0x3d3a16e1	0.045431975
41	0xbe166d14	-0.14690048
42	0xbc5c46e4	-0.013444636
43	0x3dc690e8	0.096956074
44	0x3cdade36	0.026717287
45	0xbd08e323	-0.03341974
46	0xbdee4097	-0.11633413
47	0xbe31190d	-0.17294712
48	0xbd89cd9b	-0.06728669
49	0xbd8068f6	-0.0627002
50	0xbd9a618e	-0.07538138
51	0x3e6dfae8	0.23240244
52	0xbd9d3f07	-0.07678037
53	0x3dc9d81c	0.09855673
54	0x3d904f34	0.07046357
55	0x3e0173e4	0.12641865
56	0xbdbb2262	-0.091374174
57	0xbdc13efb	-0.09435841
58	0x3dbffa2d	0.09373889
59	0xbdbb11de	-0.09134267
60	0x3e24498a	0.16043678
61	0xbccb747a	-0.024835814
62	0xbdbbf365	-0.09177283
63	0x3dcc19a3	0.09965827
64	0x3def8fe3	0.11697366
65	0x3c514f16	0.012775203
66	0xbdfa21db	-0.12213489
67	0xbd45f21c	-0.048326597
68	0x3d583dee	0.052793436
69	0xbe4d3430	-0.20039439
70	0x3c1d8314	0.009613771
71	0xbe01afc2	-0.12664703
72	0xbd187324	-0.03721918
73	0x3ac2b5c4	0.0014855196
74	0xbe39416d	-0.18091364
75	0xbe21ed21	-0.15813114
76	0xbe4d1990	-0.20029283
77	0xbcc0ccea	-0.02353521
78	0x3c6bcd7a	0.014392251
79	0x3debfe2c	0.11523089
80	0x3d6c6a59	0.05771861
81	0x3c50e6c3	0.01275033
82	0xbd501229	-0.05079857
83	0x3dd0b81a	0.101913646
84	0x3db41e34	0.08794823
85	0x3dde63ab	0.10858854
86	0xbe3a7c8c	-0.18211573
87	0x3d079714	0.033103064
88	0x3e016e2b	0.12639682
89	0xbe261e2a	-0.16222444
90	0xbd1a18af	-0.037621196
91	0xbd50db90	-0.05099064
92	0x3d580ee4	0.052748576
93	0xbd81964d	-0.06327496
94	0xbe18437e	-0.14869496
95	0xbdc27433	-0.094948195
96	0x3db73d1c	0.089472026
97	0xbe64e3ad	-0.22352476
98	0xbad44dd2	-0.0016197509
99	0xbdf43897	-0.11924856
100	0x3dac9311	0.08426488
101	0x3d9d206b	0.07672199
102	0x3d5e085d	0.054207195
103	0x3dd841b7	0.10559409
104	0xbd4449ff	-0.04792213
105	0xbe3037ed	-0.17208834
106	0xbdcba5fc	-0.099437684
107	0xbd89115c	-0.06692764
108	0x3dba1e2b	0.09087785
109	0xbdfb9e9e	-0.12286113
110	0xbb06795c	-0.0020519113
111	0x3cb068b1	0.021534296
112	0xbe164ccd	-0.14677735
113	0x3e22fc0e	0.15916464
114	0x3dc006c8	0.093762934
115	0x3b8fbe4d	0.0043866993
116	0xbdec60a2	-0.11541869
117	0x3d179e85	0.03701641
118	0xbd1bd647	-0.038046148
119	0x3dbfa290	0.09357178
120	0xbe2e59da	-0.17026463
121	0xbe2d814a	-0.16943851
122	0xbd96cfa7	-0.07363825
123	0xbdf8cd13	-0.1214849
124	0xbe199b1a	-0.15000573
125	0xbe052f3d	-0.13006301
126	0x3e0563c3	0.13026337
127	0x3dee937d	0.11649225
128	0x3d981eb0	0.07427728
129	0x3d242a8c	0.04007964
130	0xbe12a365	-0.14320143
131	0x3d853976	0.065051004
132	0x3c618d99	0.01376667
133	0x3d3c6523	0.04599489
134	0x3db7ad5d	0.08968613
135	0xbd2d19b2	-0.042260833
136	0xbd2eb069	-0.042648707
137	0x3e200bc3	0.15629487
138	0x3e3a5268	0.18195498
139	0x3e0ee35e	0.13953921
140	0xbcb441d4	-0.022004046
141	0x3cdc19ac	0.02686771
142	0xbe1f9b03	-0.15586476
143	0xbe19fb85	-0.15037353
144	0xbd18f7e4	-0.037345782
145	0x3e2bc948	0.16776001
146	0xbe01f2d5	-0.1269029
147	0x3e2da31b	0.16956751
148	0x3d805ae6	0.062673375
149	0xbdf26a2d	-0.11836658
150	0x3e02d705	0.12777336
151	0xbdf99a82	-0.12187673
152	0x3e26b343	0.1627932
153	0x3bc25e20	0.0059316307
154	0xbd86d140	-0.0658288
155	0xbe0248d0	-0.12723088
156	0xbe19e7a2	-0.15029767
157	0x3e237acb	0.1596481
158	0xbd48b1d1	-0.048997704
159	0x3d86ea16	0.06587617
160	0xbde917b3	-0.113814734
161	0x3d996c59	0.07491369
162	0xbe0c3799	-0.13693084
163	0x3df5a64c	0.11994609
164	0xbcff5590	-0.031168729
165	0xbd35d20c	-0.04438977
166	0xbc68e435	-0.014214565
167	0x3cdd2aef	0.026998011
168	0xbca53e5c	-0.020171337
169	0xbd0c17d2	-0.034202404
170	0xbdf06a2e	-0.11739002
171	0x3e06d2b7	0.13166319
172	0x3d4040e2	0.046936877
173	0xbda656b7	-0.08122008
174	0x3c565719	0.013082289
175	0x3de95047	0.11392265
176	0xbd8505ec	-0.0649527
177	0xbd2f281c	-0.04276286
178	0x3dd91e2a	0.106014565
179	0x3e392565	0.18080671
180	0x3d9bb5cc	0.076030344
181	0xbb8bc47a	-0.004265365
182	0x3e194e7b	0.14971344
183	0xbe09ee74	-0.13469869
184	0x3dba3316	0.09091775
185	0xbbc623b1	-0.006046735
186	0xbe3d990a	-0.18515411
187	0xbdf21725	-0.11820821
188	0x3d0a9179	0.03383014
189	0x3c838404	0.01605416
190	0xbd91e9ca	-0.0712467
191	0xbd3cd550	-0.04610187
192	0xbb4fbebc	-0.003169938
193	0x3dc1a456	0.09455173
194	0x3e2a23c7	0.1661521
195	0xbd807340	-0.06271982
196	0xbd68f0ac	-0.056870148
197	0xbd7db8c1	-0.061943773
198	0xbd97ef5b	-0.074187
199	0xbe2d97d3	-0.16952448
200	0x3dab7297	0.08371466
201	0x3db1974e	0.08671437
202	0xbe42b848	-0.1901561
203	0xbdd8010e	-0.10547076
204	0x3da09c79	0.07842345
205	0xbdb0accc	-0.086267084
206	0xbc72b6a3	-0.014814052
207	0xbe1830ed	-0.14862414
208	0xbde1fdb5	-0.11034719
209	0x3e29650c	0.16542453
210	0xbd03ffe1	-0.032226447
211	0xbd95bda4	-0.07311562
212	0x3d93b277	0.07211774
213	0xbdc874b2	-0.09787883
214	0xbd8d8c4f	-0.06911527
215	0x3db1d033	0.08682289
216	0x3d275b81	0.04085875
217	0x3e04e90c	0.12979525
218	0xbd2804f7	-0.04102036
219	0x3dd26700	0.10273552
220	0xbe4353c4	-0.19074923
221	0x3dc932f2	0.0982417
222	0x3e207317	0.15668903
223	0xbdcaa413	-0.09894576
224	0x3da37513	0.079813145
225	0x3dfe0a2c	0.12404284
226	0xbdc75ee2	-0.09734894
227	0x3e1f90ba	0.15582553
228	0xbd3808da	-0.044930317
229	0x3daa0358	0.08301419
230	0xbe05bd1c	-0.13060421
231	0x3ddaf9ac	0.106921524
232	0xbd3a49ec	-0.045480654
233	0xbd573721	-0.05254281
234	0x3e0161cf	0.12634967
235	0x3d632b49	0.0554612
236	0x3bf4b40b	0.007467752
237	0x3d340626	0.043951176
238	0x3db3eaac	0.087849945
239	0x3cbb2255	0.02284352
240	0x3ce2cab9	0.027684556
241	0x3e34c7c5	0.17654331
242	0xbd158bb0	-0.03651017
243	0xbc39dee7	-0.011344648
244	0xbe118c10	-0.14213586
245	0x3e1ffbc4	0.15623385
246	0xbdacd603	-0.08439257
247	0x3e051eee	0.1300008
248	0x3dca325d	0.09872887
249	0x3cbb5d5b	0.022871664
250	0xbe1fb236	-0.15595326
251	0xbdb139ee	-0.08653627
252	0xbcacb96b	-0.021084508
253	0x3d1ce7db	0.038307052
254	0x3cd6c1e0	0.026215494
255	0x3da80720	0.08204484

shared_layers.4.bias f4 [64]
0	0x398ef168	0.00027264212
1	0x39b6dc35	0.00034877812
2	0xb99fff7f	-0.00030517203
3	0xb9fb3b2e	-0.00047918543
4	0x38f6e498	0.00011772773
5	0x38b0126a	8.395764e-05
6	0x3a0a4b9b	0.00052755483
7	0xb9d42def	-0.00040470014
8	0xb9855f7e	-0.00025438884
9	0x39b75b23	0.00034972382
10	0x3a08774b	0.00052057643
11	0xb9b23e6e	-0.0003399732
12	0xba357d17	-0.0006923242
13	0xb82740d6	-3.9876286e-05
14	0xb95d584e	-0.00021109098
15	0x36c7087d	5.9316503e-06
16	0x393f4f5a	0.0001824474
17	0x39977ee8	0.00028895517
18	0x39d2e9ef	0.00040228615
19	0xb9e4dc34	-0.00043651613
20	0x3975e0ac	0.00023448718
21	0x39e5ca21	0.00043828881
22	0xb96a0cc6	-0.00022320737
23	0x39bdd20d	0.0003620539
24	0x3a402774	0.0007330098
25	0xb96c9d32	-0.00022565274
26	0xb935826a	-0.00017310088
27	0x393054ba	0.00016816231
28	0x39104124	0.00013757177
29	0xb885d387	-6.381334e-05
30	0x39f56e55	0.00046812245
31	0xb8b64de7	-8.692947e-05
32	0xb8d9c30b	-0.00010383696
33	0x39423ba1	0.00018523495
34	0x399d68aa	0.00030023354
35	0xb9bdcea6	-0.00036202854
36	0x38d9dc8b	0.00010388446
37	0x3983e4bd	0.0002515669
38	0x385ea836	5.3085583e-05
39	0xb8ff10fc	-0.00012162511
40	0x39303d28	0.0001680745
41	0x3929dc89	0.00016199252
42	0xba1f9684	-0.0006087797
43	0x38235e70	3.895018e-05
44	0x38aa154b	8.110198e-05
45	0xb97d2832	-0.00024142934
46	0x39b79083	0.0003501215
47	0xb903872f	-0.00012543493
48	0xb97e3282	-0.00024242143
49	0x39d2cae1	0.00040205478
50	0x3a26c265	0.00063613645
51	0x381c3195	3.7239475e-05
52	0x39fc9a62	0.0004818021
53	0xb8c3aa40	-9.330036e-05
54	0xb6829759	-3.891921e-06
55	0x38baede3	8.913481e-05
56	0x3925d9cf	0.00015816766
57	0xb968bbba	-0.00022195178
58	0xba43b3af	-0.00074654346
59	0xb9efeecb	-0.00045763547
60	0x3993049d	0.00028041462
61	0x388dee3e	6.76778e-05
62	0xb9975c84	-0.00028869894
63	0xb95c3711	-0.00021001349

shared_layers.5.weight f4 [64]
0	0x3f7a28b0	0.97718334
1	0x3f775908	0.96620226
2	0x3f7af21a	0.9802567
3	0x3f85dd12	1.045809
4	0x3f8062fc	1.0030208
5	0x3f81a2c1	1.0127794
6	0x3f7c80ae	0.9863385
7	0x3f7d2f91	0.98900706
8	0x3f88e756	1.0695598
9	0x3f82128f	1.0161914
10	0x3f81a5b7	1.0128697
11	0x3f7dcdd7	0.9914221
12	0x3f8221d8	1.0166578
13	0x3f82df8b	1.022447
14	0x3f7da0ab	0.99073285
15	0x3f787629	0.970553
16	0x3f809bd4	1.0047555
17	0x3f7ce9d3	0.9879429
18	0x3f83e05c	1.0302844
19	0x3f862600	1.0480347
20	0x3f78d6a4	0.97202516
21	0x3f708937	0.93959373
22	0x3f731962	0.94960606
23	0x3f6c95dc	0.9241617
24	0x3f833889	1.0251628
25	0x3f844d0d	1.0336014
26	0x3f76033e	0.960987
27	0x3f82f07e	1.0229642
28	0x3f7df5fe	0.9920348
29	0x3f7fba24	0.99893403
30	0x3f7f0d85	0.99630004
31	0x3f7d17a2	0.98864186
32	0x3f7865f9	0.970306
33	0x3f7935a0	0.9734745
34	0x3f7c7094	0.9860928
35	0x3f850db4	1.0394807
36	0x3f6bb0ff	0.9206695
37	0x3f7c9ebb	0.98679703
38	0x3f7663b4	0.96245885
39	0x3f7e1c29	0.9926172
40	0x3f7fcc00	0.99920654
41	0x3f77fc75	0.96869594
42	0x3f87d25a	1.0611069
43	0x3f6ea7bb	0.93224686
44	0x3f78b70b	0.971543
45	0x3f80083c	1.0002513
46	0x3f81812e	1.0117548
47	0x3f839f5c	1.0283008
48	0x3f734b3b	0.9503667
49	0x3f84ddaa	1.0380147
50	0x3f82ce06	1.0219123
51	0x3f7c1666	0.9847168
52	0x3f8550c9	1.0415279
53	0x3f886b77	1.0657796
54	0x3f811766	1.0085266
55	0x3f7f15fe	0.9964293
56	0x3f7ab4c3	0.9793207
57	0x3f776e46	0.9665264
58	0x3f82c79e	1.0217168
59	0x3f77a35c	0.9673364
60	0x3f7adb6f	0.9799108
61	0x3f7814ee	0.96906936
62	0x3f7e2eca	0.99290144
63	0x3f871ec2	1.0556262

shared_layers.5.bias f4 [64]
0	0x3c601dfd	0.013679025
1	0xbbcfc278	-0.006340321
2	0xbc84cb1f	-0.016210137
3	0x3cdb00e2	0.02673382
4	0x3cdaf51d	0.026728207
5	0x3c66cffc	0.014087673
6	0xbd17e0bd	-0.03707956
7	0x38c29f5d	9.2803246e-05
8	0x3d577024	0.05259718
9	0x3c59a850	0.013284758
10	0xbc690f55	-0.014224847
11	0x3b80ab78	0.0039266907
12	0x3ce56664	0.028002925
13	0xbc0590a9	-0.008152165
14	0xbc8b9c07	-0.017042173
15	0xbba8eaa8	-0.0051549263
16	0xbd01e33c	-0.03171085
17	0x3a1b3b8a	0.0005921653
18	0x3d1dbe14	0.03851135
19	0x3d0bf39a	0.034167863
20	0xbcd6cb69	-0.02622004
21	0xbd3f4c19	-0.04670343
22	0xbd5e59c4	-0.054284826
23	0xbda3235d	-0.079657294
24	0x3cdf383f	0.0272485
25	0x3ccd34ee	0.025049653
26	0xbd2a7db4	-0.041623786
27	0x3c83518c	0.016030096
28	0x3ce0e984	0.027455099
29	0xbbf0d9ea	-0.007350196
30	0x3ce53f47	0.027984275
31	0x3b9a3c56	0.0047068996
32	0xbd37e35d	-0.044894565
33	0xbd12d0f0	-0.03584379
34	0xbc1f726b	-0.009731869
35	0x3d285fc0	0.04110694
36	0xbd32d403	-0.04365922
37	0xbc35cb18	-0.011095785
38	0xbcf49619	-0.029856728
39	0x3c90d922	0.017681662
40	0x3c959008	0.018257156
41	0xbd0e290a	-0.034707107
42	0x3cfb362f	0.030665485
43	0xbd5b1bf7	-0.053493466
44	0xbcc3389b	-0.023830703
45	0xbb5b5fbd	-0.0033473813
46	0x3cc0a12a	0.023514349
47	0x3d14e5f0	0.036352098
48	0xbd6b19a6	-0.057397507
49	0x3d122978	0.03568408
50	0xba155129	-0.0005695993
51	0xbc29f5b5	-0.0103735225
52	0x3d169a74	0.03676839
53	0x3d88240f	0.06647503
54	0x3cdd5ab8	0.027020797
55	0x3c8c7c71	0.017149182
56	0xbc382048	-0.011238165
57	0xbcd439e3	-0.025906509
58	0x3d2b54de	0.041828983
59	0xbd12071d	-0.035651315
60	0xbd46dd71	-0.048551027
61	0xbd02a18b	-0.03189234
62	0xbc9e992e	-0.019360151
63	0x3d8a06d5	0.06739584

shared_layers.5.running_mean f4 [64]
0	0xbf9d536e	-1.2291086
1	0x3ea7ec2e	0.32797378
2	0xbf49deed	-0.7885578
3	0xbe86cb36	-0.26326913
4	0x3e3ffb83	0.18748288
5	0xbe85ee52	-0.26158386
6	0x3e3d4c72	0.18486193
7	0xbf121b2d	-0.57072717
8	0x3f7891dc	0.97097564
9	0xbf05704f	-0.52124494
10	0xbe4a40fa	-0.19751349
11	0x3e2f97c2	0.17147735
12	0xbf3777d7	-0.71667236
13	0xbee3324d	-0.44374314
14	0xbeb49b39	-0.35274675
15	0xbf033b28	-0.5126214
16	0x3f6a8256	0.91605127
17	0xbea23b24	-0.31685746
18	0xbe390b90	-0.18070817
19	0xbe804228	-0.25050473
20	0x3f088dbd	0.53341275
21	0xbf43ec1e	-0.7653216
22	0xbf7cc9f9	-0.98745686
23	0xbf27e89b	-0.655893
24	0x3f8801e4	1.0625577
25	0x3e966038	0.29370284
26	0x3e9bbfb5	0.30419698
27	0x3f9b29d1	1.2122136
28	0x3e6f3af6	0.23362336
29	0xbe7e5544	-0.24837214
30	0xbd6403d8	-0.05566773
31	0xbf485f5e	-0.7827052
32	0x3e1a2b6f	0.15055631
33	0x3f2158d2	0.63026154
34	0xbf411d99	-0.7543579
35	0xbed7d1c8	-0.42152238
36	0xbe933c61	-0.28757003
37	0x3e9367e4	0.287902
38	0x3eef8734	0.4678284
39	0x3e1d93b2	0.15388373
40	0xbe8dfb28	-0.2773068
41	0x3e9690d3	0.29407367
42	0xbe04ded1	-0.12975623
43	0xbd12ff04	-0.035887733
44	0x3ead7254	0.33876288
45	0x3e3e2cb7	0.18571745
46	0x3d29677a	0.04135845
47	0xbf3063d0	-0.689023
48	0xbe8fc77c	-0.28081882
49	0xbe9c067f	-0.30473706
50	0xbead2cf5	-0.33823362
51	0x3e9820f9	0.29712656
52	0x3da38f37	0.079863004
53	0xbd5557a6	-0.05208554
54	0x3e962d44	0.2933141
55	0xbf495279	-0.7864147
56	0xbf64ecf2	-0.8942405
57	0x3e9fafef	0.31188914
58	0xbe524a49	-0.2053615
59	0x3ebe0d68	0.37119603
60	0xbf25117c	-0.64479804
61	0x3f115e91	0.5678492
62	0x3f17ded2	0.5932437
63	0xbe08c683	-0.13356976

shared_layers.5.running_var f4 [64]
0	0x3fc186a7	1.5119218
1	0x3f32b4a4	0.69806886
2	0x3fa43908	1.2829905
3	0x3f9ca49b	1.2237734
4	0x3f80bb53	1.0057167
5	0x3fa3b305	1.2789007
6	0x3f477e8d	0.77927476
7	0x3f40181f	0.75036806
8	0x3fa01dd8	1.2509108
9	0x3f62135e	0.883108
10	0x3f4feba9	0.81218964
11	0x3f93d518	1.1549406
12	0x3fa1d20b	1.2642225
13	0x3f9b8574	1.2150102
14	0x3f8df01e	1.1088903
15	0x3f927b4f	1.1443881
16	0x3fcf734d	1.6207062
17	0x3f97e74a	1.1867459
18	0x3fa12bc6	1.2591484
19	0x3fab75f5	1.3395373
20	0x3f95c2ee	1.1700113
21	0x3f801698	1.0006895
22	0x3fb102d4	1.3828988
23	0x3f73a58a	0.9517447
24	0x3fadd7d3	1.3581489
25	0x3fc54d76	1.5414264
26	0x3f7a4f20	0.97776985
27	0x3fb021ac	1.3760276
28	0x3f724123	0.9463064
29	0x3f796675	0.9742196
30	0x3f5df60d	0.8670357
31	0x3f9a4d1c	1.2054782
32	0x3f60d990	0.87831974
33	0x3f49b6a4	0.7879431
34	0x3f897bdc	1.0740924
35	0x3f9c9a40	1.2234573
36	0x3f5dffff	0.86718744
37	0x3fceda2f	1.6160334
38	0x3f487ada	0.78312457
39	0x3f8de1d2	1.108454
40	0x3f366004	0.7124026
41	0x3f8c1b35	1.0945803
42	0x3f9e87f8	1.2385244
43	0x3f8f44d5	1.1192881
44	0x3f70b312	0.9402324
45	0x3f521496	0.8206266
46	0x3f5b380c	0.85632396
47	0x3f9901ee	1.1953714
48	0x3f921494	1.141253
49	0x3f8a50b2	1.0805876
50	0x3fa7e820	1.3117714
51	0x3f524910	0.82142735
52	0x3f80b38b	1.0054792
53	0x3f4dea0a	0.8043524
54	0x3f8c366e	1.0954111
55	0x3f38bc0d	0.7216194
56	0x3fa25584	1.2682347
57	0x3f82d750	1.0221958
58	0x3f65728b	0.89627904
59	0x3f763c21	0.961855
60	0x3f802ef0	1.0014324
61	0x3f69eceb	0.91377133
62	0x3f8a5950	1.0808506
63	0x3f30c9a3	0.69057673

shared_layers.8.weight f4 [32, 64]
0	0x3e478007	0.19482432
1	0x3e27bcaa	0.16380563
2	0x3dbf0d88	0.09328753
3	0x3e591bc5	0.21202
4	0x3d8100d8	0.06298989
5	0x3ce8bda3	0.028410738
6	0xbe5849c8	-0.21121895
7	0xbdca0132	-0.09863509
8	0x3e5aba0b	0.21360032
9	0x3e7e35d2	0.24825218
10	0xbe05dc3b	-0.13072293
11	0x3e62635c	0.22108215
12	0x3e1e99a5	0.15488298
13	0xbe823140	-0.254282
14	0x3e231b38	0.15928352
15	0xbd96690a	-0.07344253
16	0x3e569dd2	0.20958641
17	0xbe30a8c1	-0.17251875
18	0x3d9c2222	0.07623698
19	0xbe0510b7	-0.12994657
20	0x3e7c8567	0.24660264
21	0x3e0c2992	0.13687733
22	0xbe6946ce	-0.22780916
23	0xbe53b9bd	-0.20676322
24	0x3c90e9a8	0.017689541
25	0x3dff5c91	0.124688275
26	0x3db24c3c	0.08705947
27	0x3db2fda2	0.08739783
28	0x3e54b718	0.2077297
29	0x3d90cec8	0.070706904
30	0xbdca2f2d	-0.09872279
31	0x3e3b587d	0.18295474
32	0x3e0510b8	0.12994659
33	0x3e90153e	0.28141207
34	0x3e26d79b	0.16293184
35	0xbe43f613	-0.19136839
36	0x3e940109	0.2890704
37	0x3e0f6299	0.14002456
38	0xbe0b8b95	-0.13627465
39	0xbe19629c	-0.14979023
40	0x3e2b8047	0.16748153
41	0x3db246ba	0.08704896
42	0xbe3daa80	-0.18522072
43	0x3e3e5f8c	0.18591136
44	0x3dfc797f	0.12327861
45	0xbd8186ef	-0.06324565
46	0x3d748f00	0.059706688
47	0xbd2a39b5	-0.04155894
48	0xbdb8a98d	-0.09016714
49	0x3e537dab	0.20653407
50	0x3dfa0ea9	0.122098275
51	0x3d924f7f	0.07144069
52	0xbd78796c	-0.060662672
53	0x3b963461	0.004583881
54	0x3e475b39	0.19468392
55	0x3de14a3a	0.11000486
56	0xbe4302eb	-0.19044082
57	0x3caa4f55	0.020789782
58	0xbdb36c41	-0.08760882
59	0x3e6d8fc6	0.23199376
60	0x3e078fd7	0.13238464
61	0x3dcf99d8	0.10136765
62	0xbd6bb366	-0.057544135
63	0xbdb13e8f	-0.0865451
64	0xbe0fabca	-0.14030376
65	0xbd1c655b	-0.038182598
66	0xbe1a4123	-0.1506391
67	0xbe14c408	-0.14527905
68	0x3b04cf66	0.002026522
69	0x3cdae401	0.026720049
70	0xbcc1e16f	-0.023667065
71	0xbdbd06ca	-0.092298105
72	0xbd916dcb	-0.071010195
73	0x3e78cdd8	0.24297273
74	0x3b98001c	0.004638685
75	0xbe360095	-0.1777366
76	0xbe5b98ea	-0.21445051
77	0x3e46726e	0.19379589
78	0xbe1b745c	-0.15181106
79	0x3e3f4b6e	0.18681118
80	0x3e452db0	0.1925571
81	0x3d81538b	0.06314763
82	0xbe2e2cd1	-0.17009284
83	0xbe6fecca	-0.23430172
84	0xbe009013	-0.1255496
85	0x3dd0044a	0.10157068
86	0x3e5014ab	0.20320384
87	0x3d336538	0.0437977
88	0x3dae2918	0.08503932
89	0x3ddb0b57	0.10695522
90	0xbd50449f	-0.050846692
91	0x3e2f467f	0.17116736
92	0x3e2a3a7d	0.16623874
93	0x3e07741b	0.13227884
94	0x3e10cada	0.14139882
95	0xbe02973a	-0.12753001
96	0x3df851f3	0.121250056
97	0x3e007044	0.12542826
98	0x3e61f251	0.22065093
99	0xbe2bad95	-0.16765435
100	0x3e9330e1	0.2874823
101	0xbe0b6976	-0.13614449
102	0xbd270298	-0.040773958
103	0x3cc2b3e8	0.023767427
104	0xbe464aac	-0.19364423
105	0xbd2b53b9	-0.04182789
106	0xbdf4a7ed	-0.11946092
107	0xbe4f121f	-0.20221756
108	0x3deacaca	0.1146446
109	0x3d995880	0.07487583
110	0xbdc2918e	-0.095004186
111	0xbe13c535	-0.14430697
112	0x3d85ec91	0.06539262
113	0x3e710c66	0.23539886
114	0x3bc4ac78	0.006002005
115	0x3e714142	0.2356005
116	0x3e440ef7	0.19146334
117	0x3e2eb27d	0.17060275
118	0xbe56c3c3	-0.20973115
119	0x3d2277a1	0.03966487
120	0xbe280f55	-0.16412099
121	0x3d255d2a	0.04037205
122	0x3d279df8	0.040922135
123	0xbe0d360d	-0.1379015
124	0x3e1d8a1a	0.15384713
125	0x3e801cf3	0.25022087
126	0x3e54dde4	0.2078777
127	0xbce14b9b	-0.027501872
128	0x3e0eed6b	0.13957755
129	0xbd3bf873	-0.045891237
130	0xbe206984	-0.15665251
131	0xbe884ad5	-0.26619592
132	0xbc3ff6d3	-0.011716562
133	0xbe8cf00f	-0.275269
134	0x3e924554	0.28568518
135	0xbc85f7eb	-0.016353568
136	0xbc63c25a	-0.0139013175
137	0xbe0584db	-0.13038962
138	0x3e3b927b	0.18317597
139	0xbdccb7a9	-0.09995968
140	0x3e786b88	0.2425977
141	0xbe02351c	-0.12715572
142	0xbdbafabc	-0.09129855
143	0x3db0ed39	0.08638997
144	0x3cfd6d86	0.030936014
145	0xbe0fdcb0	-0.1404903
146	0x3da419f4	0.08012763
147	0x3e2f7214	0.17133361
148	0x3d7c8329	0.06164852
149	0xbdab22ae	-0.08356224
150	0x3db8816f	0.090090625
151	0xbe34616c	-0.17615288
152	0x3e10677b	0.14101975
153	0x3e7ab089	0.24481405
154	0x3d41e1b4	0.047334388
155	0xbd470188	-0.048585445
156	0xbe476208	-0.1947099
157	0x3df36194	0.11883846
158	0xbe1ec48d	-0.15504666
159	0xbdd73e46	-0.105099246
160	0x3c9ad1e1	0.018898906
161	0xbd835f1a	-0.064146236
162	0x3e825e3d	0.25462523
163	0xbe126ad9	-0.14298572
164	0xbdbba9aa	-0.0916322
165	0xbe507dd1	-0.20360495
166	0x3e318712	0.17336681
167	0xbe1113fc	-0.1416778
168	0x3de2ba9b	0.110707484
169	0x3d568bc8	0.0523794
170	0xbe1498a2	-0.1451135
171	0x3e4424ab	0.19154613
172	0x3e3b3f42	0.1828585
173	0x3ceb74e9	0.02874227
174	0x3e0c6dea	0.13713804
175	0x3cf5aa4f	0.029988436
176	0x3c7adac3	0.015310946
177	0x3e233f3b	0.1594209
178	0x3e11deb2	0.14245108
179	0x3e0a043e	0.13478181
180	0xbe702605	-0.23452003
181	0xbbb1f0a9	-0.0054303003
182	0xbd79ee2e	-0.06101816
183	0x3e5e6750	0.21719098
184	0x3e5dc9d0	0.21659017
185	0x3e3111b0	0.17291903
186	0x3db964d9	0.09052438
187	0x3d13e960	0.036111236
188	0x3cf576b4	0.029963829
189	0x3e2f89ce	0.17142412
190	0x3d0335ab	0.032033604
191	0x3e4a2467	0.19740449
192	0x3e50cce9	0.20390667
193	0xbe1310a7	-0.14361821
194	0xbc51e114	-0.01281001
195	0x3d93c449	0.07215173
196	0x3e493b5e	0.19651553
197	0x3df277b4	0.11839238
198	0xbe3171ad	-0.1732852
199	0xbd837a77	-0.06419843
200	0x3e943c7f	0.28952405
201	0x3ba94ef0	0.005166881
202	0x3e3a397a	0.18185988
203	0xbe23c526	-0.15993175
204	0xbdc6c223	-0.097049974
205	0xbe5ca743	-0.2154818
206	0xbcc9f77f	-0.024654148
207	0x3e310028	0.17285216
208	0x3ae6e9f5	0.0017617332
209	0xbe538b25	-0.20658548
210	0x3d8c9bd0	0.068656564
211	0x3d299ae4	0.04140748
212	0xbd07b6a8	-0.03313318
213	0x3e8fb5aa	0.28068286
214	0x3df30aef	0.1186732
215	0xbda31425	-0.07962827
216	0xbd9a6469	-0.07538683
217	0x3d3305ce	0.043706708
218	0xbdc27bea	-0.09496291
219	0x3dddc12c	0.1082786
220	0x3d325269	0.043535624
221	0x3ce46051	0.027877958
222	0x3d61dc7e	0.05514192
223	0x3d813f7a	0.06310935
224	0xbe153581	-0.14571191
225	0x3e1124d8	0.14174211
226	0x3e0d7d71	0.13817383
227	0xbe4eeda2	-0.20207837
228	0x3e63c978	0.22244823
229	0x3d91f1b7	0.071261816
230	0x3e81cc8f	0.25351378
231	0xbe3ba8fe	-0.18326184
232	0x3df39548	0.118937075
233	0xbe58ee6e	-0.21184704
234	0x3c6c4858	0.014421545
235	0xbe0074d4	-0.12544566
236	0x3dd08ee5	0.10183505
237	0x3e033ab8	0.12815368
238	0xbd30e882	-0.043190487
239	0x3dfd1e86	0.123593375
240	0x3e595250	0.21222806
241	0xbe07a323	-0.13245825
242	0x3d9efbeb	0.07762893
243	0x3debf6f3	0.11521711
244	0x3d56181f	0.052269097
245	0x3e4edcad	0.20201369
246	0x3e556e22	0.20842794
247	0xbe4a2759	-0.19741572
248	0x3da58022	0.0808108
249	0x3b6efd4b	0.0036466892
250	0x3e52a7d0	0.20571828
251	0x3b7c39f4	0.0038486691
252	0xbd01ee36	-0.031721316
253	0x3e87b253	0.26503238
254	0x3de5b4e9	0.112161465
255	0xbdbe8d3f	-0.09304284

shared_layers.8.bias f4 [32]
0	0xb9e4c3e4	-0.000436335
1	0xba5e296e	-0.00084748014
2	0xb8cadc76	-9.673175e-05
3	0x39e50b2b	0.00043686604
4	0xb979a544	-0.00023808057
5	0xba03fed8	-0.0005035228
6	0x3a1f7450	0.00060827006
7	0xb90695df	-0.00012835067
8	0xb924dfdd	-0.00015723654
9	0x38fb5aa5	0.000119854965
10	0xb880acf2	-6.135729e-05
11	0xb9a0bc1e	-0.00030657736
12	0xb9b81814	-0.00035113154
13	0xb9aeaeac	-0.00033318007
14	0xb8d0059d	-9.9192584e-05
15	0xb9954a38	-0.00028474792
16	0xb9a3546b	-0.0003115268
17	0x39163bcc	0.00014327391
18	0x39af2a91	0.00033410316
19	0xba7b0e7d	-0.0009577049
20	0x3a101936	0.0005496921
21	0x3a3f8c1f	0.00073069514
22	0x3a8658b5	0.0010249825
23	0x397839a1	0.00023672591
24	0x3a144ac5	0.00056568935
25	0x3a2a585e	0.0006498153
26	0xb90b0aa9	-0.00013260044
27	0x3a0d45e8	0.000538914
28	0xba9a8581	-0.0011789055
29	0x399a2eeb	0.00029408126
30	0x39d0365e	0.00039713358
31	0x3a6b9dfa	0.0008988079

shared_layers.9.weight f4 [32]
0	0x3f8c9774	1.098372
1	0x3f78cc42	0.9718667
2	0x3f70c235	0.94046336
3	0x3f676229	0.90384156
4	0x3f826650	1.0187473
5	0x3f8be0c4	1.0927968
6	0x3f8e4968	1.1116152
7	0x3f8d9746	1.106179
8	0x3f6b842c	0.91998553
9	0x3f73d7b2	0.95251
10	0x3f685fa7	0.90770954
11	0x3f8f5702	1.1198428
12	0x3f769418	0.96319723
13	0x3f727b6a	0.94719565
14	0x3f71e0bf	0.9448356
15	0x3f6eccd8	0.93281317
16	0x3f73da5e	0.95255077
17	0x3f6d8c86	0.92792547
18	0x3f6e73d5	0.93145496
19	0x3f77f138	0.96852446
20	0x3f698ffd	0.91235334
21	0x3f741f32	0.953601
22	0x3f6fe460	0.9370785
23	0x3f91c1b5	1.138724
24	0x3f8ca1ce	1.0986879
25	0x3f89606d	1.0732552
26	0x3f89e0b2	1.0771697
27	0x3f7417ed	0.9534901
28	0x3f8e31ee	1.1108987
29	0x3f86cfbb	1.0532144
30	0x3f815b9d	1.0106083
31	0x3f6a12a3	0.9143469

shared_layers.9.bias f4 [32]
0	0x3e0836ff	0.1330223
1	0xbcec1772	-0.028819773
2	0x3cdfea31	0.02733335
3	0xbdccbcbb	-0.09996935
4	0x3d722099	0.05911312
5	0x3df7d82f	0.121017806
6	0x3e12d051	0.14337279
7	0x3e12c92a	0.1433455
8	0xbda88ca9	-0.08229954
9	0xbd021049	-0.031753812
10	0xbdb37296	-0.0876209
11	0x3dfd6013	0.1237184
12	0xbd030e38	-0.031995982
13	0xbd7753fc	-0.060382828
14	0xbcf07afe	-0.029355522
15	0xbd740cdc	-0.059582576
16	0xbd3bbce0	-0.045834422
17	0xbd4b3c85	-0.049618263
18	0xbd65ff1b	-0.05615149
19	0xbd0bc7fa	-0.03412626
20	0xbd94c5f8	-0.07264322
21	0xbd6ae0e0	-0.057343364
22	0x3b0f4298	0.0021859761
23	0x3e1d5e36	0.1536797
24	0x3e012a8e	0.1261389
25	0x3dcf4bb1	0.10121859
26	0x3e104e0f	0.14092277
27	0xbd66cbbf	-0.05634665
28	0x3df33d41	0.11876918
29	0x3dea6325	0.114446916
30	0x3ddd5b02	0.10808374
31	0xbd40993c	-0.047021136

shared_layers.9.running_mean f4 [32]
0	0x3f8c76eb	1.0973791
1	0x3eab9ccd	0.33518067
2	0x3efe7120	0.49695683
3	0x3f4dce6a	0.8039309
4	0xbed654ae	-0.4186148
5	0x3ec96bca	0.3934005
6	0xbe676883	-0.22598462
7	0xbf4299f3	-0.7601616
8	0x3deb12d4	0.114782006
9	0xbed594ac	-0.4171499
10	0x3ea78708	0.32720208
11	0xbd446fa5	-0.047958035
12	0xbf0cc574	-0.5498879
13	0x3f3c63ee	0.7358998
14	0xbd77a34a	-0.06045846
15	0x3e43c7e2	0.19119218
16	0xbd59c5ac	-0.05316703
17	0xbe769668	-0.24080813
18	0xbe1350e4	-0.14386326
19	0xbf20373c	-0.6258428
20	0xbdf076ed	-0.11741433
21	0x3d418480	0.047245502
22	0xbf2925bc	-0.66073203
23	0xbe36b687	-0.17843066
24	0x3dd1045a	0.10205908
25	0xbf033654	-0.51254773
26	0xbe9623f8	-0.29324317
27	0xbf0aa1ea	-0.5415331
28	0xbf26ae2e	-0.6510953
29	0x3e3f7254	0.18695956
30	0xbe94a4f1	-0.2903209
31	0x3f2349cc	0.6378448

shared_layers.9.running_var f4 [32]
0	0x3ff5bba6	1.9197891
1	0x3fb99e99	1.4501525
2	0x3facd9ed	1.3504006
3	0x3fab3ef3	1.3378586
4	0x3f99b397	1.2007931
5	0x3fa64fc2	1.299309
6	0x3fa7ae1b	1.3100008
7	0x3f540820	0.828249
8	0x3f83b6ae	1.0290124
9	0x3f4e5bb6	0.8060869
10	0x3f265740	0.6497688
11	0x3fe358cd	1.7761475
12	0x3fb793fd	1.4342037
13	0x3fbdd57b	1.4830774
14	0x3f8b0887	1.0861977
15	0x3f932644	1.1496053
16	0x3fd28f28	1.6449938
17	0x3f6044e4	0.8760512
18	0x3fc49e1d	1.5360752
19	0x3f9b1cf8	1.2118216
20	0x3fabf651	1.3434545
21	0x3f755c0b	0.9584357
22	0x3f587961	0.8456021
23	0x3f9e3dfa	1.2362664
24	0x3f8ebd9a	1.1151612
25	0x3f8735c9	1.0563289
26	0x3fc9f690	1.577837
27	0x3fc74e9b	1.5570863
28	0x3fc54b5a	1.541362
29	0x3fb84cee	1.4398477
30	0x3f890b9d	1.0706669
31	0x3f997f4c	1.1991973

algorithm_heads.0.weight f4 [1, 32]
0	0xbebf7722	-0.3739558
1	0xbdc7581b	-0.09733602
2	0xbe963af7	-0.29341862
3	0xbda9a767	-0.082838826
4	0x3e340682	0.17580608
5	0xbed599eb	-0.41718993
6	0x3d733047	0.059372213
7	0xbe1a89f6	-0.1509169
8	0xbe4a7c9e	-0.197741
9	0x3e83b9aa	0.25727588
10	0x3d1967b6	0.037452422
11	0x3ee133bd	0.43984786
12	0x3e310b0a	0.17289367
13	0xba905fed	-0.0011014916
14	0xbe5d0133	-0.21582489
15	0x3db75dba	0.08953424
16	0xbd32f158	-0.043687195
17	0xbd7042a6	-0.05865731
18	0xbd856539	-0.06513447
19	0x3e94e987	0.29084417
20	0x3e9751e4	0.29554665
21	0xbe8db7f7	-0.27679417
22	0xbe5f7b71	-0.21824433
23	0xbe5ae747	-0.21377288
24	0x3e8dea76	0.27717942
25	0x3d3f172b	0.046652954
26	0x3ef732d5	0.4828097
27	0xbe55cc91	-0.20878817
28	0x3e12ecf4	0.14348203
29	0xbece28fd	-0.40265647
30	0x3d1f0985	0.038827438
31	0xbdd5ea1b	-0.10445043
