src/automl/meta_model.pth (torch, 344437 bytes, 102 tensors)

weight f4 [256, 31]
000000 f5 d0 64 3d 47 54 52 be 45 c6 c9 bd 57 38 ae be
       0.05586334 -0.20539962 -0.0985227 -0.3402736
000010 51 58 9e 3e 33 ea a8 be 8f aa f7 3a 52 5b c1 bc
       0.30926755 -0.3299118 0.0018895435 -0.023603115
000020 b1 80 f4 3b 20 c5 97 bd f2 09 ce be 3f 42 a2 3e
       0.0074616303 -0.074106455 -0.40241963 0.31691167
000030 d7 3f 4c be 56 e9 11 be c4 e5 ba 3e 66 ed 1f be
       -0.19946228 -0.14249167 0.36503422 -0.15617904
000040 3a 07 31 bd a0 76 35 be 27 05 f5 bd b0 74 53 3b
       -0.043219782 -0.17721033 -0.11963873 0.0032265596
000050 03 18 96 bc 89 72 f1 be 54 fb 89 bd 56 cd 08 3e
       -0.018321997 -0.47157696 -0.0673739 0.1335958
000060 2c b6 a2 be ca b7 01 3d 63 2d bf be 4d 1d b7 bd
       -0.3177961 0.031669416 -0.37339315 -0.089411356
000070 62 ef a0 3c 59 ba 7f be 4e a9 80 3e 4e 62 33 be
       0.019645397 -0.2497343 0.2512917 -0.17517969
000080 85 9c 16 be 9d 1e ed 3d e3 23 55 be a5 30 0e be
       -0.14708145 0.11578105 -0.20814471 -0.13885744
000090 4b 9d 7d be 2a ef c9 be 4f 15 86 3e 2a ea 59 be
       -0.24767034 -0.3944028 0.26188132 -0.21280733
0000a0 db dc 93 3e d1 6f 4e bd 42 3d 47 3e b6 d1 b7 bd
       0.28879437 -0.050399605 0.19456962 -0.08975546
0000b0 46 6b 83 be 87 a5 8d be a1 7b 73 3e 16 60 54 3e
       -0.2566778 -0.2766535 0.2377763 0.20739779
0000c0 89 5c 80 be cd 24 87 be d1 23 ef 3e bf a3 b0 be
       -0.250706 -0.26395264 0.46707013 -0.34499928
0000d0 61 17 9c 3a d6 99 aa 3e 30 27 c7 3d 29 61 06 be
       0.0011908823 0.33320493 0.09724271 -0.13123001
0000e0 37 1c aa 3e 50 ac c6 3e 1c f6 a7 3d 0f f9 fd 3d
       0.3322465 0.3880334 0.082012385 0.1240102
0000f0 b4 ab 6b be 2f 15 c9 3e b6 06 31 3d 19 53 77 3e
       -0.23014718 0.39273974 0.04321929 0.24152793
000100 9e ae a1 be 5c d2 32 bd 1b 27 2b 3e db 06 05 be
       -0.31578535 -0.043657646 0.16714136 -0.12990896
000110 ed 2c e5 3d 48 38 c0 bd cf 98 f2 bd c6 56 3c 3e
       0.111902095 -0.09385735 -0.11845552 0.18392476
000120 a5 19 35 3b b9 7d 78 3e 6d 6e 54 3e 5e 2e a9 3e
       0.0027633694 0.2426671 0.20745249 0.33043188
000130 74 ff 05 be f7 f0 d3 be 40 64 a4 3e fc cb 16 be
       -0.13085729 -0.4139478 0.32107735 -0.14726251
000140 fa 73 03 be 85 c0 60 3e 08 e2 19 be cb cd b3 be
       -0.1283721 0.2194844 -0.1502763 -0.35117945
000150 cb 51 bc 39 0a 2a 89 be 06 60 07 3e a4 bf a2 be
       0.00035919095 -0.26789886 0.13220224 -0.31786835
000160 21 a9 80 3e 00 1c 91 3e d7 03 ba 3b ea d3 68 3e
       0.25129035 0.28341675 0.0056767273 0.22737089
000170 36 50 dc 3e 7d 63 95 3e ba c4 80 3d 69 69 87 be
       0.43029946 0.29177466 0.062875226 -0.2644761
000180 7f 9c ac bd bd 1b c3 be 30 e4 b1 bd e4 b4 60 3e
       -0.08428287 -0.381071 -0.086861014 0.21944004
000190 20 e9 4c 3e 1b 78 8a be dc 67 d5 bd 88 cd a2 be
       0.20010805 -0.27044758 -0.104202 -0.31797433
0001a0 55 43 80 3e f9 c1 a9 bd d9 47 95 3d 6d c9 af 3d
       0.2505137 -0.082889505 0.072890945 0.08583341
0001b0 e2 43 d8 be d7 a6 d0 3e d8 a7 6f be e2 26 4b 3d
       -0.4223929 0.4075229 -0.23403871 0.04959763
0001c0 0f 81 6d 3e c2 73 ce 3e 1c 26 11 bd 9d 8e 44 3e
       0.23193763 0.4032269 -0.035436735 0.19195028
0001d0 fa 9b a9 be 62 2e c2 3e 40 71 8d be eb c5 63 3d
       -0.33126813 0.37926012 -0.27625465 0.05560867
0001e0 36 83 1f be f7 7d 5e 3e 76 3e ad be ef aa 8b 3d
       -0.15577397 0.2172774 -0.33836716 0.06819712
0001f0 9e f6 89 3c 9d b1 03 be 60 90 9b 3e f4 0a 5b 3d
       0.016841229 -0.12860723 0.30383587 0.053477243
000200 69 79 4f be dd dd 82 3d 2b 4a 73 3e 4a 1a 59 3e
       -0.20261158 0.06389973 0.23758762 0.21201435
000210 f7 18 8c bd 7b 62 0d be ba 20 66 3e ed ad c4 3e
       -0.06840699 -0.13807099 0.22473422 0.38413945
000220 53 c9 82 be 79 ff 77 be 2f 19 93 be 7e 4b 58 be
       -0.25544223 -0.24218549 -0.2873015 -0.21122548
000230 96 15 bd bd 74 68 51 3e 69 f2 b6 3e e2 ef 8f be
       -0.09232633 0.20450002 0.3573182 -0.28112704
000240 65 8a cc be c0 af a6 bc e7 94 24 3e 69 11 6e 3e
       -0.39949337 -0.020347476 0.16072427 0.23248829
000250 a0 b4 96 be 84 5f 0f be 3a c0 3a 3e e2 73 91 bd
       -0.2943468 -0.1400128 0.18237391 -0.07102181
000260 0c ad be 3e 18 b9 b3 be 57 d6 f6 3d 4b 61 a1 3b
       0.372414 -0.35102153 0.12052601 0.0049249283
000270 21 e9 00 3e 7d 20 92 3e 4b 0f e8 3d 34 60 b0 be
       0.12588932 0.28540412 0.11331042 -0.34448397
000280 65 e5 8a 3e 76 17 ad bd fe 99 cd bd 9f c2 e6 bd
       0.2712814 -0.084517404 -0.10039137 -0.1126759
000290 59 ca ac 3b 72 9a f2 bd 4b fa 77 3d 2f a4 4e 3e
       0.005273145 -0.11845864 0.060541432 0.20179819
0002a0 4c 84 99 3e 9a 6e c4 be fb 0e 84 be 77 6d 51 be
       0.29983747 -0.38365632 -0.2579268 -0.20451914
0002b0 ef af 82 be 99 3d 18 3e 55 1d 58 be f8 ae 96 be
       -0.25524852 0.14867248 -0.2110494 -0.29430366
0002c0 08 a7 27 3e 1e ff 98 be b2 c0 48 3e d3 48 97 3e
       0.16372311 -0.2988214 0.19604757 0.29547748
0002d0 d7 01 d9 be d8 4b 09 be 14 84 87 3e 04 76 8c be
       -0.42384216 -0.13407838 0.26467955 -0.2743379
0002e0 71 cc 5a 3e b1 07 46 3e 21 53 19 3e 2c 3b 15 3e
       0.2136705 0.19338872 0.14973117 0.14573354
0002f0 3f 29 a7 be 55 5b 14 be b0 fe 51 bd b0 6a 08 3e
       -0.32648656 -0.14487965 -0.05126828 0.13321948
000300 e2 d1 83 be 1f 60 69 be 44 05 a5 3d cc 9e 85 3d
       -0.25746065 -0.22790574 0.08057645 0.06524429
000310 49 c1 45 be b1 8d 87 3d f9 1f 3e 3e e4 b3 e5 3c
       -0.19312014 0.06618822 0.18566884 0.02803988
000320 97 bc c4 bd 03 76 32 3e be e9 77 be 4e c1 2a bc
       -0.09606283 0.1742783 -0.2421026 -0.010422064
000330 ce 6d 24 3b 32 63 05 3d 99 4c 0f bd 07 d5 49 be
       0.0025089863 0.032565303 -0.03498516 -0.1971017
000340 bf 86 aa 3d c1 c9 61 bd 0a e9 64 bd b3 28 28 3e
       0.08326482 -0.05512405 -0.055886306 0.16421776
000350 f8 48 a4 3e 2e d2 ce bc 44 6c 9f bd 13 37 b9 be
       0.3208692 -0.025246706 -0.07784322 -0.3617483
000360 56 ef ac be eb ed fb bd 49 01 9e be 3f 3e dd 3d
       -0.3377635 -0.123012386 -0.30860355 0.10802888
000370 75 85 3d 3e 64 f4 f1 3d 68 cf 4f be 42 bb 10 3e
       0.18507941 0.11814192 -0.20293963 0.14133933
000380 8a eb 27 be ea 36 14 3e 21 1e 00 be 0b d4 73 3e
       -0.16398445 0.14474073 -0.12511493 0.23811357
000390 08 f4 5c be a9 c5 b3 3e f6 ea 09 3e 79 e3 99 3e
       -0.21577466 0.3511174 0.13468537 0.3005636
0003a0 d5 c1 06 be a1 30 df be 3f 07 99 3d 77 ad b4 3d
       -0.13159879 -0.43591788 0.07472085 0.08822148
0003b0 53 47 d9 3e 8c 85 ee bb ac 43 9b be fc f4 b7 3d
       0.4243723 -0.0072791036 -0.30325067 0.08982274
0003c0 d0 49 5d bc af f7 ea be df 60 9d 3e 19 e9 2b 3e
       -0.013506368 -0.45892093 0.3073797 0.16788138
0003d0 62 72 a2 3c e7 f6 96 3e 69 99 7c 3e bd 27 33 be
       0.019829933 0.29485247 0.24667896 -0.17495628
0003e0 bf a8 f5 bc 18 dd f3 be 14 6c a7 be a5 88 4f 3e
       -0.029987691 -0.4762962 -0.32699645 0.2026697
0003f0 b6 bb 6b 3d 56 1c e6 be 3b 41 7e 3e 94 18 69 be
       0.057552062 -0.44943494 0.24829571 -0.22763282

bias f4 [256]
000000 69 4a 31 3a 7f 21 8d ba de 40 55 ba 81 87 3c 3a
       0.0006763102 -0.0010767429 -0.0008134971 0.00071918225
000010 71 64 b2 39 73 f1 f0 b9 5f 4b 31 3a 25 4b a6 b9
       0.0003402564 -0.0004595626 0.00067632453 -0.00031717974
000020 f2 6b b5 b9 10 97 c0 b9 d6 88 d7 b9 32 7d 1f ba
       -0.00034603436 -0.00036733644 -0.00041109946 -0.0006084024
000030 a9 aa 1d ba b3 51 10 3a cc 63 a5 b9 85 8f eb b9
       -0.0006014505 0.0005505338 -0.00031545607 -0.00044929623
000040 3d 49 4b 3a 09 6f 13 3a bf ef f1 b9 13 ac dd b9
       0.0007754749 0.00056241505 -0.00046145727 -0.0004228061
000050 cf d3 17 3a 73 f8 a3 3a 05 59 7d 37 7d 0d 11 3a
       0.0005791755 0.0012509957 1.5100702e-05 0.0005533321
000060 ab 5e 89 ba 64 5b 81 b9 c2 85 23 b9 c1 ce d0 39
       -0.0010480484 -0.0002467289 -0.0001559472 0.00039826895
000070 b0 75 f9 38 b5 31 98 3a b5 24 f3 39 42 1f 12 36
       0.00011895166 0.0011611494 0.0004637592 2.177389e-06
000080 50 ba 3f ba 9b 4e df b9 c0 0e 72 38 fa 61 41 3a
       -0.00073138345 -0.0004259244 5.7711033e-05 0.00073769654
000090 e4 b8 8a b7 11 81 c5 b8 e0 30 34 b8 17 52 fd 38
       -1.6536978e-05 -9.4177325e-05 -4.2960863e-05 0.000120792705
0000a0 e8 27 d4 b9 dc 75 4d b9 a6 e1 7d b9 ea 88 10 ba
       -0.00040465523 -0.0001959423 -0.00024212021 -0.0005513566
0000b0 26 29 b5 39 24 e8 31 ba 03 d4 af 38 4c eb 68 39
       0.00034553668 -0.0006786606 8.3841405e-05 0.00022212899
0000c0 71 85 cd ba 57 30 ba b9 01 b9 be b9 8e 26 8c ba
       -0.0015680027 -0.000355127 -0.00036377463 -0.0010692643
0000d0 16 84 99 39 ad d3 5d b9 40 a7 90 b7 58 58 3f 39
       0.00029280846 -0.00021155058 -1.724402e-05 0.0001824809
0000e0 42 4b c7 39 54 1c 84 39 a4 11 08 3a c1 b8 60 b9
       0.0003801231 0.00025198108 0.0005190617 -0.00021431131
0000f0 eb 36 1a ba 69 99 03 ba 68 fd fe b9 ac 55 d3 b9
       -0.0005882817 -0.00050201133 -0.00048635458 -0.00040308887
000100 48 1c 12 ba 55 65 8f 38 4c 31 8b 37 17 38 a2 b9
       -0.0005573672 6.837646e-05 1.6593047e-05 -0.00030940838
000110 f1 74 32 39 eb 6f 63 ba c0 8c 25 39 a7 97 9f b9
       0.00017018967 -0.000867604 0.0001578806 -0.00030439833
000120 88 d0 97 b9 42 16 00 ba 6a be 45 b7 c4 5a 6b b8
       -0.00028956332 -0.0004886129 -1.1786449e-05 -5.6112898e-05
000130 ee bd 80 39 1a ed 21 3a bd 26 2f b9 6e 15 b2 ba
       0.0002455557 0.00061769935 -0.00016703732 -0.0013586709
000140 f4 3b c5 39 a2 17 77 ba 4d b7 90 ba fb 11 17 3a
       0.00037619437 -0.0009425824 -0.0011040956 0.0005762872
000150 9a 69 aa ba 08 ef fa 38 3f d2 40 ba 46 c3 a7 38
       -0.0013001442 0.00011965452 -0.0007355548 7.999553e-05
000160 af 8e 25 3a cc 09 70 39 14 ca d2 b9 40 5e cd 39
       0.0006315512 0.00022891833 -0.0004020488 0.0003917087
000170 1c 60 74 ba 73 bd 72 b8 7b 49 2f b9 94 8a 7b 3a
       -0.0009322183 -5.7873734e-05 -0.00016716674 0.000959554
000180 fd 85 05 3a ae 93 ac 39 6c 84 9e 39 cf 72 0a 3a
       0.0005093513 0.00032916426 0.0003023477 0.000528139
000190 df 07 01 39 da 33 63 3a c4 07 a1 39 2f ef 8a 39
       0.00012305331 0.0008667089 0.000307141 0.00026499617
0001a0 3d b7 24 39 b6 38 91 b9 54 8b 11 b9 6f d5 26 3a
       0.0001570852 -0.00027698808 -0.00013880181 0.00063642015
0001b0 12 74 2e ba c2 32 8f 39 1f 53 fd ba 74 3a 9c ba
       -0.0006654869 0.00027312903 -0.001932714 -0.0011919276
0001c0 53 99 56 38 78 66 24 39 22 98 0a ba 84 ed e4 b9
       5.116437e-05 0.00015678431 -0.0005286952 -0.00043664512
0001d0 38 2d 08 3a f2 bd fc ba 88 eb 89 39 f4 51 b8 39
       0.00051947264 -0.0019282682 0.0002630616 0.00035156275
0001e0 5e b1 1a b9 1b 08 62 3a 13 09 b0 b7 13 3c da b9
       -0.00014752659 0.00086224236 -2.098506e-05 -0.0004162496
0001f0 3d 54 4e b9 27 40 09 3a de 27 00 3a ed c7 84 39
       -0.00019677072 0.00052356947 0.0004888753 0.00025325958
000200 50 fb a2 39 fd 02 ca b8 e3 7e f4 b8 c0 c9 fb 3a
       0.0003108629 -9.632667e-05 -0.00011658461 0.0019209906
000210 2d cb 62 39 9c 9a 77 3a bd e7 d2 39 da e6 71 b9
       0.00021628728 0.0009445341 0.0004022698 -0.0002306955
000220 9d 63 b1 b9 a0 50 65 ba 5b 25 b1 b9 f2 05 8f b9
       -0.00033834288 -0.0008747671 -0.00033787903 -0.00027279515
000230 c3 68 b9 38 ef d9 86 3a a2 ff 8e ba e4 59 35 ba
       8.841001e-05 0.0010288338 -0.0010909925 -0.0006917997
000240 db 20 d2 39 fd 2b 9b b9 96 34 c9 39 72 49 30 ba
       0.000400788 -0.00029596678 0.00038376887 -0.00067248114
000250 7e 3e 93 39 dd 12 5d ba 78 d9 da b8 02 5e 3a ba
       0.00028084585 -0.0008433292 -0.00010435557 -0.0007109345
000260 7c 6a ab ba d2 fb 9b b9 12 33 97 b9 a2 3a 96 38
       -0.0013078 -0.00029751525 -0.00028839015 7.1634786e-05
000270 79 fa de b9 aa 77 a0 39 ef 14 b1 3a c3 c1 6e ba
       -0.00042529756 0.00030606735 0.0013510267 -0.0009107852
000280 c2 3e a1 b9 46 aa 01 ba 00 d0 29 3a a2 62 5a b9
       -0.0003075507 -0.0004946332 0.0006477833 -0.00020826844
000290 95 42 94 3a 7c 83 68 3a a4 73 05 ba ea e9 9c 36
       0.0011311347 0.00088696904 -0.0005090779 4.6763935e-06
0002a0 5a a6 f5 ba 7d 14 04 3a 9d d3 78 ba ca 03 05 3a
       -0.0018741593 0.00050384534 -0.0009491982 0.0005074112
0002b0 8f 09 32 3a 27 47 e4 b9 35 d2 01 3b 9e 9b ca 39
       0.00067915855 -0.00043540561 0.001980913 0.00038644386
0002c0 46 0d c2 ba 53 d0 7e 37 0d fe 1b ba 8d 3f 19 39
       -0.0014804981 1.5188084e-05 -0.0005950637 0.00014614892
0002d0 24 b3 4d 38 f6 88 2b 3a 26 3c be 39 28 c3 8b b8
       4.9042646e-05 0.0006543541 0.00036284438 -6.664387e-05
0002e0 4a 70 fa b9 4e aa a8 b9 de 26 5e b9 6f 68 6e 3a
       -0.00047767378 -0.00032170344 -0.00021186049 0.00090945413
0002f0 89 c2 3b 39 c6 87 88 39 3b f7 d6 3a 54 d3 71 b8
       0.0001790618 0.000260411 0.0016400585 -5.7655692e-05
000300 1a e3 50 39 6d 62 e0 b9 88 3a 5d 37 2a ea bd 3a
       0.00019921028 -0.00042797942 1.3186254e-05 0.0014489342
000310 29 06 1c ba 94 49 b3 ba 66 80 c8 b9 c3 3f 5c ba
       -0.00059518457 -0.0013678544 -0.00038242637 -0.0008401835
000320 7c 43 1b 39 40 80 57 b8 e2 95 96 38 6d a8 a0 38
       0.00014807092 -5.1379437e-05 7.180475e-05 7.660766e-05
000330 9f c1 78 39 7e fc 47 3a 8c a6 70 3a 74 84 e7 39
       0.00023723253 0.0007628872 0.0009180091 0.0004415844
000340 1f fd a1 3a 99 3e 50 37 14 0d 0b bb b3 4f 3f b9
       0.0012358761 1.2412341e-05 -0.0021217512 -0.0001824487
000350 cf d2 64 ba b1 46 8d ba eb 78 0b 39 25 88 ec b7
       -0.00087289227 -0.0010778514 0.00013301118 -2.819679e-05
000360 37 4a 9b 3a 9d 6c 54 ba d6 8d 5f b9 e8 ee a0 b9
       0.0011847679 -0.0008103343 -0.00021319775 -0.00030695577
000370 c3 96 27 3a ac 25 12 b8 e8 b6 ed 38 e0 9e 14 ba
       0.00063930097 -3.4844197e-05 0.000113351096 -0.0005669426
000380 14 86 1c ba 49 3f 48 3a 26 54 43 39 42 13 45 39
       -0.0005970907 0.0007638825 0.00018627997 0.00018794558
000390 67 9c af ba ec 94 ab 39 48 2a af 3a b1 72 81 ba
       -0.0013398052 0.00032726617 0.0013364041 -0.00098761
0003a0 2b b5 82 3a f1 34 46 ba a2 d4 6a b9 0a a3 f2 39
       0.0009972205 -0.00075609895 -0.00022395191 0.0004627931
0003b0 09 e0 c9 b9 00 ba 27 ba 17 f1 39 b9 ee 7c 45 3a
       -0.00038504627 -0.00063982606 -0.00017732788 0.00075335696
0003c0 ee 0d 0c ba 8f e0 94 b9 b2 43 2c 37 f9 6f bc 39
       -0.0005342652 -0.0002839607 1.026776e-05 0.0003594158
0003d0 74 5a 00 ba 14 5f 54 b9 ad 3c 5b ba d9 14 66 3a
       -0.0004896291 -0.00020253315 -0.00083632284 0.000877691
0003e0 3b 57 8b b9 a3 27 d4 b8 24 22 a6 b9 25 e9 74 39
       -0.00026577138 -0.00010116331 -0.00031687424 0.00023356506
0003f0 3b c3 b8 39 c6 b9 a9 39 3c a4 6c ba d7 eb 3e 38
       0.00035240673 0.00032372604 -0.00090271584 4.5519173e-05

weight f4 [256]
000000 24 ea 6f 3f aa a1 65 3f 6f df 7e 3f a6 31 62 3f
       0.93716645 0.89699805 0.9955968 0.8835701
000010 a3 29 6e 3f da b4 5a 3f 70 9e 6c 3f ff 90 5b 3f
       0.9303228 0.8543221 0.92429256 0.8576812
000020 0f 4c 52 3f 5c 04 5b 3f ad 57 5d 3f 07 73 57 3f
       0.82147306 0.85553527 0.8646191 0.8415989
000030 5a a8 83 3f a6 c9 53 3f 11 76 58 3f 3b 73 56 3f
       1.0285752 0.82729566 0.84555155 0.8376958
000040 38 45 6c 3f b6 a8 59 3f 86 3b 6c 3f 30 ec 5d 3f
       0.9229312 0.8502306 0.92278326 0.8668852
000050 50 7e 64 3f 3e 48 50 3f 39 a3 58 3f 29 39 53 3f
       0.8925524 0.8136023 0.8462406 0.82509094
000060 cb 05 63 3f 9b 75 4e 3f bc 84 8d 3f c3 b5 6d 3f
       0.88680714 0.806482 1.1056132 0.9285547
000070 35 f5 5d 3f f6 95 71 3f 93 ae 67 3f 52 6c 76 3f
       0.8670228 0.9436945 0.90500754 0.96259034
000080 df 8b 80 3f 1d 30 5c 3f 83 b1 56 3f de 04 43 3f
       1.0042685 0.86010915 0.8386461 0.761793
000090 d9 99 6b 3f 5d 77 74 3f c8 dd 81 3f 8c a7 76 3f
       0.9203163 0.95494634 1.0145807 0.96349406
0000a0 d1 17 67 3f 1e 27 76 3f ec b4 75 3f 52 19 64 3f
       0.90270716 0.9615344 0.9597919 0.89101136
0000b0 57 77 57 3f be 40 59 3f 24 a8 5b 3f e6 31 60 3f
       0.84166473 0.84864414 0.8580344 0.8757614
0000c0 d6 25 5d 3f aa 68 59 3f a8 83 5e 3f cb 64 57 3f
       0.8638586 0.8492533 0.8691964 0.8413817
0000d0 ca 3e 44 3f 94 34 61 3f 9a 44 59 3f 7d ce 4d 3f
       0.7665831 0.8797085 0.848703 0.803932
0000e0 54 83 47 3f 70 67 61 3f 7b c9 50 3f 62 a0 60 3f
       0.77934766 0.8804846 0.81557435 0.87744725
0000f0 81 04 7c 3f c8 f5 6f 3f 1a 65 60 3f ee c2 6b 3f
       0.9844437 0.9373441 0.8765427 0.92094314
000100 26 fa 53 3f 0d c4 63 3f 71 aa 73 3f 8a e7 7d 3f
       0.8280357 0.88971025 0.9518195 0.99181426
000110 ff 3e 80 3f 17 f9 81 3f 37 b1 66 3f d6 65 60 3f
       1.0019225 1.0154141 0.9011416 0.8765539
000120 eb 32 63 3f dd ad 76 3f 34 31 57 3f 6c 9b 5b 3f
       0.8874957 0.96359044 0.84059453 0.8578403
000130 a0 92 64 3f 68 85 82 3f f8 62 7a 3f 7e 40 7d 3f
       0.8928623 1.0196962 0.97807264 0.9892653
000140 ec 34 5c 3f 12 fd 6b 3f ae 7b 82 3f 17 ac 5c 3f
       0.8601825 0.9218303 1.0193994 0.8620009
000150 48 9f 52 3f 79 fa 65 3f 38 ad 76 3f 83 d0 6a 3f
       0.82274294 0.89835316 0.9635806 0.91724414
000160 bf 1a 53 3f b0 a3 6e 3f cc 93 71 3f 2b 15 5f 3f
       0.82462686 0.9321852 0.94366145 0.87141675
000170 fb 10 5f 3f ef ae 6d 3f 1f 60 75 3f 1a 4c 74 3f
       0.87135285 0.9284505 0.95849794 0.9542862
000180 5d a8 58 3f 10 24 59 3f 68 91 72 3f ce 5e 6d 3f
       0.846319 0.8482065 0.9475312 0.92722785
000190 e7 57 5d 3f 6f af 6b 3f b2 3b 5e 3f d4 80 68 3f
       0.86462253 0.92064565 0.8680984 0.90821576
0001a0 06 e7 72 3f 9e c5 75 3f 58 7c 82 3f a7 9b 73 3f
       0.94883764 0.96004665 1.0194197 0.9515938
0001b0 2c a5 68 3f cb 69 4d 3f cc 2d 5f 3f 8a d0 85 3f
       0.9087703 0.8023955 0.87179255 1.0454266
0001c0 8a b3 55 3f 92 91 4e 3f 35 99 5a 3f 5d d3 82 3f
       0.8347708 0.8069087 0.85390025 1.0220753
0001d0 0a 19 62 3f 4b 5f 81 3f 6d 8f 63 3f e2 17 5f 3f
       0.88319457 1.0107206 0.88890725 0.8714582
0001e0 b8 ae 50 3f 44 cd 55 3f 93 05 6e 3f ee b6 61 3f
       0.815166 0.83516335 0.92977256 0.88169754
0001f0 14 8b 4a 3f 71 53 48 3f 5b 0e 5c 3f a7 f9 56 3f
       0.79118466 0.7825232 0.85959405 0.8397469
000200 b2 da 58 3f 06 22 73 3f b1 f7 69 3f 48 4b 4c 3f
       0.847087 0.9497379 0.9139357 0.7980237
000210 d3 56 52 3f 8c be 49 3f dc af 60 3f 90 5b 5c 3f
       0.82163733 0.78806376 0.8776834 0.86077213
000220 83 ca 5a 3f 28 8e 76 3f 10 92 7a 3f 14 e4 5a 3f
       0.8546526 0.96310663 0.97879124 0.8550427
000230 83 8c 5d 3f d7 75 46 3f 5c ca 71 3f fd 37 6a 3f
       0.8654253 0.7752356 0.944494 0.9149168
000240 fe b7 5a 3f a4 11 87 3f 6a be 71 3f c7 61 7d 3f
       0.85437 1.0552258 0.94431174 0.9897732
000250 12 96 5f 3f 5e 80 6d 3f e4 f0 84 3f b5 3b 71 3f
       0.87338364 0.92774 1.0386014 0.9423173
000260 9c f2 6e 3f f0 9f 77 3f 28 57 63 3f 21 6c 65 3f
       0.9333894 0.9672842 0.88804865 0.89618117
000270 d2 bb 67 3f 98 ee 5a 3f 81 f8 67 3f cf d7 68 3f
       0.90520966 0.85520315 0.9061356 0.909543
000280 90 ab 61 3f 3f ae 6a 3f 48 e3 5b 3f fd 7c 78 3f
       0.8815241 0.9167213 0.8589368 0.97065717
000290 6d 6d 5d 3f 12 31 60 3f 5c 5e 6d 3f e7 d1 54 3f
       0.86495095 0.87574875 0.92722106 0.83132786
0002a0 48 2f 8a 3f 00 c5 65 3f 5b 88 68 3f 66 11 60 3f
       1.0795679 0.89753723 0.9083306 0.8752655
0002b0 5c c4 71 3f 41 b3 67 3f b8 a7 6d 3f 8b 8c 77 3f
       0.94440246 0.90507895 0.92834044 0.96698827
0002c0 74 fd 77 3f 01 7e 59 3f b9 ea 47 3f 91 36 82 3f
       0.96871114 0.8495789 0.78092533 1.0172902
0002d0 a0 6a 64 3f bc 5f 5c 3f c1 d5 75 3f d7 75 61 3f
       0.89225197 0.8608358 0.9602929 0.88070434
0002e0 76 0c 83 3f 49 ae 61 3f 93 77 63 3f ce 4d 54 3f
       1.0238178 0.88156563 0.8885433 0.8293122
0002f0 d1 8c 57 3f 16 a7 5b 3f 24 59 52 3f ed a6 57 3f
       0.84199244 0.8580183 0.8216727 0.84239084
000300 9c 97 77 3f 25 e9 70 3f 5f 1d 6f 3f 98 55 65 3f
       0.9671571 0.9410575 0.9340419 0.8958373
000310 64 ca 51 3f 51 ca 6b 3f c6 e7 77 3f e8 34 65 3f
       0.8194945 0.92105585 0.96838033 0.89533854
000320 a6 d1 56 3f 06 0c 55 3f 46 07 68 3f ed 48 4d 3f
       0.8391365 0.8322147 0.906361 0.801894
000330 4a 9f 68 3f 1f 06 65 3f 39 3f 6c 3f 12 c6 52 3f
       0.90868056 0.89462465 0.9228397 0.8233348
000340 ea 96 73 3f 95 5d 54 3f f2 36 85 3f c9 26 7a 3f
       0.9515215 0.82955295 1.0407393 0.9771543
000350 50 9a 6e 3f 40 aa 73 3f f9 7c 7c 3f 8c 3d 5c 3f
       0.9320421 0.95181656 0.98628193 0.86031413
000360 fd cd 59 3f e5 23 54 3f 35 ea 82 3f 40 d3 6b 3f
       0.8507994 0.8286727 1.0227724 0.92119217
000370 5c 41 89 3f 65 27 5f 3f 3a 04 68 3f c6 28 78 3f
       1.0723071 0.87169486 0.9063145 0.96937215
000380 e4 f9 87 3f 67 1b 5e 3f f6 88 61 3f c5 32 69 3f
       1.0623136 0.8676056 0.8809961 0.91093093
000390 70 87 71 3f 6a 91 5a 3f f3 84 6d 3f 2f ed 5c 3f
       0.94347286 0.85378134 0.9278099 0.86299413
0003a0 4f fb 5c 3f d9 03 7d 3f 03 c7 73 3f 58 06 78 3f
       0.86320966 0.98833996 0.9522554 0.9688468
0003b0 e2 f4 54 3f 4f 1a 69 3f e8 5d 62 3f e5 c4 58 3f
       0.8318616 0.9105577 0.8842454 0.8467544
0003c0 8a ab 53 3f e0 f6 71 3f b4 66 4d 3f 39 ca 62 3f
       0.8268362 0.94517326 0.8023484 0.8858982
0003d0 27 54 65 3f 8f 8c 63 3f 98 bd 80 3f 0d 8c 6f 3f
       0.8958153 0.8888635 1.005786 0.93573076
0003e0 92 f3 66 3f fb 2e 72 3f 17 d8 8c 3f 9b d7 4a 3f
       0.9021541 0.94602937 1.1003445 0.7923524
0003f0 c3 b2 7b 3f 58 21 6a 3f 31 ec 6d 3f 12 04 73 3f
       0.98319644 0.9145713 0.92938524 0.94928086

bias f4 [256]
000000 17 94 a8 3c ba d1 15 bd 52 b2 0b 3d 44 92 85 bd
       0.020578427 -0.036576964 0.034105606 -0.065220386
000010 6a 4f 0d 3d f6 d6 97 bd 9f 84 37 bd 4f a0 b6 3b
       0.034499563 -0.074140474 -0.04480421 0.0055733095
000020 b0 2e 72 bd c1 2f 14 3c 6a 8a 95 bd 88 61 31 bd
       -0.059126556 0.009044589 -0.07301791 -0.043305904
000030 0d a6 c7 3d 2d 4c 12 bb 78 b3 bc bd ac f0 c1 bd
       0.097484685 -0.0022323236 -0.092139184 -0.09469733
000040 94 fd 52 3d 30 40 8e bc 3a 9f 0e bd c1 c5 f7 3c
       0.051511362 -0.017364591 -0.03481982 0.030245664
000050 09 47 eb 3d e8 47 41 bd 30 50 4e bc 7c fe e6 bc
       0.11488158 -0.047187716 -0.01259236 -0.02819752
000060 12 84 2e bd 1e 20 05 be 64 b0 22 3e 31 23 62 bd
       -0.04260642 -0.13000533 0.158876 -0.055209342
000070 a2 a1 21 3d a2 51 89 3d b7 22 94 3d 49 ea bd 3d
       0.039460786 0.06705023 0.07233184 0.09273202
000080 75 79 e5 3d af af 3f 3d 1b 57 3f bd 48 08 14 be
       0.11204807 0.046798404 -0.04671393 -0.14456284
000090 e0 62 5f bd 09 f5 92 3d 13 bb 16 3e 1e 30 a3 3d
       -0.054537654 0.07175643 0.147198 0.07968162
0000a0 f2 83 3f 3e 51 04 a1 3d 71 00 ec 3c 1b db 00 3c
       0.18702677 0.078621514 0.028808804 0.007864739
0000b0 49 37 be 3c 2d b8 14 ba ba 41 b6 bb a4 91 ac bc
       0.023219721 -0.0005673196 -0.0055620344 -0.02106554
0000c0 f2 f3 12 3d 8b 16 85 bd de 2c 0a bd 5e 37 89 bd
       0.035877176 -0.0649844 -0.033734195 -0.067000136
0000d0 cb 29 cf bd 65 00 05 be 01 26 61 bd 0b 79 64 bd
       -0.10115393 -0.12988432 -0.054967884 -0.055779498
0000e0 73 56 ab bd 1e cb d8 bc 1d 72 6f bd 18 81 f0 bc
       -0.08366098 -0.026464041 -0.058458436 -0.029358432
0000f0 96 92 33 bd dc d0 8e 3d c5 21 1c bb 25 67 42 3d
       -0.043840967 0.069734305 -0.002382384 0.047461648
000100 2f eb 21 3d 4e d1 12 3c 3e 23 ac 3b cb 4e 4d 3d
       0.03953093 0.008961035 0.0052532246 0.05012397
000110 3c b8 b3 3d 5b 08 dd 3d e3 25 37 bd c6 71 0a 3d
       0.08775374 0.10792609 -0.044713866 0.03379991
000120 08 ce d2 bc 2a 36 8b 3d af 20 40 3d d4 28 a1 bd
       -0.025733009 0.0679744 0.04690617 -0.078691155
000130 2e 79 f3 bc be 2b 0d 3e f3 e8 d2 bc f6 66 c1 3d
       -0.029720869 0.13786218 -0.025745844 0.09443466
000140 5b 2d ba bd a6 c1 6a 3d fc a6 a9 3d 44 c3 0d bd
       -0.09090682 0.057313584 0.08283803 -0.034610048
000150 70 1e 76 bd 21 fa 17 3c 7a 2a 00 3e a6 45 8f 3c
       -0.06008762 0.009275944 0.12516204 0.017489266
000160 67 85 c6 bd 5c 6a 95 3d 4a 07 97 3d 92 e4 95 bd
       -0.09693413 0.07295677 0.07374437 -0.07318987
000170 95 9b 99 bc 79 61 0a bd 44 6e 47 3c c3 3f 94 bc
       -0.018750945 -0.033784363 0.0121722855 -0.01809681
000180 cb 4e 98 bd e6 d6 af bd 23 02 02 be 43 ef be bd
       -0.074369036 -0.085859105 -0.12696128 -0.09322979
000190 ac 3c 76 3a a1 74 0c bc 76 64 c1 bd 84 21 df bc
       0.0009393196 -0.008572728 -0.094429895 -0.027237661
0001a0 0e af a3 3d 15 6f 31 3d 34 41 bc 3d 4d 84 f5 3c
       0.079923734 0.043318827 0.09192124 0.029970312
0001b0 4d 25 ab 3d 2e cc 9f bd 79 47 e1 3a ac a9 23 3e
       0.08356724 -0.07802616 0.0017187438 0.15982693
0001c0 38 5e dd bd ae 2b a7 bc 6a e5 9a 3d b1 27 7a 3d
       -0.108089864 -0.02040657 0.075632885 0.06107301
0001d0 dc c5 e2 3b c6 df c4 3d 80 21 85 bd 14 36 d4 bd
       0.0069205593 0.09612994 -0.0650053 -0.10361877
0001e0 57 70 51 bd 9a c9 49 bd b2 d5 18 3d bd 08 73 bd
       -0.051132526 -0.049264528 0.03731317 -0.059334505
0001f0 a4 71 74 bd bd 1f 28 be bc 03 9a bd 3f a9 8e bd
       -0.05967869 -0.16418357 -0.075202435 -0.06965875
000200 b6 fb 74 bd 63 9a 09 3d da 0f 41 3d 2d b0 9c bd
       -0.059810363 0.0335945 0.047134258 -0.0765079
000210 c2 20 b7 bd 74 47 0f be 52 00 f4 bc c9 b5 47 bc
       -0.08941795 -0.13992101 -0.029785309 -0.012189337
000220 86 c2 a5 bd 1f 23 a7 3d 6f 23 aa 3d a3 d7 f3 3c
       -0.08093743 0.08160996 0.0830754 0.02976591
000230 a6 0e 8e bd 6b c8 bd bd e4 e2 0e 3d a7 15 b2 3c
       -0.06936388 -0.09266742 0.03488435 0.02173884
000240 6f 35 8c 3d 13 19 3b 3d a4 74 93 bc 2c 0a e4 3d
       0.06846129 0.04567821 -0.017999955 0.11134753
000250 87 88 a2 bd fa 19 0a 3e 83 13 75 3d b6 e0 3d 3d
       -0.07936197 0.13486472 0.05983306 0.04635688
000260 8d 8a e3 bb c1 21 59 3d 79 a6 8b bb 5b 9b 1f bd
       -0.006944007 0.053010706 -0.0042617884 -0.038966518
000270 a6 d7 84 3c 7c e3 b5 bc e0 92 39 bd 50 b1 18 3c
       0.01621611 -0.0222032 -0.045306087 0.009319618
000280 17 0b c4 3b 31 83 c4 bb fd c8 cb bd 31 b2 25 3c
       0.0059827673 -0.0059970845 -0.09950445 0.010113285
000290 3b d3 ef bd 4f df 8a bd 54 3b d3 bc 34 8e 07 bd
       -0.11710211 -0.06780874 -0.025785126 -0.0330946
0002a0 74 57 d8 3d 8d 7c dc 3c 31 a7 90 bd 6c fc 01 bd
       0.10563555 0.02691486 -0.07063139 -0.03173487
0002b0 fd 33 88 3d 38 7b c1 bb 9e 17 c2 3b 43 26 58 3d
       0.06650541 -0.0059045814 0.0059232255 0.052770864
0002c0 44 3c 62 3c 24 f2 15 3d 97 aa 18 bd c0 14 ed 3d
       0.013808314 0.036607876 -0.037272062 0.115762234
0002d0 88 ee 28 bd 56 8b 90 3c 0a 91 8c 3d 55 eb cf bc
       -0.041243106 0.017644566 0.068636015 -0.02538077
0002e0 46 c1 5c 3c 99 2f 5a bd 88 32 3b bd 68 dc 07 bd
       0.013473814 -0.05326805 -0.045702487 -0.03316918
0002f0 01 9c 0c bd e9 a5 36 bd db 65 a0 bd 92 4a 28 bd
       -0.034328464 -0.044591818 -0.078319274 -0.04108674
000300 ac fa 96 3d b8 27 de 3c f2 59 c3 3c 5c 17 ab bc
       0.073720306 0.027118549 0.0238466 -0.020885162
000310 8c c3 8c bd 02 56 e4 bd d0 45 06 3e bc 84 0d bc
       -0.06873235 -0.11149217 0.13112569 -0.008637603
000320 6a cf 3d bd 6b 06 97 bd 72 1a 75 3d 51 9a b0 bd
       -0.046340384 -0.07374271 0.059839673 -0.086231835
000330 dc 5c f2 bb 88 34 5a bd 28 be 39 bd e8 6a a2 3c
       -0.0073963236 -0.053272754 -0.045347363 0.019826367
000340 d5 e8 98 bc a6 9f 7f bd 1f d2 df 3d 47 e8 18 3e
       -0.01866571 -0.062408112 0.10928749 0.14932357
000350 1a 94 9f 3c 96 36 cc 3c c7 5a 16 3d c0 98 81 ba
       0.0194798 0.024928372 0.036707666 -0.0009887442
000360 75 e9 42 bd c2 c6 f6 bc 81 c5 39 3e 4a 06 4d 3d
       -0.047585923 -0.030124072 0.18141748 0.050054826
000370 dd 50 d4 3d 90 42 42 bd 73 97 11 bc 2c b0 34 3d
       0.10366986 -0.04742676 -0.008886206 0.044113323
000380 d7 cf 6c 3d 24 66 69 bd 6e 77 9a bb 7f 42 f0 bc
       0.0578154 -0.056982175 -0.004713944 -0.029328583
000390 79 fa 1c 3d 78 82 81 bd 35 a9 3f 3c 79 f3 fc bc
       0.038324807 -0.06323713 0.011698057 -0.030877816
0003a0 a4 b6 54 bd 53 72 91 3d d7 59 50 3d 00 6d 93 bc
       -0.051931992 0.07101884 0.050866928 -0.017996311
0003b0 b1 92 d3 bc 0a af 26 3d de 82 f9 bc b4 2c 15 bd
       -0.025826784 0.040694274 -0.03045791 -0.036419585
0003c0 91 7f 07 bd 0e c5 f5 3d 33 89 19 bd e7 5f 25 bd
       -0.03308064 0.12000476 -0.03748436 -0.040374663
0003d0 16 60 38 3d 0c 0a 3b bd 50 42 f4 bc c1 ac 8a 3d
       0.04501351 -0.04566388 -0.029816777 0.067712314
0003e0 e7 18 48 bc 78 6b 46 bd f7 4c a8 3d f7 1a 2b bd
       -0.012212968 -0.048442334 0.08217805 -0.041773763
0003f0 bb 8c 40 3b 41 37 e2 3c b1 2f 21 bd e7 1b e1 3c
       0.0029380757 0.027614238 -0.039352123 0.027479125

running_mean f4 [256]
000000 62 bc 0d 3e 86 36 72 3d 1b 50 54 3e 80 9b 58 3e
       0.13841394 0.05913403 0.20733683 0.21153069
000010 4d 50 fd 3d 48 da 71 3d 1b 2f 12 3e 8e 2e 06 bd
       0.12368832 0.05904606 0.14275782 -0.03275924
000020 aa 6c 15 be 09 10 f0 3d 98 f7 34 be 5f 3d 1e 3d
       -0.14592233 0.117218085 -0.17672575 0.038632747
000030 e6 6a 86 bb fe 21 53 bd 6e 50 d7 bd 38 26 3b be
       -0.0041020988 -0.05154609 -0.105133876 -0.18276298
000040 12 c3 ae be 06 84 24 be 8c d2 d5 3d f6 d8 19 be
       -0.34133202 -0.16065988 0.10440549 -0.1502417
000050 02 12 80 be 43 c9 bb 3e 65 2f fb bd b5 15 84 3d
       -0.2501374 0.36676988 -0.12264899 0.06449453
000060 93 ef d0 be c6 30 8a bc a1 6d e3 bc 37 df 90 3d
       -0.4080778 -0.01686896 -0.027762236 0.07073825
000070 16 84 b5 be b9 f6 11 be c5 65 34 be 60 b8 d7 bc
       -0.35452336 -0.14254273 -0.17616947 -0.026333034
000080 9c fc b6 3d 32 1f 57 3d 1b 14 e6 bd 0d 9f 47 be
       0.089349 0.052519985 -0.112343036 -0.19494267
000090 14 45 f2 3d 2e fc 9e bd c7 83 54 3d 97 8f 1d 3e
       0.11829582 -0.07762943 0.051883485 0.15386806
0000a0 ce af ef 3d 00 8d eb 3c 68 7e b7 3d 20 21 8d 3d
       0.11703454 0.028753757 0.08959657 0.06891084
0000b0 8f 59 8a 3d 6e eb 3d be ad cb c9 bd d6 ab 20 be
       0.06755363 -0.1854684 -0.09853301 -0.1569055
0000c0 91 8e 3b bb af 10 57 3d 7e 82 51 3e 24 c8 af bd
       -0.0028618912 0.052506145 0.20459935 -0.08583096
0000d0 a5 5d 9f 3e 2f 1d b3 3e 40 2b 48 3e d6 21 12 3e
       0.31126133 0.34983203 0.19547749 0.1427072
0000e0 14 d3 aa 3d 6d 85 30 3e 2d b8 54 bd c6 af 5b 3d
       0.08341041 0.17238398 -0.051933456 0.053634427
0000f0 cd b9 27 3b 5d 5b 02 3e b6 c2 54 3e c8 45 c0 3d
       0.0025592924 0.12730165 0.20777401 0.0938831
000100 32 b7 e8 bd 78 e2 84 be fd af 33 bd 82 f5 ef bd
       -0.11363067 -0.25954032 -0.043869007 -0.11716749
000110 81 0b 8d 3e 35 4d 2b be e7 ea 29 be 03 f4 95 bd
       0.2754784 -0.16728671 -0.16593514 -0.07321932
000120 fe 01 b6 bd 5c b8 a0 3d 8c 57 8d 3c e1 05 87 38
       -0.08887099 0.07847664 0.01725366 6.438397e-05
000130 f2 fa c6 3c 9e e6 6b 3d 96 e9 8e bd ed 02 8e bd
       0.024289582 0.05759298 -0.06978147 -0.06934152
000140 ec 4e b2 3d b8 0a de bd d2 66 9b bc de 32 8d be
       0.087064594 -0.10841888 -0.018969927 -0.2757787
000150 9a 07 f6 bd 35 72 9b bd 77 2b 2c 3d 97 61 42 3e
       -0.12013169 -0.07590143 0.04203364 0.1898254
000160 59 55 01 3e 8c 67 b0 bc 96 9a 64 3d a4 60 66 bd
       0.12630214 -0.02153375 0.055811487 -0.056244507
000170 0e 31 0a 3e cc 9d 02 3e a3 8d 18 3e 4b 6c 1c bd
       0.13495275 0.12755507 0.1489778 -0.038189214
000180 f2 a4 89 3c f1 15 9c bd 5d b6 82 3d 72 17 64 3e
       0.016802285 -0.076213725 0.06382439 0.22274569
000190 f5 a0 85 bd 64 62 dc bd 68 25 9c 3b 48 52 2d 3e
       -0.06524841 -0.10760954 0.0047652014 0.16925919
0001a0 26 35 7c be 80 1a 2d bd 67 de 39 3e 55 10 d1 3d
       -0.2462965 -0.0422616 0.18151246 0.10208193
0001b0 1a 3a ad be c4 05 bd be 68 ee 33 be 36 f2 39 be
       -0.3383339 -0.3691846 -0.17571414 -0.18158802
0001c0 22 2d a7 3d 28 6c 1e be b0 df 92 3d c6 d1 77 3d
       0.08162905 -0.15470946 0.07171571 0.06050279
0001d0 21 27 8e 3c e1 fc 1c 3e 89 70 30 3e 61 e6 df 3e
       0.017352642 0.1533084 0.17230429 0.43730453
0001e0 ba 29 19 be 00 80 96 be 2f 1e 57 be ae 19 19 3e
       -0.14957324 -0.2939453 -0.21007608 0.14951202
0001f0 dd c1 16 3e d6 c5 22 be 00 67 b7 be 1c 2e 5a bc
       0.1472239 -0.15895781 -0.3582077 -0.013316657
000200 cc 60 15 be 74 3b 1b be d2 bb 5a bd f8 e9 55 bd
       -0.14587706 -0.15159398 -0.053401776 -0.052225083
000210 a2 6b 89 bc 11 1c 64 bc c2 aa 5b be 01 75 93 be
       -0.016774956 -0.013922707 -0.21451858 -0.28800204
000220 b8 88 ce 3d 02 68 0d be 4e 9f 5f 3e 21 d9 cf 3d
       0.10084671 -0.13809207 0.21838114 0.10148836
000230 50 d7 15 3e b6 b5 29 3e af e4 81 3d af 7a a4 be
       0.14632916 0.16573223 0.06342446 -0.3212485
000240 06 fd 07 3e c4 0e 06 3e 45 3e 49 3d 7f d4 2d 3e
       0.13280115 0.1309157 0.04913165 0.16975592
000250 1b 1d bd 3e b0 bd a9 be 9b a0 93 be 5e 5a 40 3e
       0.36936268 -0.33152533 -0.2883347 0.18784472
000260 cb f9 1d 3e 05 ac 38 bd 66 b8 0b 3e fa 2f 4e 3d
       0.1542732 -0.045085926 0.13644561 0.050338723
000270 d1 34 a9 bd 2b f4 1a 3d ce 80 2d 3d 08 cf ef 3d
       -0.08262027 0.037830513 0.042359166 0.1170941
000280 eb fa e9 bc 03 a0 98 bc 26 22 b1 bd df 62 7e 3e
       -0.02856203 -0.018630987 -0.086490914 0.24842404
000290 a9 00 9e bd 17 c7 89 3e 5a 82 9a bc c4 2f 00 3c
       -0.0771497 0.26909706 -0.018860985 0.007823888
0002a0 2e 60 d9 bd 91 a2 32 be 06 5d ac 3a cc 4e ba 3c
       -0.10614048 -0.17444827 0.0013150282 0.022742651
0002b0 19 00 a5 bd 9f 5b 10 3e 1e 5f 61 3e 96 a3 84 3d
       -0.08056659 0.1409745 0.2200894 0.06476514
0002c0 79 eb f8 bc ef 8c 5d 3c ff 83 4c 3e 01 db 5d 3c
       -0.03038572 0.013522371 0.19972228 0.013540984
0002d0 55 a9 4e 3e ca a2 16 be 8a a2 21 3e a9 a2 bb bd
       0.20181783 -0.14710537 0.1578466 -0.09161884
0002e0 51 d9 ad 3e d6 77 57 be a1 40 ea bd 2d cb b0 3d
       0.33954862 -0.21041808 -0.11438108 0.08632503
0002f0 56 08 5e 3e c1 a4 f2 bd c8 eb 95 3e 6a 10 7d be
       0.21682867 -0.118478306 0.2928145 -0.24713293
000300 13 25 f1 3d 30 07 4a 3e e2 25 2a 3e 0a 41 fc 3d
       0.117746495 0.19729304 0.16616014 0.12317093
000310 9c db 63 3d 50 5c 44 3e 96 a0 63 3e fe f2 36 be
       0.055629358 0.1917584 0.22229227 -0.17866132
000320 35 e1 ef bd 20 1b a4 bd ff 08 51 be b0 56 09 be
       -0.11712877 -0.08012986 -0.20413588 -0.13411975
000330 1a 4b 9a 3c 50 ea 62 3e fb c6 8c bd 62 74 21 3e
       0.01883464 0.22159696 -0.0687389 0.15767053
000340 79 24 8a 3e ed a9 84 be a2 27 b7 be ff 1a 3f 3e
       0.2698095 -0.25910893 -0.35772425 0.18662642
000350 0d 5e 15 3e dc 7d 82 bd 98 8e cf 3d 63 6b 26 3e
       0.14586659 -0.06371662 0.101346195 0.16251902
000360 79 b1 9a be 23 56 5f bd a0 14 75 3e ce 4e 1f 3e
       -0.30213526 -0.054525506 0.23933649 0.15557405
000370 73 37 95 3c 35 d6 8c 3e 04 9f ea bd 6e 64 8c bd
       0.018214917 0.27507177 -0.11456111 -0.06855093
000380 00 b1 ac bc d3 fc b9 3d 1a 20 13 3e fb 9f 7a 3d
       -0.021080494 0.090814255 0.14367715 0.061187726
000390 fa 70 da 3d bf 24 f1 bb 6a a3 6d be 41 c9 98 bd
       0.1066608 -0.007359117 -0.23206869 -0.07460261
0003a0 20 4c 17 3b fa 45 53 3b 54 ce 9f 3d 6c 0e 8c 3e
       0.0023086146 0.0032237754 0.07803026 0.27354753
0003b0 f6 f1 fc 3d f5 ee 8c 3b 6c ae bd 3d f0 08 44 3e
       0.12350838 0.004300947 0.09261784 0.19144034
0003c0 25 06 47 3e 78 9d 65 bd 20 27 14 3e 8a dd f4 3d
       0.19435938 -0.056058377 0.1446805 0.11956318
0003d0 62 ac 09 3b d8 92 7f 3d 4d 61 2f 3e 56 0a 94 3d
       0.002100729 0.0623959 0.17126961 0.07228534
0003e0 3c 39 c7 bc c8 53 b9 3d cc 52 dc 3d c3 77 7a be
       -0.024319284 0.09049183 0.1075798 -0.24459748
0003f0 ae 54 19 bd 4b 50 b5 3d 0f 1b d8 3d 67 b1 08 be
       -0.037434272 0.08853205 0.10552036 -0.13348924

running_var f4 [256]
000000 66 e4 ce 3f 65 ec 0a 40 65 63 e1 3f e3 df 91 3f
       1.6163452 2.1706784 1.7608458 1.139645
000010 cd b2 3b 3f 6e 1a 51 40 d2 f7 c5 3e ca 62 b0 3f
       0.73319703 3.2672381 0.38665634 1.3780148
000020 66 f9 8b 40 38 3a 63 40 2a 02 62 40 04 46 ca 3f
       4.374194 3.5504284 3.531382 1.5802617
000030 58 71 e7 3f 19 c0 3b 40 05 e7 34 40 4a 3e 1e 40
       1.8081465 2.9335997 2.8266003 2.4725518
000040 d0 5a 05 3f 63 ea 01 41 e4 e2 34 3f b7 29 c8 3f
       0.52091694 8.119723 0.7065871 1.563773
000050 5e d8 36 3f 5c 74 35 40 d1 80 82 40 50 dc 27 40
       0.714239 2.835227 4.0782247 2.6228218
000060 22 7d cc 3f 17 d4 00 40 94 3d a0 3e f2 05 27 40
       1.5975688 2.012945 0.3129698 2.6097379
000070 76 ef 53 3f 7c a7 e6 3f ac e7 bc 40 8f 70 a0 3f
       0.82787263 1.8019862 5.9032803 1.253435
000080 a7 8d eb 3f 3b 36 0d 40 ec 5a 34 40 5e e4 ce 3f
       1.8402604 2.206435 2.8180494 1.6163442
000090 a0 b0 f8 3f 4a 00 14 40 f7 6d 5b 40 85 3e 7c 40
       1.9428902 2.3125176 3.4285867 3.941316
0000a0 c4 14 60 40 b8 cf 9c 3f 79 dc 5b 3f 3b 04 79 40
       3.5012674 1.2250891 0.8588329 3.8908832
0000b0 dc 89 35 40 6e e7 3e 40 84 ab 7e 3f 25 99 22 3f
       2.8365393 2.9828753 0.9948046 0.6351493
0000c0 a7 1b bf 3f ac 36 28 40 63 77 48 40 5c 63 9b 3f
       1.4930314 2.628337 3.1322868 1.2139697
0000d0 fd 29 99 40 24 1d 25 40 2a 33 1b 40 17 a3 d2 40
       4.7863755 2.5799036 2.4249978 6.5824084
0000e0 17 7c 09 40 64 12 ca 3f 53 d8 64 40 ba 98 93 40
       2.1481988 1.5786862 3.5757034 4.6123934
0000f0 d9 66 af 3e c2 50 01 3f c3 79 d8 3f 98 27 76 40
       0.34258154 0.5051385 1.6912159 3.8461666
000100 81 98 04 40 4a f5 99 40 d5 da 67 40 b8 b6 0c 40
       2.071808 4.8111925 3.6227314 2.1986523
000110 64 78 b5 3f f4 d1 98 3f b8 99 30 40 27 f9 24 40
       1.4177365 1.1939073 2.7593822 2.577707
000120 92 96 6b 40 52 d1 81 40 29 fd 0f 40 cf 9d 70 40
       3.681065 4.056802 2.2498267 3.7596319
000130 93 b6 81 3f 51 28 83 3f 65 49 40 40 95 36 95 3f
       1.0133842 1.0246679 3.0044796 1.1657282
000140 36 fd 49 3f 7e 55 f0 3f 1e a3 93 3f 6f 65 57 40
       0.78901994 1.877609 1.1534154 3.365566
000150 56 6d db 3f f1 01 c9 3f 38 d0 d1 3f 98 60 12 40
       1.7142742 1.5703717 1.6391668 2.2871456
000160 17 3a d2 3f 62 7e 92 3f 2c b5 c9 3f 52 98 bf 3f
       1.6423978 1.1444819 1.5758414 1.496836
000170 7c 03 c4 3f b5 fa 98 3f df 66 5d 40 7b 03 de 3f
       1.5313563 1.195151 3.4594038 1.7344812
000180 58 bb fc 3f 98 d5 e2 40 1b 6c 39 3f 00 78 09 40
       1.9744673 7.0885735 0.7243058 2.1479492
000190 9f 03 1f 40 47 4a f4 3f 2c e2 fb 3f 47 5d 5a 40
       2.484596 1.9085168 1.9678397 3.4119432
0001a0 fe 90 40 40 28 1c 9f 3f 5d 6b 20 40 97 90 21 40
       3.0088496 1.2430468 2.506553 2.52445
0001b0 38 7f 6d 40 7b 07 c9 40 12 92 5f 40 53 04 c4 3e
       3.7108898 6.282163 3.4932904 0.3828455
0001c0 cf 4e 4e 3f 3b dc 52 40 1a 86 45 40 7f 34 a7 3f
       0.80589 3.2946918 3.08631 1.3062896
0001d0 56 49 e4 3f 69 a8 b4 3f 4b d4 8a 3f 94 b3 6b 40
       1.783488 1.4113895 1.0846037 3.6828356
0001e0 9c a5 a3 40 42 08 81 40 00 83 af 3f c2 f3 f4 3f
       5.113966 4.032258 1.3711853 1.9136889
0001f0 0b 88 1a 40 ed 3c 5f 40 94 7e b1 3f 08 e0 04 40
       2.4145534 3.4880936 1.3866754 2.0761738
000200 f2 06 e6 40 e0 0b 4b 40 34 b5 a4 3f 65 f8 1a 40
       7.188348 3.1725998 1.2867799 2.4214108
000210 8b a3 5a 40 39 cf 27 40 15 56 33 40 3b af 40 3f
       3.4162319 2.6220229 2.802129 0.7526738
000220 c7 57 b3 40 41 da d4 3f e3 41 0f 3f cf 87 00 40
       5.604465 1.6629106 0.5595991 2.008289
000230 77 e5 72 40 1b b4 76 40 0a 32 02 40 20 db e9 3f
       3.7952554 3.8547428 2.0343041 1.8269997
000240 f5 1a 48 3f b7 07 b0 3e c8 16 53 3f 48 ff a0 3f
       0.78166133 0.34380886 0.82456636 1.2577906
000250 60 9f 96 40 b4 1a 45 40 c2 7a ea 3f 6b 81 5f 40
       4.706955 3.0797548 1.8318713 3.492274
000260 99 26 b2 3e a9 1a 60 40 90 ee 9e 3f 7f 3b 8c 40
       0.34795073 3.5016272 1.2416553 4.3822627
000270 d5 e6 ab 3f 73 0d 8c 40 a4 00 41 40 53 61 31 40
       1.3429819 4.3766418 3.015664 2.7715652
000280 43 58 fd 40 22 69 5a 3f dc f0 2d 40 89 03 01 40
       7.917024 0.8531667 2.717826 2.0158408
000290 33 3c 8f 3f b9 bd 85 3f 57 53 9b 3f 64 15 f7 3f
       1.1190246 1.0448524 1.2134808 1.9303403
0002a0 8a f6 14 3f 34 14 71 40 d9 1b 6d 40 8f e3 37 40
       0.5818869 3.766858 3.7048247 2.873264
0002b0 c3 53 f6 3f b3 6d de 3f 09 3b af 3f dc c6 ce 3f
       1.9244312 1.7377228 1.3689891 1.6154437
0002c0 02 0f 3e 3f 10 2b 9b 3f 5d 78 ed 3f 91 5b ac 3f
       0.7424165 1.2122517 1.8552357 1.3465444
0002d0 fb 12 24 40 e1 79 ca 3f 46 75 f8 3f e5 a6 3c 40
       2.5636585 1.5818444 1.9410789 2.9476864
0002e0 30 5a 74 3f 80 4b 2e 40 28 e4 83 3f b3 e2 1a 40
       0.95450115 2.7233582 1.0304003 2.4200866
0002f0 01 36 3a 41 e3 a0 31 40 bf 45 60 3f 8f 07 59 40
       11.638185 2.7754447 0.87606424 3.3910863
000300 8d 1c 45 40 8e a2 1a 40 13 9e 3f 3f 9a 72 a4 3f
       3.0798676 2.4161716 0.7485058 1.2847474
000310 a5 02 3b 40 89 72 1f 40 e9 6e c0 3f 44 16 dc 3f
       2.9220364 2.4913657 1.5033847 1.7194295
000320 98 c6 f7 40 f1 4f fb 3f 7e db af 3f d5 eb 0b 40
       7.7429924 1.9633771 1.3738859 2.186269
000330 c3 5f 5a 40 27 40 65 40 fa 05 e4 40 48 93 d4 40
       3.4120948 3.5820405 7.1257296 6.6429787
000340 5e 5d 78 3f ad bb c0 40 45 ff 09 3f d4 f6 f2 3f
       0.9701747 6.0229096 0.53905135 1.8981576
000350 fd c1 0d 40 09 a2 07 40 2e d4 ba 3f 8f 8e 27 40
       2.214965 2.1192648 1.4596002 2.618076
000360 79 47 01 40 3a 3a 65 40 6f f7 18 40 f1 42 4c 3f
       2.0199873 3.5816789 2.3901021 0.79789644
000370 4d a8 a2 3f fa 22 c9 40 27 ab 0a 40 20 ff c3 3f
       1.2707611 6.2855196 2.1666963 1.5312233
000380 06 66 0c 40 05 f2 2a 40 9a 97 92 3f fc 95 9e 3f
       2.193727 2.6710217 1.1452515 1.2389522
000390 8e da 66 3f 8c 62 b1 40 3a f3 ac 3e 47 e0 c2 3f
       0.9017724 5.5432796 0.33779317 1.5224694
0003a0 78 1d 91 40 49 b3 8b 3f 33 33 26 3f 7e e6 dc 3f
       4.5348473 1.0914088 0.64921874 1.7257841
0003b0 ac 27 f5 3f 41 37 02 40 df 74 52 40 48 e8 82 3f
       1.9152732 2.0346224 3.2883832 1.0227137
0003c0 f0 d3 0e 40 00 cd b1 3f 4c 5e f9 3f 0b f7 7c 3f
       2.2316856 1.3890686 1.9481902 0.9881446
0003d0 82 1b c0 3f d8 47 5d 3f f1 75 36 3f 11 7f 6e 40
       1.5008395 0.8643775 0.71273714 3.7265055
0003e0 67 a1 20 40 66 14 33 3f 15 29 b4 3e 72 9d 24 40
       2.5098512 0.69953 0.35187593 2.5721097
0003f0 53 51 05 40 97 54 08 40 86 54 9b 3f 85 d8 4d 40
       2.0830886 2.130163 1.213517 3.2163403

weight f4 [128, 256]
000000 f2 b7 0a 3d cf c7 04 be 6e e6 0d 3d c3 9c 96 3d
       0.03386683 -0.12966846 0.034643583 0.07354119
000010 f7 74 f7 bd af 67 61 3c 96 0c ca 3d e9 ac eb bd
       -0.12082856 0.01375763 0.09865682 -0.11507589
000020 a9 72 0e 3e 70 30 03 3d f4 05 d2 3a 5c 54 2c 3d
       0.13910927 0.032028615 0.0016023503 0.04207264
000030 00 cd ce 3d fd fe 2c bd 2b 5c d0 bb 49 b6 cc bc
       0.100976944 -0.042235363 -0.0063586435 -0.024989264
000040 d1 55 9e bd df 5b 6a bd dc dd 58 3d 75 d9 d1 bd
       -0.07731212 -0.05721652 0.052945957 -0.10246555
000050 e9 a8 d0 bd d0 a4 04 bd 57 ab e4 3b 0c da c4 bd
       -0.10188467 -0.03238374 0.006978433 -0.09611902
000060 d4 6d 01 be 02 75 4d 3e b3 2f 06 be e1 66 00 bb
       -0.12639552 0.20064166 -0.13104133 -0.001959257
000070 76 3f b0 3d 5c c5 2b be da 11 3b be 50 d7 6b bd
       0.08605854 -0.16774505 -0.18268529 -0.057578385
000080 ac ca 40 3d ab a4 9a 3c 90 ac b5 bd 08 45 ec 3b
       0.047068283 0.018877348 -0.08870804 0.0072103776
000090 54 9f 26 be a3 f0 8d 3d c7 2f 2b bd 3c c2 3f 3d
       -0.16271716 0.069306634 -0.04179361 0.046816096
0000a0 34 69 e4 bd 65 8b a8 bd 59 ed d2 bd 05 54 aa bd
       -0.111528784 -0.082297124 -0.10299177 -0.08316807
0000b0 86 57 d8 bc 76 91 7b 3e 95 fa 13 be 84 7d 37 bd
       -0.026408922 0.24567208 -0.14451058 -0.044797435
0000c0 6c 5a ae bd 9f c8 50 3d 18 cd ec 3b 16 bd e6 bc
       -0.0851334 0.050972577 0.0072265975 -0.028166335
0000d0 3a b9 72 bd 0f 12 e6 3d 76 d9 00 3d 67 fd 06 3c
       -0.059258677 0.11233913 0.031457387 0.008239127
0000e0 71 e5 26 be 63 5e ac 3b 91 bd 04 3d be 97 e7 bd
       -0.16298462 0.005260275 0.032407347 -0.113082394
0000f0 59 5f 33 3d 75 8e b7 bd eb 97 f6 bb 24 53 a9 3d
       0.043792102 -0.089627184 -0.0075254343 0.08267811
000100 46 28 e3 bc 0e 42 c9 bd 52 49 ab bc 8b f9 25 3c
       -0.027729165 -0.09827052 -0.020908985 0.010130296
000110 97 16 66 3d d2 bc d4 3d c2 7a 39 3e f6 46 63 3d
       0.056173887 0.10387577 0.18113235 0.055487595
000120 6c 6b 8a bd 0f 63 48 3e ce b3 e3 bd 69 ee fb 3d
       -0.0675877 0.19569038 -0.111182794 0.123013325
000130 18 e2 06 be 3d 5a 1a 3e 96 9e a0 bc ac 50 0f 3e
       -0.13172185 0.15073486 -0.01960687 0.13995618
000140 2b 49 91 bd a8 fa 61 3d 93 de 63 bd 13 30 54 be
       -0.07094034 0.055170685 -0.055632185 -0.20721464
000150 f7 dd 09 3d 3c 9d 1d 3e bb 93 20 3e df 20 a6 3d
       0.033658948 0.15392011 0.15681355 0.081117384
000160 46 cd ce bc c0 4d b1 bc 61 e4 5e bd d8 9a 3c 3e
       -0.025244366 -0.02164352 -0.054417018 0.18418443
000170 2a 78 ea 3d 6a f1 d3 3d f1 1b 0e bc 80 cb b3 3b
       0.11448701 0.103487805 -0.008673654 0.0054869056
000180 d9 28 fa 3d 28 15 2b bd 7d 9b 43 3e 96 60 82 3d
       0.12214822 -0.041768223 0.19102283 0.063660786
000190 27 12 12 be 68 d7 ac bb 0e fb 90 bd 60 e9 6f 3d
       -0.14264737 -0.005274702 -0.07079135 0.058572173
0001a0 ed c6 d3 3c fd b1 50 3d 10 dd 67 bd 08 20 cc 3d
       0.025851691 0.050950993 -0.056607306 0.09967047
0001b0 8a 7d 1a 3b 91 a9 91 3d e8 96 17 3d f2 09 ef ba
       0.0023573362 0.0711242 0.03700915 -0.0018237217
0001c0 ca bd ef bd d7 6a 32 bd f6 5e 05 be d8 22 cf 3c
       -0.11706121 -0.04355892 -0.13024506 0.02528517
0001d0 4f a5 16 3e 27 7b 4b 3d 32 11 3d be ef 50 ea 3d
       0.14711498 0.049677994 -0.1846359 0.11441218
0001e0 14 fe 04 bd 88 1b b5 bd dc 1d 7a 3d 70 4e 1f bd
       -0.03246887 -0.08843142 0.061063632 -0.038893163
0001f0 25 58 39 3d b6 b9 e0 3d e3 c7 85 3d 03 02 3f bc
       0.045250077 0.109729216 0.06532266 -0.0116581945
000200 70 48 39 3d f7 29 04 3e b9 f9 f9 3d 8b 97 04 bc
       0.045235097 0.12906633 0.12205834 -0.008092771
000210 7a 8f cf bd ed 8a d5 bd 56 60 ae 3d 55 4b e0 bc
       -0.10134788 -0.104268886 0.08514468 -0.027379671
000220 da 51 40 3e 2b cb 1d 3c 19 31 dc bd da d5 25 3e
       0.18781224 0.009630959 -0.10751552 0.16194859
000230 0c dc e7 3b 4c 08 19 be 03 83 b1 bd 57 02 5d be
       0.007075792 -0.14944571 -0.086675666 -0.21582924
000240 24 9a 5e 3d 75 ee aa 3d db a9 56 bd da 6d d3 bc
       0.05434622 0.08346263 -0.05240808 -0.025809217
000250 b9 d0 af bd d6 53 d0 bd 55 3e 04 3d c8 3e 03 be
       -0.085847326 -0.101722404 0.032286007 -0.12816918
000260 67 a7 3f 3e ae 6e 52 3d e5 16 95 3d 54 fd 05 3e
       0.18716203 0.051375084 0.072797574 0.13084918
000270 e2 da d2 bd 89 07 9a 3c a3 e1 ff 3d 9f 73 1e 3e
       -0.10295655 0.018802421 0.12494209 0.15473793
000280 a1 2d b7 3d f0 8f 29 be 69 43 85 3b 8f eb af 3b
       0.0894425 -0.16558814 0.004066874 0.005368657
000290 bc f6 11 3c 0e a8 f4 3c 55 0b 89 3b 71 36 32 be
       0.008908924 0.029865291 0.004182259 -0.1740358
0002a0 dd 91 4e 3e be 0e ce 3d 6e 9e 14 bd d4 9c ae 3d
       0.2017283 0.100614056 -0.036283903 0.08526006
0002b0 35 7f d1 bd f8 bc 6e 3b 6c 19 5e 3d 7d 35 30 be
       -0.10229341 0.0036428552 0.054223463 -0.17207904
0002c0 f2 83 5d 3d 53 fb ef bd 17 83 0b bb fd af f7 3d
       0.05408091 -0.11717858 -0.0021287852 0.12094114
0002d0 1b a8 07 3d 16 e7 28 bd ba 89 19 be db 24 dc bd
       0.033119302 -0.041236006 -0.14993945 -0.10749217
0002e0 49 19 ed bc 03 8c d0 bd 05 e9 8e bc b5 5f c9 bd
       -0.028942721 -0.10182955 -0.017445097 -0.09832708
0002f0 6e ee 16 3e 99 b7 09 3e 8b 3d 01 bd d3 70 78 3d
       0.14739391 0.13448943 -0.031552833 0.060654473
000300 f5 4f 8a bd 76 fe 6c bd 9a b4 b6 3c ca 7e 81 3c
       -0.06753532 -0.05785986 0.022302914 0.015807528
000310 71 d3 bc bd c4 f4 82 3b b5 43 09 3e 42 d7 e7 bd
       -0.09220017 0.0039964635 0.13404734 -0.11320354
000320 cf 55 2d 3e a8 c3 f4 3d dc 1d e8 3b be b2 94 bb
       0.16927265 0.11951381 0.0070836376 -0.0045379093
000330 09 8c d0 bd 99 e1 d3 3c f6 76 25 3e ce bf 02 be
       -0.101829596 0.02586441 0.16158661 -0.1276848
000340 c0 cb 17 bd f1 6b 9e bc b1 2e 4a bd b4 32 57 3e
       -0.037059546 -0.01933858 -0.049360935 0.21015435
000350 8d 7a 8f 3d 04 3a 44 3d 56 c4 b0 3d 31 a8 eb 3c
       0.070057966 0.04790689 0.08631198 0.028766723
000360 9f 73 1d 3e 0e 0d 50 3d d7 8f fd 3d 27 bf a3 3d
       0.15376137 0.0507937 0.12380951 0.07995444
000370 e5 d7 a3 3d ab 52 91 3d 9d a4 fd bd f2 b5 f0 3d
       0.08000163 0.07095846 -0.12384913 0.11753453
000380 1c 7f 38 3d c9 19 b4 bb 9a c8 a1 bd 88 3f 1b be
       0.045043096 -0.005496238 -0.0789959 -0.15160954
000390 26 eb d7 bd 08 f9 d9 3c ec 71 ae bd 68 f6 2f 3d
       -0.10542898 0.026608005 -0.085178226 0.0429596
0003a0 38 cb 07 3e d3 08 31 bd 9f c9 2b bd 87 ca 83 3d
       0.13261116 -0.043221306 -0.041940328 0.064351134
0003b0 0d 21 20 3e e9 f4 81 bd 92 42 1d bb d9 a8 53 3d
       0.15637608 -0.06345541 -0.0023995978 0.051674698
0003c0 6a 3f f4 ba a8 23 85 bc e4 5d 50 3d 9d 45 0e 3c
       -0.0018634622 -0.016252354 0.05087079 0.008683589
0003d0 f2 3b 05 3e 13 06 e0 3d 9a f3 68 bd 94 47 30 be
       0.13011149 0.109386586 -0.05687294 -0.17214805
0003e0 77 62 4e bd 51 87 01 be 7e a7 fc 3a 5a f6 0d 3d
       -0.050386872 -0.12649275 0.0019275991 0.034658767
0003f0 11 07 03 3e b6 49 14 3e 18 8f 1a 3e d4 56 0f 3e
       0.12795664 0.14481243 0.15093648 0.13997966
