src/automl/meta_model.pth (torch, 29621 bytes, 19 tensors)

shared_layers.0.weight f4 [64, 31]
0	0xbd01f625	-0.031728882
1	0xbd8f9ea6	-0.07012682
2	0xbd9bc18a	-0.07605274
3	0xbafee02a	-0.0019445468
4	0xbdc77027	-0.09738188
5	0x3cb1951d	0.021677548
6	0xbd85ecdb	-0.06539317
7	0x3dde0376	0.10840504
8	0xbdfdee94	-0.12399021
9	0xbe08c326	-0.13355693
10	0xbdb2b77e	-0.087264046
11	0x3e891776	0.26775712
12	0xbd0baaaa	-0.034098305
13	0x3e5361da	0.20642796
14	0xbc840c2f	-0.01611909
15	0xbd244d52	-0.0401128
16	0xbe35e71a	-0.1776394
17	0xbd4a35fd	-0.049367893
18	0xbdf8b397	-0.12143629
19	0x3d325fa2	0.043548234
20	0xbb315ebc	-0.0027064523
21	0xbdf7a5d3	-0.12092175
22	0x3e212b76	0.15739235
23	0xbce1d47c	-0.02756714
24	0xbc843b83	-0.016141659
25	0x3d8609f9	0.06544871
26	0x3ca41efd	0.020034308
27	0xbdb664f0	-0.08905971
28	0x3dbf0ba8	0.09328395
29	0x3ca60538	0.02026616
30	0x3d541a3e	0.05178284
31	0xbdee2c57	-0.11629551
32	0x3de94793	0.11390605
33	0xbca5b579	-0.020228134
34	0xbe188b64	-0.14896923
35	0xbe4c45cf	-0.19948505
36	0xbe21ffce	-0.15820238
37	0xbcb920f8	-0.022598729
38	0xbd279b31	-0.040919486
39	0xbeb66f01	-0.35631564
40	0x3e19e734	0.15029603
41	0x3e14870c	0.14504641
42	0x3da19548	0.07889801
43	0xbe67fbcd	-0.22654648
44	0x3ea0f504	0.31436932
45	0x3db158ab	0.0865949
46	0xbd08ac99	-0.033367727
47	0x3cf66bd2	0.03008071
48	0xbe2d1ada	-0.16904774
49	0x3e121ff1	0.14269997
50	0x3caa0197	0.020752711
51	0x3e3b2a35	0.1827782
52	0xbe0cec17	-0.13761936
53	0x3cbc92df	0.023019252
54	0x3e213e3d	0.15746398
55	0x3aea4059	0.001787196
56	0xbcfc4c4f	-0.030798106
57	0xbe29ef5b	-0.16595213
58	0x3dce438b	0.100714765
59	0xbe157134	-0.14593965
60	0xbcffc5b7	-0.031222207
61	0x3d45de7a	0.048307873
62	0x3bbbd7d8	0.0057325177
63	0xbd4da1cf	-0.05020314
64	0xbea88484	-0.329136
65	0x3d4ca124	0.049958363
66	0x3e01037b	0.12598984
67	0x3e9218cf	0.28534552
68	0x3e20546d	0.15657206
69	0x3e617ee9	0.22021069
70	0x3dc13fc2	0.09435989
71	0xbd8350ad	-0.06411872
72	0x3c707239	0.01467567
73	0x3ca5fc56	0.020261925
74	0xbd812165	-0.063051976
75	0xbe2c40c3	-0.1682158
76	0x3e0240da	0.12720051
77	0xbd467414	-0.048450544
78	0x3e3c8ae5	0.18412359
79	0xbddbd6f6	-0.1073436
80	0xbdb29e39	-0.08721585
81	0xbd99c62e	-0.07508503
82	0x3df1c7ee	0.11805712
83	0x3e9ad58b	0.30241045
84	0x3cbe6428	0.023241118
85	0x3d616da3	0.0550362
86	0xba25906f	-0.0006315773
87	0xbcafad90	-0.021445066
88	0xbd36a3d7	-0.044589844
89	0xbdde9114	-0.10867515
90	0x3da7d773	0.081953906
91	0x3e31e0b3	0.17370872
92	0x3d6d467c	0.057928547
93	0xbc80b769	-0.015712457
94	0xbe121cf3	-0.14268856
95	0xbe7fb589	-0.24971594
96	0x3dc893f3	0.09793844
97	0x3de16cf4	0.11007109
98	0xbb903b4e	-0.004401601
99	0xbe0b0ed0	-0.1357987
100	0x3e5f40c0	0.21802044
101	0x3e37790c	0.1791727
102	0xbd052b45	-0.03251197
103	0xbd40f413	-0.047107767
104	0x3d31776f	0.04332679
105	0xbb8c14a7	-0.004274923
106	0x3c9310a9	0.01795228
107	0x3e146076	0.14489922
108	0x3c66811c	0.014068868
109	0x3d0c8b68	0.034312636
110	0xbe67ff2c	-0.22655934
111	0xbdd35e45	-0.10320715
112	0xbde23f5f	-0.11047243
113	0x3e22a8a4	0.15884644
114	0x3e776330	0.24158931
115	0xbe1afefe	-0.15136334
116	0xbddfa5e3	-0.10920312
117	0x3b882435	0.004154707
118	0xbd31ed0d	-0.04343896
119	0xbcd55ecc	-0.02604618
120	0xbdffc310	-0.12488377
121	0x3cc54303	0.024079805
122	0x3e2ae5b0	0.16689181
123	0x3d1cef3e	0.038314097
124	0x3e3e32e5	0.18574102
125	0xbae1ede1	-0.0017237031
126	0xbd907722	-0.07053973
127	0xbe2c5e86	-0.16832933
128	0x3e89fe1d	0.26951686
129	0x3e9f26b3	0.31084213
130	0x3da6b44c	0.08139858
131	0xbd096c7b	-0.03355072
132	0x3d5ea6d0	0.054358304
133	0xbded31b8	-0.11581749
134	0x3dba7635	0.091045775
135	0x3eb13f65	0.3461868
136	0xbde15368	-0.110022366
137	0xbecc1093	-0.39856395
138	0xbd1d4253	-0.03839333
139	0xbd0987c8	-0.033576757
140	0xbd4a5b2c	-0.049403355
141	0xbd7badb0	-0.06144494
142	0xbcdda848	-0.027057782
143	0x3e230ca7	0.15922795
144	0x3e2512a0	0.16120386
145	0xbe31dde2	-0.17369798
146	0xbe2aac44	-0.16667277
147	0xbcdc83e1	-0.026918354
148	0xbe245c2c	-0.16050786
149	0xbe5a8706	-0.2134057
150	0xbc0a21f9	-0.008430951
151	0x3e1ec994	0.15506583
152	0xb97bf8f8	-0.00024029973
153	0x3e26e16f	0.16296934
154	0x3d2fbd52	0.04290516
155	0x3e7d4540	0.24733448
156	0xbcb3e8eb	-0.02196165
157	0x3e254c6e	0.16142437
158	0x3e0774bb	0.13228123
159	0x3ddac0dd	0.10681317
160	0x3cbb4b72	0.022863124
161	0x3c8b31b4	0.016991474
162	0x3e4e9294	0.20173103
163	0xbd9b08fa	-0.075700715
164	0x3c3fc39e	0.011704354
165	0xbdc80866	-0.09767227
166	0x3dcb9ebf	0.09942388
167	0xbe03bd3d	-0.12865157
168	0xbef723ac	-0.48269403
169	0x3db149c3	0.08656647
170	0xbc0cded8	-0.008598052
171	0xbd51699b	-0.051126104
172	0xbd45669b	-0.048193555
173	0xbeaceae3	-0.33772954
174	0x3b255645	0.0025228423
175	0xbd41201d	-0.047149766
176	0x3e08c20a	0.1335527
177	0xbc5f9c3a	-0.013648087
178	0x3dfb167c	0.12260148
179	0x3dec69a0	0.11543584
180	0xbe2b433d	-0.16724868
181	0xbd8296a6	-0.0637639
182	0xbd9acabb	-0.07558199
183	0x3d5bd91f	0.05367386
184	0xbdc05476	-0.0939111
185	0x3dc94c93	0.098290585
186	0xbd845aee	-0.06462656
187	0x3dc27b02	0.09496118
188	0xbd92542b	-0.0714496
189	0x3e0f6289	0.14002432
190	0x3d559513	0.05214412
191	0x3be3e0c3	0.006954284
192	0xbd2d62b4	-0.04233046
193	0x3e53b4e9	0.2067448
194	0x3c3860f1	0.011253581
195	0xbe498330	-0.1967895
196	0xbee3a0ec	-0.4445871
197	0xbba9b0d2	-0.0051785493
198	0x3d944097	0.07238882
199	0x3eeefe8b	0.46678576
200	0xbf343b14	-0.70402646
201	0x3d4832bf	0.04887652
202	0xbd1718f6	-0.03688904
203	0xbead35be	-0.33830065
204	0xbddd1d4a	-0.10796602
205	0x3e867211	0.262589
206	0x3df99914	0.121874005
207	0x3cf49255	0.029854933
208	0xbe51d284	-0.20490462
209	0xbd97e997	-0.074176006
210	0xbd0fb1c2	-0.035081632
211	0x3da91bf6	0.08257286
212	0xbc9986ad	-0.018740976
213	0x3cecceca	0.028907198
214	0xbd9ddd97	-0.077082805
215	0xbca118fb	-0.019665232
216	0xbc6ec637	-0.014573625
217	0xbe30b13d	-0.17255111
218	0x3cd3dce6	0.025862169
219	0xbc357c68	-0.011077024
220	0xbdad5e4e	-0.08465253
221	0xbba911ad	-0.005159578
222	0xbc4b38b0	-0.012403652
223	0x3de76e76	0.113003656
224	0x3e382283	0.17981915
225	0xbd15a004	-0.036529556
226	0xbe8d4b8d	-0.27596703
227	0x3d936bf9	0.071983285
228	0x3cb430bf	0.0219959
229	0x3e477a1e	0.19480178
230	0xbda89da0	-0.082331896
231	0x3eadc2db	0.33937725
232	0xbc937f45	-0.018005023
233	0x3de7cef3	0.11318769
234	0x3ce3eaa0	0.027821839
235	0x3dd50b3c	0.104025334
236	0xbe0ba24b	-0.13636129
237	0x3e9babed	0.30404606
238	0xbbb87790	-0.0056294873
239	0xbd02ec2a	-0.031963505
240	0x3d495e44	0.049162164
241	0x3adf7f12	0.001705142
242	0xba0b9ac8	-0.00053254934
243	0x3d41d2bc	0.047320113
244	0xbce027f6	-0.027362805
245	0x3e2c0f04	0.16802603
246	0x3e1fbba6	0.15598926
247	0x3d9bf16f	0.07614409
248	0xbe0266fe	-0.12734601
249	0xbdc2b8ed	-0.09507928
250	0xbd31f953	-0.043450665
251	0x3d69175d	0.056907047
252	0x3ea70788	0.32622933
253	0xbdad3993	-0.08458247
254	0xbe04a84e	-0.12954828
255	0x3d18fce9	0.03735057

shared_layers.0.bias f4 [64]
0	0x3d95ecc7	0.07320552
1	0x3cacd352	0.02109686
2	0x3d472dc2	0.048627622
3	0x3d184c75	0.03718229
4	0xbdc9a170	-0.09845245
5	0x3d1d9f04	0.038481727
6	0xbd398cf2	-0.04530043
7	0x3d91d0c5	0.07119898
8	0x3db62999	0.08894653
9	0xbba0f79a	-0.004912329
10	0x3d7bc889	0.061470542
11	0xbd8bd5c4	-0.06827882
12	0xbd15c96d	-0.036569048
13	0xbcd15f7e	-0.02555823
14	0xbd886162	-0.06659199
15	0x3d81b6bd	0.06333683
16	0xbd134b51	-0.0359605
17	0x3d7a82bb	0.06115983
18	0xba9a3ec6	-0.0011767976
19	0xbd912970	-0.07087982
20	0xbd9ca848	-0.076492846
21	0x3d18ff5b	0.0373529
22	0xbd9d9026	-0.0769351
23	0x3dc3755a	0.095438674
24	0x3d7b8a19	0.061410997
25	0x3d31dc0b	0.04342274
26	0x3d747627	0.05968299
27	0x3ca372ca	0.019952197
28	0xbd6a4f5c	-0.05720459
29	0x3dbcb935	0.09215013
30	0x3d3dee48	0.04636982
31	0x3d148488	0.036259204
32	0xbd2de6b2	-0.042456336
33	0xbd61c488	-0.055119067
34	0x3dba50ad	0.09097419
35	0x3d9fdd55	0.078058876
36	0xbdb96b39	-0.09053654
37	0xbc6251be	-0.013813434
38	0xbd10df5b	-0.03536926
39	0x3d7ee8ef	0.06223386
40	0x3d179311	0.037005488
41	0xbda6a914	-0.08137718
42	0xbd5c77be	-0.053825133
43	0xbcfa55ac	-0.03055843
44	0x3d8b5a7f	0.0680437
45	0x3d7b0d7e	0.061292164
46	0xbcc6c1a4	-0.024262257
47	0x3cf8291b	0.030293038
48	0x3d92c422	0.071663156
49	0xbd1b8cad	-0.037975956
50	0xbb97c33c	-0.004631428
51	0xbe020757	-0.12698112
52	0xbd128ead	-0.035780597
53	0x3d9ef4c7	0.07761531
54	0x3db5165a	0.08842154
55	0x3e14ff61	0.14550544
56	0xbd5d182b	-0.053978126
57	0x3d7e026e	0.062014036
58	0xbd88acfe	-0.06673621
59	0x3d70d861	0.058800105
60	0x3e2ac6f5	0.16677459
61	0x3ac2e38d	0.0014868841
62	0x3bf3253b	0.0074202097
63	0x3d1f2db4	0.038861945

shared_layers.1.weight f4 [64]
0	0x3ea074ca	0.31339103
1	0x3f052522	0.52009785
2	0x3ee82e21	0.45347694
3	0x3ee3ad07	0.44467947
4	0x3f463801	0.77429205
5	0x3ee6bf38	0.45067763
6	0x3f269c4e	0.6508225
7	0x3ea5aea4	0.32359803
8	0x3eb686a4	0.35649598
9	0x3ef0ebc5	0.47054878
10	0x3ef7ed8e	0.48423427
11	0x3f0c1f2d	0.5473507
12	0x3f209a70	0.6273565
13	0x3f2a9073	0.6662666
14	0x3eefd1cf	0.4683976
15	0x3e91a958	0.28449512
16	0x3f09b62a	0.53793585
17	0x3ea4d88e	0.32196468
18	0x3f181f4f	0.59422773
19	0x3f21b68a	0.6316916
20	0x3f124b9d	0.57146627
21	0x3ec8ed9d	0.39243785
22	0x3f2dd6f0	0.67906094
23	0x3e98ba9f	0.2982988
24	0x3ec70a68	0.38875127
25	0x3ece07e0	0.40240383
26	0x3f044a70	0.5167608
27	0x3f06abfc	0.5260618
28	0x3f29efff	0.6638183
29	0x3ee19a0b	0.44062838
30	0x3ea4dcba	0.3219965
31	0x3f1a48c2	0.6026727
32	0x3f111d66	0.56685483
33	0x3edee09f	0.43530747
34	0x3eb568b7	0.35431454
35	0x3eda4d98	0.42637324
36	0x3f02e4a9	0.5113016
37	0x3ebadc4f	0.36496207
38	0x3f03e0cd	0.51514894
39	0x3e9a6354	0.30153906
40	0x3f05b3f1	0.52227694
41	0x3f10c941	0.5655709
42	0x3ef992c4	0.48744786
43	0x3ebd3046	0.36950892
44	0x3ebb7c0d	0.3661808
45	0x3eb77e6f	0.3583865
46	0x3f0f8cbe	0.5607413
47	0x3ef8690c	0.48517644
48	0x3ebaac8c	0.36459768
49	0x3f024ad3	0.5089542
50	0x3efe72d3	0.4969698
51	0x3f3984ab	0.7246806
52	0x3ef76839	0.48321703
53	0x3ed9eba6	0.42562598
54	0x3eb57928	0.35443997
55	0x3e5cca7e	0.2156162
56	0x3f1eefa0	0.6208439
57	0x3ec0910c	0.37610662
58	0x3f259355	0.64677936
59	0x3eae34fb	0.34024796
60	0x3eaa0929	0.33210114
61	0x3eeeb566	0.4662277
62	0x3f09a145	0.537617
63	0x3f1111f9	0.5666805

shared_layers.1.bias f4 [64]
0	0xbec181b1	-0.3779426
1	0xbe66d172	-0.22540835
2	0xbe7d15c1	-0.2471533
3	0xbe7e9130	-0.24860072
4	0xbe1c9b88	-0.15293705
5	0xbe3da850	-0.18521237
6	0xbe93196f	-0.28730342
7	0xbe33422a	-0.17505708
8	0xbe8ae1d5	-0.2712542
9	0xbe643b47	-0.22288238
10	0xbe986193	-0.29761943
11	0xbe1e6f5f	-0.15472172
12	0xbea415f1	-0.3204799
13	0xbe6aba4e	-0.22922632
14	0xbe59cc35	-0.21269305
15	0xbe62d09d	-0.22149892
16	0xbe23d499	-0.15999068
17	0xbeaef7a1	-0.341733
18	0xbe595e38	-0.21227348
19	0xbe04da78	-0.12973964
20	0xbe53843d	-0.20655914
21	0xbea0456e	-0.3130297
22	0xbe8227df	-0.25421044
23	0xbe9b970f	-0.30388686
24	0xbe29f655	-0.16597874
25	0xbebb0ca0	-0.3653307
26	0xbe3d5f55	-0.18493398
27	0xbe855e3c	-0.26048458
28	0xbe8e9efb	-0.27855667
29	0xbe81940c	-0.25308263
30	0xbe748ccc	-0.23881835
31	0xbea570a0	-0.3231249
32	0xbe39fc4e	-0.18162653
33	0xbe8b5a3d	-0.27217284
34	0xbeaa407b	-0.3325232
35	0xbe8a56a3	-0.27019224
36	0xbe6c6e2b	-0.230889
37	0xbeb0e2c7	-0.34548017
38	0xbe87ab85	-0.26498047
39	0xbea6a267	-0.32545778
40	0xbe3d46ad	-0.18483992
41	0xbe2b3b49	-0.16721834
42	0xbe86fc2d	-0.2636427
43	0xbe80787f	-0.2509193
44	0xbe85db50	-0.26143885
45	0xbe9256d5	-0.28581873
46	0xbe5231fc	-0.2052688
47	0xbe82c687	-0.2554209
48	0xbe5dc223	-0.21656089
49	0xbe4a6c7a	-0.19767943
50	0xbe2e8dbe	-0.17046258
51	0xbe2e61e7	-0.17029534
52	0xbe8310c0	-0.25598717
53	0xbdfb76fb	-0.12278553
54	0xbe7ae27d	-0.24500461
55	0xbe509af6	-0.20371613
56	0xbe8541f9	-0.26026896
57	0xbe845a8c	-0.25850332
58	0xbe6c9ff8	-0.23107898
59	0xbddb1cea	-0.10698874
60	0xbe68e5b7	-0.2274388
61	0xbe2dfcba	-0.16990939
62	0xbe0d38d0	-0.13791203
63	0xbe6d9c43	-0.2320414

shared_layers.4.weight f4 [24, 64]
0	0xbe430a64	-0.19046932
1	0x3dd5ff4f	0.10449087
2	0xbd4982ae	-0.04919689
3	0xbddd93a6	-0.10819177
4	0x3d9581f4	0.07300177
5	0xbd4fec26	-0.050762318
6	0xbd6288bf	-0.055306192
7	0x3d9d1f9e	0.07672046
8	0xbe0ee8d3	-0.13956003
9	0xbc7657bb	-0.015035565
10	0xbca09f1f	-0.019607125
11	0xbe0c8c83	-0.13725476
12	0xbe2cc68a	-0.16872612
13	0x3e255454	0.1614545
14	0x3dd11640	0.10209322
15	0xbdb95301	-0.09049035
16	0x3e26ba68	0.16282046
17	0xbe7a01a9	-0.24414696
18	0x3e17b794	0.14816123
19	0xbd9b177e	-0.0757284
20	0xbe4c1126	-0.19928417
21	0x3d373b19	0.044734094
22	0xbd459bd6	-0.04824432
23	0xbe27b084	-0.16375929
24	0xbbb8bb2c	-0.005637547
25	0xbd072cf7	-0.033001866
26	0x3e2dd1cd	0.16974564
27	0xbccd7159	-0.025078462
28	0xbddde336	-0.10834353
29	0x3da6a892	0.08137621
30	0xbc38e6ef	-0.011285528
31	0x3d5dae8e	0.054121546
32	0x3d01da4b	0.03170232
33	0xbdc0f785	-0.094222106
34	0xbe7f6f7c	-0.24944872
35	0x3e0d6fc8	0.13812172
36	0x3c7e0427	0.01550392
37	0x3c92f894	0.017940797
38	0x3da8166e	0.08207403
39	0xbe240ad0	-0.1601975
40	0x3da78f86	0.08181672
41	0x3d2605df	0.040532943
42	0x3cfdeebc	0.030997626
43	0xbd237d68	-0.03991452
44	0xbd1f6e96	-0.038923822
45	0x3c38b207	0.011272914
46	0x3d85c012	0.06530775
47	0xbcfc121a	-0.03077035
48	0xbd84ef5d	-0.064909674
49	0x3d6192d6	0.055071674
50	0xbd95a806	-0.073074386
51	0x3d0f3fff	0.03497314
52	0x3c9c5a69	0.01908608
53	0x3e224a8d	0.15848751
54	0x3d890c18	0.0669176
55	0xbde95e4a	-0.11394937
56	0xbdc699d0	-0.09697306
57	0x3b843a72	0.0040352875
58	0x3db8c84a	0.09022577
59	0x3da28c33	0.07936897
60	0x3dd7f7bf	0.10545301
61	0x3d846b69	0.06465799
62	0x3db9bd42	0.09069301
63	0x3e232f62	0.15936044
64	0x3da57846	0.08079581
65	0x3e071704	0.13192374
66	0xbd68734e	-0.056750588
67	0x3cd83bc6	0.02639569
68	0xbe6e8c3e	-0.23295686
69	0x3e39fb47	0.18162261
70	0x3ea511bb	0.3224009
71	0xbd81556c	-0.06315121
72	0xbd0d4867	-0.034492876
73	0xbe3b3b54	-0.1828435
74	0x3dc1e5fe	0.09467696
75	0x3e4011c9	0.18756784
76	0x3ddfef71	0.10934342
77	0xbe9a5dcb	-0.30149683
78	0xbd8d05c8	-0.06885868
79	0x3e2dc7ad	0.16970702
80	0xbde2e700	-0.11079216
81	0x3bb18c7b	0.005418358
82	0x3e1e5255	0.15461095
83	0x3de1d651	0.11027206
84	0x3e3bbaef	0.18333028
85	0x3d08150f	0.033223208
86	0xbe8b0882	-0.27154928
87	0x3b88a467	0.004169989
88	0x3c779cfa	0.01511311
89	0xbd110eb2	-0.035414405
90	0xbe1a1031	-0.15045239
91	0xbd810d18	-0.063013256
92	0xbd1d1031	-0.03834552
93	0x3df78a37	0.12086909
94	0x3e0c4fcb	0.13702314
95	0xbe2a3108	-0.16620266
96	0xbda7ff4c	-0.08202991
97	0x3d686ad3	0.0567425
98	0xbca22e9f	-0.019797621
99	0x3e55b518	0.20869863
100	0xbe22f695	-0.15914376
101	0x3e631b71	0.22178437
102	0xbe40ad1b	-0.18816034
103	0x3d11af82	0.035567768
104	0x3e2c4ea5	0.16826876
105	0xbddb35c9	-0.10703618
106	0xbe0dcf5c	-0.13848633
107	0xbe6f8c50	-0.23393369
108	0xbde8daff	-0.11369895
109	0x3dddd5d4	0.108318
110	0xbdb60729	-0.088880844
111	0x3cbdccf2	0.023169015
112	0x3d002c95	0.031292517
113	0x3d150eb1	0.036390964
114	0x3d21c3bf	0.03949332
115	0xbe649fde	-0.2232661
116	0x3e83f115	0.25769868
117	0xbda8dcc7	-0.08245235
118	0x3d580374	0.05273767
119	0x3db49963	0.08818319
120	0xbe0fc93d	-0.1404161
121	0x3e7a297a	0.24429885
122	0xbe848bed	-0.25888005
123	0x3d90c7e0	0.07069373
124	0x3d5b2521	0.053502206
125	0x3dc896e6	0.097944066
126	0xbe60095d	-0.21878572
127	0xbdbec19e	-0.09314273
128	0xbd960b0c	-0.07326326
129	0xbe6778ea	-0.22604719
130	0x3e1fc085	0.15600784
131	0x3d9ed6e5	0.07755832
132	0x3e6e4979	0.23270215
133	0x3e7d41fe	0.24732205
134	0xbe46c091	-0.19409396
135	0xbdf56c23	-0.11983516
136	0x3e322f8c	0.1740095
137	0x3e20df89	0.15710272
138	0x3dad62a5	0.084660806
139	0x3e023f5e	0.12719485
140	0x3da9dcb0	0.08294046
141	0xbc92916b	-0.017891606
142	0xbe38c4c1	-0.18043806
143	0xbd2ad6ba	-0.041708685
144	0x3c69079f	0.014223008
145	0xbaad551f	-0.0013224221
146	0xbe807b4b	-0.25094065
147	0xbdad2504	-0.08454326
148	0x3d0653e6	0.032794856
149	0x3dabe8ef	0.08394038
150	0xbbe133f3	-0.006872648
151	0xbd0fdd55	-0.035123188
152	0x3dab2f7f	0.083586685
153	0xbd98e1c2	-0.07464935
154	0xbc199498	-0.009373806
155	0xbe47de06	-0.19518289
156	0x3d1299a5	0.035791058
157	0x3bcdf7f6	0.0062856628
158	0xbd2a8387	-0.04162934
159	0x3e9ae80e	0.3025517
160	0xbe2a8b54	-0.16654712
161	0x3ae2e95a	0.0017311976
162	0xbd144b06	-0.03620436
163	0x3e2ba6f1	0.16762902
164	0x3e963e99	0.29344633
165	0x3d63d21b	0.055620294
166	0xbd1c2efb	-0.03813074
167	0xbc7c01fc	-0.0153813325
168	0xbde96148	-0.11395508
169	0x3d60254d	0.054723073
170	0x3d89daf3	0.067312144
171	0xbd12efc1	-0.03587318
172	0x3db9b161	0.090670355
173	0x3ce7383a	0.028225053
174	0x3d9b01a4	0.07568672
175	0x3e063808	0.13107312
176	0xbcb8bc1c	-0.022550635
177	0xbd10f67f	-0.035391327
178	0xbddc5365	-0.10758094
179	0xbd34878e	-0.044074588
180	0x3d8d914b	0.06912478
181	0xbd996318	-0.07489604
182	0xbdc932d2	-0.09824146
183	0x3df09111	0.11746419
184	0x3e1492b4	0.14509088
185	0x3d2e0ffe	0.04249572
186	0x3c9ac7db	0.018894127
187	0x3c0d3f16	0.008620998
188	0xbd5e0665	-0.054205317
189	0xbdb98767	-0.09059029
190	0xbe4d6ade	-0.20060298
191	0xbe1f83ae	-0.15577576
192	0xbe4a1308	-0.19733822
193	0xbe4c824d	-0.19971581
194	0x3d619da4	0.05508198
195	0xbd67237f	-0.056430336
196	0x3e011fa6	0.12609729
197	0x3ca9d2b6	0.020730358
198	0xbd3d95c2	-0.0462854
199	0x3d9a24cd	0.075265504
200	0xb98d828f	-0.0002699089
201	0xbda0a312	-0.07843603
202	0x3e28ae37	0.16472708
203	0xbd51728b	-0.051134627
204	0xbb376a13	-0.002798681
205	0x3d6ecef4	0.058302835
206	0x3d85531c	0.065099925
207	0xbdfdeb50	-0.12398398
208	0x3e461002	0.19342044
209	0xbe6f12f3	-0.23347072
210	0x3db8b2f7	0.0901851
211	0xbe2b0dea	-0.16704527
212	0xbd473ac3	-0.048640024
213	0x3b873751	0.0041264673
214	0xbd90976b	-0.07060131
215	0xbdf5c54b	-0.12000521
216	0x3d9615e0	0.07328391
217	0xbc990fee	-0.018684354
218	0x3deaea67	0.1147049
219	0xbc7aae51	-0.015300349
220	0x3cf0e2b3	0.029404974
221	0x3e2e36db	0.17013113
222	0xbdf7d791	-0.12101663
223	0x3d49d6c9	0.0492771
224	0x3e24a6b1	0.16079213
225	0xbcf7746f	-0.030206887
226	0xbdb45997	-0.088061504
227	0xbd0257e0	-0.031822085
228	0x3d637a37	0.055536475
229	0x3e16a80b	0.14712541
230	0x3e35a2e6	0.17737922
231	0xbd40af97	-0.047042456
232	0x3e6613c9	0.22468485
233	0x3e281221	0.16413166
234	0xbdd15dbf	-0.10222959
235	0xbe127b42	-0.14304832
236	0x3cdf5b10	0.027265102
237	0xbe34a6e3	-0.17641787
238	0x3dc780d9	0.097413726
239	0x3aef5e32	0.0018262325
240	0x3c824fb0	0.015907139
241	0xbd6b9162	-0.057511695
242	0xbd53ce6e	-0.05171054
243	0x3c7a2bec	0.015269261
244	0xbdc8d25e	-0.09805749
245	0x3dd15e4f	0.10223066
246	0x3d91792d	0.071031906
247	0xbe1edc38	-0.15513694
248	0xbd224977	-0.039620843
249	0x3e1f5db9	0.15563096
250	0xbd89aa6e	-0.0672196
251	0x3dc7b5b1	0.09751452
252	0xbe13571b	-0.14388697
253	0x3c174f69	0.009235241
254	0x3d934b0e	0.0719205
255	0x3e255e7f	0.16149329

shared_layers.4.bias f4 [24]
0	0xbafa34e3	-0.0019089248
1	0xbbb1112f	-0.00540366
2	0x3cb456c7	0.022014035
3	0xbd1ac686	-0.037786983
4	0x3d2332c8	0.03984335
5	0x3ca63ace	0.020291712
6	0xbd013d4b	-0.031552594
7	0xbbbd6afe	-0.0057805767
8	0xbca73afc	-0.020413868
9	0x3c616d95	0.013759037
10	0x3d0b9be7	0.034084227
11	0xbd17f856	-0.037102066
12	0x3d7b9620	0.061422467
13	0xbcaab4c3	-0.020838147
14	0xba8b477c	-0.0010626162
15	0x3b8099ba	0.0039245756
16	0xbd1ab45d	-0.037769664
17	0x3db2b4c0	0.087258816
18	0xbd08bb7d	-0.033381928
19	0x3c05e4de	0.008172242
20	0x3cec5033	0.028846836
21	0x3d6ccf58	0.057814926
22	0xbb976096	-0.0046196682
23	0x3d9ac82f	0.07557713

shared_layers.5.weight f4 [24]
0	0x3f8d78c1	1.1052476
1	0x3f5c9e59	0.8617912
2	0x3f44379c	0.76647353
3	0x3f848828	1.0354052
4	0x3f3fed3f	0.74971384
5	0x3f583753	0.8445942
6	0x3f54b3a0	0.83086586
7	0x3f3d4de6	0.7394699
8	0x3f88b57f	1.0680388
9	0x3f4d4cd2	0.80195343
10	0x3f7c5742	0.98570645
11	0x3f5cdb52	0.86272156
12	0x3f2f6cdb	0.68525475
13	0x3f653f84	0.8955004
14	0x3f867f42	1.0507586
15	0x3f536dce	0.82589424
16	0x3f7e7bad	0.99407464
17	0x3f286145	0.6577342
18	0x3f69a4a5	0.9126685
19	0x3f664598	0.8994994
20	0x3f717ad1	0.9432803
21	0x3f5510ba	0.8322865
22	0x3f76f865	0.9647277
23	0x3f1dce38	0.6164279

shared_layers.5.bias f4 [24]
0	0x3e33da6a	0.17563787
1	0xbde63d54	-0.11242166
2	0xbd16b4f8	-0.03679368
3	0x3d994b22	0.074850336
4	0xbc99fb50	-0.018796593
5	0xbe06a163	-0.13147502
6	0xbd30bc34	-0.043148234
7	0xbc2a3a57	-0.010389886
8	0xbdfa1cc1	-0.122125156
9	0xbdb21edc	-0.08697292
10	0x3d12d968	0.035851866
11	0x3dc309ce	0.095233545
12	0xbde38f21	-0.11111284
13	0x3d32459d	0.04352342
14	0x3e0ec771	0.13943268
15	0xbd4be325	-0.04977717
16	0xbd208e41	-0.039198164
17	0xbe280f6e	-0.16412136
18	0x3c0d3e94	0.008620877
19	0x3d2cf3b7	0.042224612
20	0xbd90b029	-0.0706485
21	0xbdfdbaa5	-0.12389115
22	0x3d323195	0.043504316
23	0xbda7ba71	-0.08189858

algorithm_heads.0.weight f4 [1, 24]
0	0xbea3ed16	-0.3201682
1	0x3e1204cb	0.14259641
2	0xbc8bd445	-0.017068991
3	0xbec77b76	-0.3896138
4	0x3e5bd0c3	0.21466355
5	0x3de349ff	0.11098098
6	0x3e4d1999	0.20029296
7	0xbe79fef4	-0.24413663
8	0xbe03f381	-0.12885858
9	0x3dd88785	0.10572723
10	0x3e5e9564	0.21736676
11	0xbea607c0	-0.32427788
12	0x3ebdd856	0.37079114
13	0x3e33c914	0.17557174
14	0xbec56208	-0.38551354
15	0xbd7f5133	-0.062333297
16	0xbd85763f	-0.06516694
17	0x3edeaae1	0.43489745
18	0xbed8956d	-0.42301503
19	0x3ed55f05	0.41674057
20	0xbeb88529	-0.36039093
21	0xbdc2de35	-0.09515039
22	0xbef9451e	-0.48685545
23	0x3e3ead3c	0.18620771

algorithm_heads.1.weight f4 [1, 24]
0	0x3edf29cb	0.43586573
1	0xbcaf1536	-0.021372419
2	0xbed2a97f	-0.4114494
3	0x3f11e869	0.56995255
4	0x3ef049fe	0.46931452
5	0xbecd5835	-0.4010636
6	0xbdd8b358	-0.10581082
7	0xbc45cecc	-0.01207323
8	0xbf2af811	-0.6678477
9	0x3e6cf4f4	0.23140317
10	0x3f2cf561	0.6756192
11	0x3e4276ff	0.18990706
12	0x3e6e4740	0.23269367
13	0xbb865c24	-0.0041003395
14	0x3ee004e3	0.43753728
15	0xbdbc27af	-0.091872565
16	0x3c8f56ca	0.017497439
17	0x3d11bcd1	0.03558046
18	0xbe2355d8	-0.15950716
19	0x3e86c105	0.26319137
20	0x3eac256a	0.33622295
21	0x3ec265ce	0.37968296
22	0x3e2765e3	0.1634746
23	0x3e6025d7	0.21889435

algorithm_heads.2.weight f4 [1, 24]
0	0x3c686c2d	0.014185947
1	0xbe13c87a	-0.14431944
2	0xbd4d5287	-0.050127532
3	0x3bfd7a6b	0.0077355406
4	0x3e88edb8	0.26743865
5	0x3e319080	0.17340279
6	0xbeb75444	-0.35806477
7	0x3e5d11b4	0.21588784
8	0x3e6e5091	0.23272921
9	0xbe11923c	-0.1421594
10	0x3e1c1812	0.15243557
11	0xbe0ae5dc	-0.13564247
12	0x3ea56798	0.32305598
13	0x3ea7e839	0.3279436
14	0xbcf40787	-0.029788746
15	0xbd9417a5	-0.07231072
16	0x3e9379e4	0.28803933
17	0xbe48bf42	-0.19604209
18	0x3e4afb76	0.19822487
19	0xbd837a03	-0.06419756
20	0xbe9f7a22	-0.31147867
21	0x3e122fef	0.14276098
22	0xbba62a7c	-0.0050709825
23	0x3df399f1	0.11894596

algorithm_heads.3.weight f4 [1, 24]
0	0xbe48f890	-0.19626069
1	0x3dda086a	0.10646136
2	0xbe9d7e98	-0.30760646
3	0xbe9fb29a	-0.3119095
4	0xbdce89c9	-0.10084874
5	0xbeed10b0	-0.46301794
6	0x3f182eb7	0.5944628
7	0x3dcc0e32	0.09963645
8	0xbe51e6e9	-0.20498241
9	0x3e1463e0	0.14491224
10	0xbeb9f63a	-0.36320668
11	0xbe55db11	-0.20884348
12	0x3e61166d	0.21981211
13	0xbefd264b	-0.49443278
14	0xbe637adb	-0.22214834
15	0x3dc94938	0.098284185
16	0x3ee4bfc9	0.4467757
17	0x3e99705c	0.29968536
18	0x3dd335de	0.10313009
19	0xbe4c51c4	-0.19953066
20	0xbdc06ee4	-0.09396151
21	0xbe901347	-0.28139707
22	0xbe6f680b	-0.23379533
23	0x3d9ed076	0.077546045

algorithm_heads.4.weight f4 [1, 24]
0	0x3e0ef3c8	0.13960183
1	0xbefa4448	-0.4888022
2	0x3e9f6c47	0.31137297
3	0x3e0695aa	0.1314303
4	0x3dd33a2a	0.10313828
5	0xbdf5542b	-0.119789444
6	0x3c94c0e4	0.018158384
7	0x3eb05f05	0.34447494
8	0x3edf358c	0.4359554
9	0xbecfb0e4	-0.40564644
10	0xbcae1604	-0.021250732
11	0x3d958641	0.073009975
12	0xbbc102e3	-0.0058902367
13	0xbbf2a9a6	-0.0074054776
14	0x3e013a6e	0.12619945
15	0xbde06990	-0.109576344
16	0xbd5e0873	-0.054207277
17	0xbe9ba97f	-0.30402753
18	0xbd842f99	-0.06454391
19	0xbdfd0053	-0.123535775
20	0x3ce73de1	0.028227748
21	0x3de1b733	0.110212706
22	0x3db42dd9	0.08797807
23	0x3e6f81b8	0.23389328

algorithm_heads.5.weight f4 [1, 24]
0	0x3e6e5f61	0.23278572
1	0xbeaebd5c	-0.34128845
2	0xbd91082c	-0.07081637
3	0x3e1f7e03	0.15575413
4	0x3d846ea6	0.06466417
5	0x3e916f6a	0.28405315
6	0xbef3c349	-0.47609928
7	0xbe795853	-0.243501
8	0xbceee495	-0.02916173
9	0xbd9d3366	-0.07675819
10	0x3e198bfa	0.14994803
11	0x3de51096	0.11184804
12	0xbe2f6b4b	-0.17130773
13	0x3cd50e92	0.026007924
14	0x3e4b6886	0.19864091
15	0x3e27d9d6	0.16391692
16	0x3e4debc6	0.20109472
17	0x3d7e2a74	0.062052205
18	0xbd849d48	-0.064753115
19	0xbe360325	-0.17774637
20	0xbcecd1ad	-0.028908575
21	0x3e8b4b7e	0.27206033
22	0x3e27b6ce	0.16378328
23	0x3e3c2698	0.18374097

algorithm_heads.6.weight f4 [1, 24]
0	0x3e571b09	0.21006407
1	0xbd601683	-0.05470897
2	0x3e74cf0f	0.23907112
3	0x3f03a1d9	0.51418835
4	0xbeb9d16f	-0.36292598
5	0x3d35f7db	0.044425827
6	0x3e00c0dd	0.12573572
7	0x3d2759e5	0.040857214
8	0x3e995232	0.29945523
9	0xbda3c86a	-0.0799721
10	0x3e2335b5	0.15938456
11	0x3ef8842d	0.48538342
12	0xbe11b7ba	-0.14230242
13	0x3e04807a	0.12939635
14	0x3e7c1339	0.24616708
15	0xbd1b232a	-0.037875332
16	0x3e1fbfd6	0.15600523
17	0x3cba367d	0.02273106
18	0x3e55adb8	0.2086705
19	0x3d898746	0.067152545
20	0x3e38acd6	0.18034682
21	0xbf0e376d	-0.55553323
22	0x3c078e55	0.008273681
23	0xbe8cc24d	-0.2749199

algorithm_heads.7.weight f4 [1, 24]
0	0xbecd2f19	-0.40074995
1	0xbee19b34	-0.44063723
2	0xbe9df916	-0.308541
3	0xbed4d2a0	-0.41566944
4	0xbe986fca	-0.29772788
5	0x3ccd5550	0.025065094
6	0x3e8b6f05	0.2723314
7	0x3c895f62	0.016769115
8	0x3e2377f4	0.15963727
9	0x3ec4518e	0.3834347
10	0x3c2a1bf3	0.01038264
11	0xbdd06b95	-0.1017677
12	0xbe20c007	-0.15698253
13	0xbf23337c	-0.63750434
14	0xbec800bb	-0.39063057
15	0xbf4b9073	-0.79517287
16	0xbf457ce2	-0.7714368
17	0x3e4050fc	0.18780893
18	0x3effd242	0.499651
19	0xbf15c851	-0.58508784
20	0x3f165dec	0.58737063
21	0x3d89b2a5	0.06723527
22	0xbf0b376e	-0.54381454
23	0x3d10218a	0.035188235

algorithm_heads.8.weight f4 [1, 24]
0	0xbedc8eb6	-0.4307763
1	0x3eb9e010	0.3630376
2	0x3e8a47bf	0.27007863
3	0xbe846d46	-0.2586462
4	0x3e8d9834	0.27655184
5	0x3f11b4f2	0.56916726
6	0xbcafa681	-0.0214417
7	0xbef213e4	-0.472808
8	0xbe15e382	-0.14637569
9	0xbd2fe293	-0.042940687
10	0x3e1860af	0.14880632
11	0xbdf2b39e	-0.118506655
12	0x3dc38002	0.095459
13	0xbb2f801c	-0.002677924
14	0xbeda4432	-0.42630154
15	0x3df02f75	0.11727802
16	0xbec1de43	-0.37864885
17	0x3ed63e58	0.4184444
18	0xbf0b4446	-0.5440105
19	0x3e893cce	0.26804203
20	0xbe1cc77d	-0.15310474
21	0x3d83c2bd	0.06433628
22	0xbf254872	-0.6456367
23	0xbdfbb9d8	-0.12291306

algorithm_heads.9.weight f4 [1, 24]
0	0x3e6fc49b	0.23414843
1	0xbc87310f	-0.016502885
2	0x3e48587a	0.19565001
3	0x3e91ed23	0.28501233
4	0xbec95980	-0.39326096
5	0x3e186097	0.14880596
6	0x3cddad93	0.027060306
7	0x3d9ebea7	0.07751208
8	0x3f108367	0.56450504
9	0x3c9a72b6	0.018853527
10	0x3e9ccc8e	0.30624813
11	0x3ed6992f	0.41913745
12	0xbe7bbff7	-0.24584948
13	0x3e81be7f	0.2534065
14	0x3e8880fa	0.266609
15	0xbde80762	-0.11329533
16	0x3dba43e4	0.0909498
17	0xbd7bca6c	-0.06147234
18	0x3e4addf1	0.19811226
19	0x3dfb45d0	0.12269175
20	0x3d865a92	0.06560244
21	0xbed48e1f	-0.4151468
22	0xbbf94c5d	-0.00760798
23	0xbe79b9f9	-0.24387349

algorithm_heads.10.weight f4 [1, 24]
0	0xbd5c78e3	-0.053826224
1	0xbf0455a3	-0.5169317
2	0x3edd7d8c	0.43259847
3	0x3bb0ef87	0.0053996476
4	0xbbb62fe4	-0.005559908
5	0xbeca145b	-0.39468655
6	0xbe286f25	-0.16448648
7	0x3dbafb03	0.09129908
8	0x3d1ca89e	0.038246743
9	0xbf13a251	-0.5766955
10	0xbe91731a	-0.28408128
11	0xbe1fadfd	-0.15593715
12	0xbea224d4	-0.31668723
13	0xbe835134	-0.2564789
14	0xbe0fa1f6	-0.14026627
15	0x3ef776a0	0.4833269
16	0x3e5c38e4	0.21506077
17	0xbe9036cf	-0.28166816
18	0x3d0c5db7	0.03426906
19	0xbdb2eced	-0.08736596
20	0xbf1b8985	-0.60756713
21	0x3e0e172a	0.13876024
22	0xbd9eff93	-0.07763591
23	0x3d996c83	0.074914
