src/automl/meta_model_test.pth (torch, 29493 bytes, 19 tensors)

shared_layers.0.weight f4 [64, 31]
0	0x3de75424	0.112953454
1	0x3e33123f	0.17487429
2	0x3de40f61	0.11135746
3	0xbd8f9224	-0.07010296
4	0xbc923e00	-0.01785183
5	0x3c4b2ba8	0.012400545
6	0xbd821a7f	-0.0635271
7	0xbe234a9d	-0.15946431
8	0x3ca31aaa	0.019910175
9	0x3e16ed16	0.14738879
10	0x3cb709da	0.022343565
11	0x3d52084d	0.051277447
12	0x3d84e60c	0.064891905
13	0x3d310b68	0.04322377
14	0x3db38311	0.08765233
15	0xbdcebe2a	-0.10094865
16	0xbd682c4d	-0.056682874
17	0xbdb47a5c	-0.08812401
18	0x3cf1998c	0.029492162
19	0x3cc6aabc	0.024251334
20	0x3d0de097	0.034638014
21	0x3c905ee4	0.017623372
22	0xbdefcb6b	-0.11708721
23	0x3c3a952b	0.0113881035
24	0x3e3130e1	0.17303802
25	0xbd4e7837	-0.050407615
26	0x3cacca4d	0.021092558
27	0xbe2680f5	-0.1626013
28	0xbdbf0f37	-0.09329074
29	0x3e281500	0.16414261
30	0xbc7bc425	-0.015366589
31	0x3d543691	0.05180985
32	0xbca46c4a	-0.020071167
33	0xbe018fbc	-0.12652487
34	0x3e171ae2	0.14756349
35	0xbdbefb24	-0.09325245
36	0x3df5425b	0.11975547
37	0x3e21b700	0.15792465
38	0x3e100e4b	0.14067952
39	0xbe060128	-0.13086379
40	0xbc7399f9	-0.014868253
41	0x3d1c1f00	0.0381155
42	0xbdc24bae	-0.09487091
43	0xbde97927	-0.11400061
44	0xbd9c6103	-0.07635691
45	0x3c267229	0.010159054
46	0xbe0d6a30	-0.13810039
47	0xbdaf0a1b	-0.08546849
48	0x3d77d3b2	0.060504623
49	0x3df5f7f4	0.12010184
50	0x3e224275	0.15845664
51	0x3e2cd45a	0.1687788
52	0x3de420ba	0.111390546
53	0xbda6c2f0	-0.0814265
54	0x3e1f6879	0.15567197
55	0x3c87a5e3	0.016558593
56	0x3d938842	0.072037235
57	0xbd939c46	-0.07207541
58	0xbdc151e4	-0.094394475
59	0x3e2dc9c0	0.16971493
60	0xbbc73810	-0.006079681
61	0xbe1a5c7e	-0.15074345
62	0x3d8186a9	0.063245125
63	0x3e3f915f	0.18707798
64	0x3da1dc6f	0.079033725
65	0xbe26c7b7	-0.16287123
66	0x3dcc5e0d	0.09978876
67	0x3decb018	0.11557025
68	0xbe293746	-0.16524991
69	0xbe095977	-0.13413034
70	0xbccd4d22	-0.025061194
71	0xbdbd47bf	-0.092422
72	0xbe3b46e4	-0.18288761
73	0xbd9d206e	-0.07672201
74	0xbd923360	-0.07138705
75	0xbe365e40	-0.17809391
76	0xbe20dcc5	-0.15709217
77	0xbd08bfe6	-0.033386134
78	0xbdfc1eb6	-0.12310545
79	0xbe2755a9	-0.1634127
80	0xbd64dc62	-0.055874236
81	0xbe0db545	-0.1383868
82	0x3d94c53d	0.07264183
83	0x3e3597a4	0.17733628
84	0xbda52431	-0.080635436
85	0xbdc4b749	-0.09605271
86	0xbdaefc90	-0.08544266
87	0x3deb2305	0.11481289
88	0x3d9a9258	0.07547444
89	0xbd893490	-0.066994786
90	0xbe2cd4a7	-0.16877995
91	0x3b5e4255	0.0033914049
92	0xbe369f9d	-0.17834325
93	0xbd86b814	-0.06578079
94	0xbe09aa09	-0.1344377
95	0x3de33d21	0.11095644
96	0x3e3e7591	0.18599536
97	0x3e424eff	0.18975447
98	0x3e2e3a4f	0.1701443
99	0xbcd53672	-0.026026938
100	0xbe097fd0	-0.13427663
101	0xbdc1a583	-0.09455397
102	0x3e1c7fcb	0.15283124
103	0xbd4ffefc	-0.05078028
104	0xbda7d052	-0.08194031
105	0xbb1c148b	-0.0023815956
106	0x3dbb0a83	0.09132864
107	0xbcdbf6e2	-0.026851121
108	0xbc8b1f63	-0.01698274
109	0x3c08d0d1	0.008350567
110	0x3d2086bb	0.03919099
111	0x3d5ba772	0.053626485
112	0xbdc3e0ee	-0.09564386
113	0xbd9ccdee	-0.076564655
114	0x3c8f6dcc	0.01750841
115	0x3d39c49f	0.045353528
116	0xbde0b8c7	-0.109727435
117	0xbe0d9689	-0.13826956
118	0x3cc2cdfb	0.02377986
119	0x3db3ff2a	0.08788903
120	0x3e04dfc0	0.12975979
121	0x3dd15cdd	0.102227904
122	0xbe0cf2dd	-0.1376452
123	0xbbe70f88	-0.007051412
124	0x3e1ab70a	0.15108886
125	0x3da55e19	0.08074588
126	0xba60074b	-0.00085460086
127	0x3d8d7f26	0.06909017
128	0xbcfc6f8e	-0.030814912
129	0xbd78a321	-0.060702447
130	0xbe265a89	-0.16245474
131	0x3d71a7fe	0.0589981
132	0x3a880010	0.0010375995
133	0xbdb9a837	-0.090652876
134	0x3dca664f	0.09882795
135	0x3dfdb93e	0.12388848
136	0xbd657503	-0.056019794
137	0x3d7ceb3c	0.061747774
138	0x3da2f39a	0.079566196
139	0xbcced743	-0.02524913
140	0xbd5034c0	-0.050831556
141	0x3e296a76	0.16544518
142	0xbdd61fb8	-0.104552686
143	0xbaa46b11	-0.0012544115
144	0xbddcf11e	-0.10788177
145	0xbe38ef26	-0.18059978
146	0xbd3206f8	-0.043463677
147	0x3da46f4e	0.08029042
148	0x3dcee57b	0.10102364
149	0xbe28524a	-0.16437641
150	0x3e1002f8	0.14063632
151	0x3e1bbfdd	0.15209909
152	0x3e30d6a3	0.17269377
153	0x3e31e894	0.17373878
154	0xbdcf5dd1	-0.10125316
155	0xbad64784	-0.0016348218
156	0x3d2f4e3b	0.042799216
157	0xbc101288	-0.008793481
158	0x3e34801e	0.17626998
159	0xbd99906e	-0.07498251
160	0xbd8ef81b	-0.06980916
161	0x3dcb2df5	0.09920875
162	0x3cb728c6	0.02235831
163	0x3e147b57	0.14500175
164	0xbe021351	-0.12702681
165	0x3e0060b8	0.12536895
166	0x3e12fe57	0.14354835
167	0xbe3239ec	-0.17404908
168	0x3e068b08	0.13138974
169	0x3db9cca5	0.09072236
170	0x3d889a3d	0.066700436
171	0xbddcb521	-0.10776735
172	0x3e20703f	0.15667818
173	0x3e042ab1	0.1290691
174	0x3d9e8f45	0.0774217
175	0xbe3279e4	-0.1742931
176	0x3dd6adca	0.104823664
177	0xbd75e079	-0.060028527
178	0xbc306057	-0.010765157
179	0x3e3e4265	0.18580015
180	0xbd3053af	-0.043048557
181	0xbe02cca4	-0.12773377
182	0xbd0061b1	-0.031343166
183	0xbdaab980	-0.083361626
184	0xbda763f6	-0.08173363
185	0x3e0b87c2	0.13626006
186	0x3d8cc15a	0.068728164
187	0xbdda8f13	-0.106718205
188	0xbc8addd4	-0.016951479
189	0x3cc5bff5	0.024139384
190	0xbc951c8a	-0.018202085
191	0x3b73e377	0.0037214437
192	0xbcc5332c	-0.024072252
193	0xbe074242	-0.13208869
194	0xbe35a39e	-0.17738196
195	0xbe3cb562	-0.18428567
196	0xbd243329	-0.040087853
197	0x3e0306b0	0.1279552
198	0x3e13d054	0.1443494
199	0x3e16d697	0.14730297
200	0x3d928c2b	0.07155641
201	0x3da0e569	0.078562565
202	0xbe004bfd	-0.12528987
203	0x3d1c1c83	0.03811313
204	0x3e2f7ad3	0.17136697
205	0x3cb76389	0.02238633
206	0x3e058b1b	0.13041346
207	0x3d140303	0.036135685
208	0x3e2a1ef7	0.16613375
209	0x3e405f59	0.18786372
210	0xbdade465	-0.084908284
211	0x3dcc42a4	0.09973648
212	0xbe178627	-0.14797269
213	0x3e3eb887	0.18625079
214	0xbd84386b	-0.064560734
215	0x3e1d5aeb	0.15366714
216	0x3e110254	0.14161044
217	0x3d288d5e	0.041150443
218	0x3e2156fc	0.15755838
219	0x3dc459b0	0.09587419
220	0x3e1e1b01	0.15439989
221	0xbdfa4982	-0.12221052
222	0x3d6787a9	0.05652586
223	0xbd22a8b5	-0.039711673
224	0x3d1326a5	0.035925526
225	0xbe1ebc28	-0.15501463
226	0xbba98884	-0.0051737446
227	0xbdb3ed68	-0.08785516
228	0xbda2a342	-0.07941295
229	0x3dfb676f	0.12275588
230	0xbe087a40	-0.13327885
231	0xbe1983cf	-0.14991687
232	0xbc446aac	-0.011988323
233	0xbe018a1d	-0.12650342
234	0xbe1c3acf	-0.15256809
235	0xbcdd8641	-0.027041556
236	0x3e3739d6	0.17893156
237	0xbd47910b	-0.048722308
238	0x3e24233b	0.16029064
239	0x3e1c5f09	0.15270628
240	0xbe3fffdc	-0.18749946
241	0xbde44b63	-0.111471914
242	0x3e0eb5d9	0.13936557
243	0x3c7a310b	0.015270482
244	0x3da4ac32	0.08040656
245	0x3dff41e9	0.12463743
246	0xbe23067a	-0.1592044
247	0xbc070724	-0.008241449
248	0xbdcaec22	-0.0990832
249	0xbe248c0d	-0.1606905
250	0x3e1034de	0.14082667
251	0xbd2e5617	-0.04256257
252	0x3e1feef1	0.15618493
253	0xbd41c23c	-0.047304377
254	0x3da7677e	0.081740364
255	0xbd87a3c8	-0.06623036

shared_layers.0.bias f4 [64]
0	0x00000000	0.0
1	0x00000000	0.0
2	0x00000000	0.0
3	0x00000000	0.0
4	0x00000000	0.0
5	0x00000000	0.0
6	0x00000000	0.0
7	0x00000000	0.0
8	0x00000000	0.0
9	0x00000000	0.0
10	0x00000000	0.0
11	0x00000000	0.0
12	0x00000000	0.0
13	0x00000000	0.0
14	0x00000000	0.0
15	0x00000000	0.0
16	0x00000000	0.0
17	0x00000000	0.0
18	0x00000000	0.0
19	0x00000000	0.0
20	0x00000000	0.0
21	0x00000000	0.0
22	0x00000000	0.0
23	0x00000000	0.0
24	0x00000000	0.0
25	0x00000000	0.0
26	0x00000000	0.0
27	0x00000000	0.0
28	0x00000000	0.0
29	0x00000000	0.0
30	0x00000000	0.0
31	0x00000000	0.0
32	0x00000000	0.0
33	0x00000000	0.0
34	0x00000000	0.0
35	0x00000000	0.0
36	0x00000000	0.0
37	0x00000000	0.0
38	0x00000000	0.0
39	0x00000000	0.0
40	0x00000000	0.0
41	0x00000000	0.0
42	0x00000000	0.0
43	0x00000000	0.0
44	0x00000000	0.0
45	0x00000000	0.0
46	0x00000000	0.0
47	0x00000000	0.0
48	0x00000000	0.0
49	0x00000000	0.0
50	0x00000000	0.0
51	0x00000000	0.0
52	0x00000000	0.0
53	0x00000000	0.0
54	0x00000000	0.0
55	0x00000000	0.0
56	0x00000000	0.0
57	0x00000000	0.0
58	0x00000000	0.0
59	0x00000000	0.0
60	0x00000000	0.0
61	0x00000000	0.0
62	0x00000000	0.0
63	0x00000000	0.0

shared_layers.1.weight f4 [64]
0	0x3f41a709	0.756455
1	0x3f41a709	0.756455
2	0x3f41a709	0.756455
3	0x3f41a709	0.756455
4	0x3f41a709	0.756455
5	0x3f41a709	0.756455
6	0x3f41a709	0.756455
7	0x3f41a709	0.756455
8	0x3f41a709	0.756455
9	0x3f41a709	0.756455
10	0x3f41a709	0.756455
11	0x3f41a709	0.756455
12	0x3f41a709	0.756455
13	0x3f41a709	0.756455
14	0x3f41a709	0.756455
15	0x3f41a709	0.756455
16	0x3f41a709	0.756455
17	0x3f41a709	0.756455
18	0x3f41a709	0.756455
19	0x3f41a709	0.756455
20	0x3f41a709	0.756455
21	0x3f41a709	0.756455
22	0x3f41a709	0.756455
23	0x3f41a709	0.756455
24	0x3f41a709	0.756455
25	0x3f41a709	0.756455
26	0x3f41a709	0.756455
27	0x3f41a709	0.756455
28	0x3f41a709	0.756455
29	0x3f41a709	0.756455
30	0x3f41a709	0.756455
31	0x3f41a709	0.756455
32	0x3f41a709	0.756455
33	0x3f41a709	0.756455
34	0x3f41a709	0.756455
35	0x3f41a709	0.756455
36	0x3f41a709	0.756455
37	0x3f41a709	0.756455
38	0x3f41a709	0.756455
39	0x3f41a709	0.756455
40	0x3f41a709	0.756455
41	0x3f41a709	0.756455
42	0x3f41a709	0.756455
43	0x3f41a709	0.756455
44	0x3f41a709	0.756455
45	0x3f41a709	0.756455
46	0x3f41a709	0.756455
47	0x3f41a709	0.756455
48	0x3f41a709	0.756455
49	0x3f41a709	0.756455
50	0x3f41a709	0.756455
51	0x3f41a709	0.756455
52	0x3f41a709	0.756455
53	0x3f41a709	0.756455
54	0x3f41a709	0.756455
55	0x3f41a709	0.756455
56	0x3f41a709	0.756455
57	0x3f41a709	0.756455
58	0x3f41a709	0.756455
59	0x3f41a709	0.756455
60	0x3f41a709	0.756455
61	0x3f41a709	0.756455
62	0x3f41a709	0.756455
63	0x3f41a709	0.756455

shared_layers.1.bias f4 [64]
0	0x00000000	0.0
1	0x00000000	0.0
2	0x00000000	0.0
3	0x00000000	0.0
4	0x00000000	0.0
5	0x00000000	0.0
6	0x00000000	0.0
7	0x00000000	0.0
8	0x00000000	0.0
9	0x00000000	0.0
10	0x00000000	0.0
11	0x00000000	0.0
12	0x00000000	0.0
13	0x00000000	0.0
14	0x00000000	0.0
15	0x00000000	0.0
16	0x00000000	0.0
17	0x00000000	0.0
18	0x00000000	0.0
19	0x00000000	0.0
20	0x00000000	0.0
21	0x00000000	0.0
22	0x00000000	0.0
23	0x00000000	0.0
24	0x00000000	0.0
25	0x00000000	0.0
26	0x00000000	0.0
27	0x00000000	0.0
28	0x00000000	0.0
29	0x00000000	0.0
30	0x00000000	0.0
31	0x00000000	0.0
32	0x00000000	0.0
33	0x00000000	0.0
34	0x00000000	0.0
35	0x00000000	0.0
36	0x00000000	0.0
37	0x00000000	0.0
38	0x00000000	0.0
39	0x00000000	0.0
40	0x00000000	0.0
41	0x00000000	0.0
42	0x00000000	0.0
43	0x00000000	0.0
44	0x00000000	0.0
45	0x00000000	0.0
46	0x00000000	0.0
47	0x00000000	0.0
48	0x00000000	0.0
49	0x00000000	0.0
50	0x00000000	0.0
51	0x00000000	0.0
52	0x00000000	0.0
53	0x00000000	0.0
54	0x00000000	0.0
55	0x00000000	0.0
56	0x00000000	0.0
57	0x00000000	0.0
58	0x00000000	0.0
59	0x00000000	0.0
60	0x00000000	0.0
61	0x00000000	0.0
62	0x00000000	0.0
63	0x00000000	0.0

shared_layers.4.weight f4 [24, 64]
0	0xbe243f03	-0.16039662
1	0x3ddd67f1	0.10810841
2	0x3d25827c	0.040407643
3	0xbe036dec	-0.128349
4	0x3d16bbb2	0.036800094
5	0xbcd20f66	-0.025642108
6	0x3b104d82	0.0022018855
7	0xbe27cf03	-0.16387562
8	0xbdc7dc2d	-0.09758792
9	0x3e084c10	0.13310266
10	0x3e3ee1c3	0.18640809
11	0x3d986ede	0.07443021
12	0x3e265ab1	0.16245534
13	0x3e02e081	0.12780954
14	0xbe000f22	-0.12505773
15	0x3e407f93	0.18798666
16	0xbda9f7eb	-0.0829924
17	0x3d9f5d17	0.07781427
18	0x3d432953	0.04764683
19	0xbdab56fe	-0.08366202
20	0x3ded08f6	0.11573975
21	0xbb041970	-0.0020156763
22	0xbd78dec6	-0.06075933
23	0x3cfdcbbc	0.030980937
24	0x3dd630ad	0.10458503
25	0x3e1accaf	0.15117143
26	0x3e24da94	0.16099006
27	0xbdedfe1f	-0.116207354
28	0x3e0d5849	0.1380321
29	0xbe102553	-0.14076738
30	0xbd92fd95	-0.07177273
31	0xbdb38e31	-0.08767355
32	0xbe1910fe	-0.14947888
33	0xbe2b363c	-0.16719908
34	0x3e1104bb	0.14161961
35	0x39ea1078	0.00044644228
36	0x3e1d271f	0.15346955
37	0x3d54a050	0.0519107
38	0xbd19b53f	-0.037526365
39	0xbdc5ffe9	-0.096679516
40	0xbd8503de	-0.06494878
41	0xbd794fb1	-0.060867015
42	0xbe3bd80b	-0.18344133
43	0x3dbf484b	0.09339961
44	0x3d8733f0	0.06601703
45	0xbe327c6d	-0.17430277
46	0xbdd2588b	-0.102707945
47	0x3bedfbb7	0.0072626728
48	0x3c7f9b96	0.015601059
49	0x3c4e7ddf	0.012603252
50	0x3cec0ed2	0.02881566
51	0xbc3c774d	-0.011503053
52	0x3dd16793	0.10224833
53	0xbcb03166	-0.02150793
54	0x3df990b1	0.12185801
55	0x3e2ea981	0.17056848
56	0x3dc96612	0.098339215
57	0xbd2407bd	-0.040046442
58	0x3e0b967d	0.13631625
59	0x3df0ab44	0.11751416
60	0x3d1d23f8	0.03836438
61	0x3d81302f	0.063080184
62	0xbd606a49	-0.05478886
63	0x3e18430a	0.14869323
64	0xbd4f218a	-0.050569095
65	0x3c8fca6e	0.01755258
66	0x3d4d3a4f	0.050104436
67	0xbdb61007	-0.08889776
68	0xbdd7af16	-0.10531442
69	0xbe264165	-0.16235884
70	0xbcdc7389	-0.02691056
71	0xbdcd76e8	-0.10032445
72	0xbdbadf65	-0.091246404
73	0x3d5b4af1	0.053538267
74	0x3d95a4ca	0.07306822
75	0x3aac7ef5	0.0013160395
76	0xbe46703c	-0.19378752
77	0x3c07c65f	0.008287041
78	0x3e1fd7b9	0.15609635
79	0x3d9beb60	0.076132536
80	0xbd8f94ce	-0.07010804
81	0xbe1bd6e7	-0.15218697
82	0x3d63115f	0.05543649
83	0x3c997d40	0.018736482
84	0x3e10d228	0.14142668
85	0xbe3a42f9	-0.1818961
86	0x3e40f52c	0.18843526
87	0xbe000a95	-0.12504037
88	0x3d49c10f	0.04925638
89	0x3af8d50d	0.0018984393
90	0x3e22b83f	0.15890597
91	0x3ddbf1cb	0.10739478
92	0x3e407a18	0.18796575
93	0x3e3ad9d3	0.18247156
94	0xbe15b7f9	-0.14620961
95	0x3ccd3ecf	0.025054364
96	0x3c9d23de	0.019182142
97	0xbd15c5db	-0.036565643
98	0xbd87512f	-0.066072814
99	0x3c22d8db	0.009939398
100	0xba0b7b63	-0.0005320815
101	0xbe09a07b	-0.13440125
102	0xbe3ce5f6	-0.18447098
103	0xbe45c13c	-0.19311994
104	0x3c4ff246	0.01269204
105	0x3bf87d99	0.007583332
106	0x3db94e9c	0.09048197
107	0x3e164d75	0.14677985
108	0x3bde0836	0.006775881
109	0x3c452266	0.012032127
110	0xbbbf9706	-0.005846861
111	0x3d13d363	0.036090266
112	0xbd80027c	-0.06250474
113	0xbcde06e8	-0.027102903
114	0xbdd56cd3	-0.10421147
115	0x3e23a50c	0.15980929
116	0xbe13698c	-0.14395732
117	0x3e3aa991	0.18228747
118	0x3e08e86b	0.1336991
119	0x3de9ef45	0.1142259
120	0xbda959da	-0.08269091
121	0x3d9dc838	0.07704204
122	0xb9bd5cd8	-0.00036118063
123	0xbde1b6fc	-0.110212296
124	0x3e05d91b	0.130711
125	0x3ca9a498	0.020708367
126	0xbdc3fa8f	-0.09569275
127	0x3dea719b	0.1144745
128	0x3e2eb11e	0.17059752
129	0xbdb57e3c	-0.08861968
130	0xbc2daaa2	-0.010599764
131	0x3c965f91	0.018356116
132	0x3c2818ca	0.010259816
133	0x3dcd5e74	0.10027781
134	0x3d38f460	0.04515493
135	0x3e45f6b5	0.19332393
136	0xbe48c64e	-0.19606897
137	0xbe282f34	-0.16424257
138	0x3ba92ecc	0.0051630493
139	0xbd6dadf3	-0.05802722
140	0x3dbe6577	0.09296697
141	0xbd287efb	-0.041136723
142	0x3d3807c5	0.044929285
143	0xbe0d1c0b	-0.13780229
144	0x3c142e82	0.009044291
145	0x3c53b393	0.012921232
146	0xbd40c925	-0.047066826
147	0xbd16a978	-0.03678271
148	0x3cef6487	0.02922274
149	0xbe296243	-0.1654139
150	0x3ce64e2f	0.028113453
151	0xbe12796d	-0.14304133
152	0x3d466944	0.048440233
153	0x3e2e4cb7	0.17021452
154	0x3e017d40	0.12645435
155	0xbe25d0bb	-0.16192906
156	0x3d7801ec	0.060548708
157	0x3e0e6fd8	0.13909853
158	0x3df5d68f	0.120038144
159	0x3d65e3b3	0.056125354
160	0xbd32ca60	-0.04365003
161	0x3e2efdca	0.17089
162	0xbdcef917	-0.10106104
163	0xbd14cf12	-0.03633029
164	0x3b671744	0.003526167
165	0xbbb2b2de	-0.0054534515
166	0xbe3baf6b	-0.18328635
167	0xbe2d2776	-0.16909584
168	0x3c047497	0.008084438
169	0x3e269b2a	0.16270128
170	0x3e373344	0.1789065
171	0xbd455fd0	-0.048187077
172	0x3e21fc12	0.15818813
173	0xbc8a8197	-0.016907496
174	0x3cbe7783	0.023250347
175	0x3c941f96	0.018081468
176	0xbe04dd91	-0.12975146
177	0x3dd31c52	0.10308136
178	0xbe1e92a2	-0.15485623
179	0xbd59273e	-0.05301594
180	0x3d557c0b	0.05212025
181	0xbe23491f	-0.15945862
182	0x3d88a9d6	0.06673019
183	0xbd1a644a	-0.0376933
184	0xbe152f69	-0.14568867
185	0xbc9dd196	-0.019264977
186	0xbd08db15	-0.033412058
187	0x3e3e4aa8	0.18583167
188	0x3e3610f7	0.17779909
189	0x3e2f36c4	0.17110735
190	0xbcd4ae0a	-0.025961895
191	0x3e0ef582	0.13960841
192	0xbe0c8db4	-0.1372593
193	0x3dc51de4	0.09624842
194	0x3df28007	0.118408255
195	0xbe197ec8	-0.1498977
196	0x3dee90e1	0.11648727
197	0xbd3fffea	-0.046874918
198	0x3d2bd1b6	0.041948043
199	0x3e37bd2b	0.17943256
200	0x3e195ff1	0.14978005
201	0xbd9bf2b9	-0.07614655
202	0xbdded747	-0.10880905
203	0xbced3ef7	-0.028960688
204	0x3d5e94ac	0.054341003
205	0x3e4053d6	0.18781981
206	0x3e0cf5f6	0.13765702
207	0xbe4277f0	-0.18991065
208	0x3e203e9f	0.15648888
209	0xbe32a1a3	-0.17444472
210	0x3e30e954	0.17276508
211	0xbd52255a	-0.051305152
212	0xbdace3a3	-0.08441856
213	0xbdbcd329	-0.09219963
214	0xbd00470f	-0.031317767
215	0x3e464090	0.19360566
216	0xbda2738a	-0.079321936
217	0x3d5d2a87	0.053995635
218	0x3cab91e6	0.020943593
219	0xbe47c599	-0.19508971
220	0x3df76f1c	0.12081739
221	0xbda26b40	-0.079306126
222	0x3e166e89	0.14690603
223	0xbc886f2a	-0.01665457
224	0x3d251c31	0.04031009
225	0xbd69b35a	-0.05705581
226	0xbe463515	-0.19356187
227	0x3e070d10	0.13188577
228	0x3e17e600	0.14833832
229	0x3d910c2e	0.07082401
230	0xbc9ce9f5	-0.019154528
231	0x3da7caf2	0.081930056
232	0x3dd61f39	0.10455174
233	0xbe0440fd	-0.12915416
234	0x3d987bc9	0.07445485
235	0xbe11cda1	-0.14238597
236	0x3e2d7c77	0.16942011
237	0xbe2809b8	-0.16409957
238	0x3d344a99	0.044016454
239	0xbc5b80b9	-0.013397389
240	0x3d0f12cb	0.03493003
241	0x3e00b00e	0.1256716
242	0xbe49e60b	-0.1971666
243	0xbae196e6	-0.0017211109
244	0xbdf11fd2	-0.11773647
245	0xbda755c4	-0.08170655
246	0x3ddf04d3	0.10889592
247	0xbe13e842	-0.14444068
248	0x3e1f7da0	0.15575266
249	0xbbffc726	-0.0078057228
250	0x3ba4b431	0.0050263633
251	0x3db5de4c	0.088802904
252	0x3e1c45e2	0.15261033
253	0xbd81bfb5	-0.06335393
254	0x3dbcd0fd	0.09219549
255	0x3d82251a	0.06354733

shared_layers.4.bias f4 [24]
0	0x00000000	0.0
1	0x00000000	0.0
2	0x00000000	0.0
3	0x00000000	0.0
4	0x00000000	0.0
5	0x00000000	0.0
6	0x00000000	0.0
7	0x00000000	0.0
8	0x00000000	0.0
9	0x00000000	0.0
10	0x00000000	0.0
11	0x00000000	0.0
12	0x00000000	0.0
13	0x00000000	0.0
14	0x00000000	0.0
15	0x00000000	0.0
16	0x00000000	0.0
17	0x00000000	0.0
18	0x00000000	0.0
19	0x00000000	0.0
20	0x00000000	0.0
21	0x00000000	0.0
22	0x00000000	0.0
23	0x00000000	0.0

shared_layers.5.weight f4 [24]
0	0x3f41a709	0.756455
1	0x3f41a709	0.756455
2	0x3f41a709	0.756455
3	0x3f41a709	0.756455
4	0x3f41a709	0.756455
5	0x3f41a709	0.756455
6	0x3f41a709	0.756455
7	0x3f41a709	0.756455
8	0x3f41a709	0.756455
9	0x3f41a709	0.756455
10	0x3f41a709	0.756455
11	0x3f41a709	0.756455
12	0x3f41a709	0.756455
13	0x3f41a709	0.756455
14	0x3f41a709	0.756455
15	0x3f41a709	0.756455
16	0x3f41a709	0.756455
17	0x3f41a709	0.756455
18	0x3f41a709	0.756455
19	0x3f41a709	0.756455
20	0x3f41a709	0.756455
21	0x3f41a709	0.756455
22	0x3f41a709	0.756455
23	0x3f41a709	0.756455

shared_layers.5.bias f4 [24]
0	0x00000000	0.0
1	0x00000000	0.0
2	0x00000000	0.0
3	0x00000000	0.0
4	0x00000000	0.0
5	0x00000000	0.0
6	0x00000000	0.0
7	0x00000000	0.0
8	0x00000000	0.0
9	0x00000000	0.0
10	0x00000000	0.0
11	0x00000000	0.0
12	0x00000000	0.0
13	0x00000000	0.0
14	0x00000000	0.0
15	0x00000000	0.0
16	0x00000000	0.0
17	0x00000000	0.0
18	0x00000000	0.0
19	0x00000000	0.0
20	0x00000000	0.0
21	0x00000000	0.0
22	0x00000000	0.0
23	0x00000000	0.0

algorithm_heads.0.weight f4 [1, 24]
0	0x3e61e152	0.22058609
1	0x3da97f23	0.082762025
2	0x3cf88200	0.030335426
3	0xbeafe154	-0.343516
4	0xbe322326	-0.1739622
5	0xbe500ee5	-0.20318182
6	0xbdaf876c	-0.085707515
7	0xbde41ffc	-0.11138913
8	0xbdfd5dea	-0.12371428
9	0x3e8e9244	0.27845967
10	0xbe936715	-0.28789583
11	0xbdf3612c	-0.118837684
12	0x3df253a7	0.11832362
13	0xbe4a7453	-0.19770937
14	0x3eb35eeb	0.35033354
15	0xbe8e6cc6	-0.27817363
16	0x3d2dfe36	0.042478763
17	0x3d8c28a4	0.06843689
18	0x3e9802e2	0.296897
19	0xbe290c12	-0.1650851
20	0xbebc6f6d	-0.3680376
21	0xbe531895	-0.20614846
22	0x3ea27775	0.31731763
23	0xbdd1bd95	-0.10241238

algorithm_heads.1.weight f4 [1, 24]
0	0x3deb12a5	0.114781655
1	0xbe393955	-0.18088277
2	0x3d800f44	0.06252912
3	0x3c788ae7	0.015169836
4	0xbe888137	-0.26661083
5	0x3c99fefc	0.018798344
6	0x3eaba39e	0.33523268
7	0x3e74031f	0.23829316
8	0x3e2fbe2c	0.17162389
9	0x3d17965c	0.03700863
10	0xbe951e54	-0.291247
11	0x3ea083e7	0.31350634
12	0x3eb061c6	0.34449595
13	0x3dac08cf	0.084001176
14	0x3ddf8f42	0.10915996
15	0xbdcc796b	-0.09984096
16	0x3e245dd5	0.16051419
17	0x3da78d3d	0.08181236
18	0xbcd9677e	-0.026538607
19	0xbdc2d5d9	-0.095134445
20	0x3ea048b6	0.31305474
21	0xbbff7e78	-0.0077970587
22	0xbe80df4a	-0.25170356
23	0xbe8a709f	-0.27039048

algorithm_heads.2.weight f4 [1, 24]
0	0xbe91eda1	-0.2850161
1	0xbcc5e2ce	-0.024156
2	0xbea6da61	-0.32588485
3	0xbba7d7e7	-0.005122173
4	0x3e37ba03	0.17942052
5	0x3e8e7b55	0.2782847
6	0x3e9c710a	0.30554992
7	0x3ea925d0	0.3303666
8	0xbe76886c	-0.24075478
9	0xbe3c3787	-0.18380557
10	0xbeaaf7d6	-0.3339221
11	0xbeb2360a	-0.34806854
12	0xbe5e9b04	-0.21738821
13	0xbebc5f5f	-0.36791512
14	0xbeb31f0d	-0.34984627
15	0xbe739cbc	-0.23790258
16	0x3e8e9c84	0.27853787
17	0x3e51a521	0.20473148
18	0xbe0e0803	-0.13870244
19	0x3ea4a815	0.32159486
20	0xbeb26174	-0.34839976
21	0xbe0b986a	-0.1363236
22	0x3d5e9fe1	0.05435169
23	0x3e419f6a	0.18908468

algorithm_heads.3.weight f4 [1, 24]
0	0x3e863a85	0.26216522
1	0xbe8a2c1a	-0.26986772
2	0x3da3b282	0.07993032
3	0xbead04ea	-0.33792812
4	0x3e9bb4d2	0.30411392
5	0x3e297f84	0.1655255
6	0xbd858267	-0.06519013
7	0x3ca18c76	0.019720297
8	0xbe2fe726	-0.1717802
9	0xbe3e80a1	-0.18603756
10	0xbdce98b8	-0.100877225
11	0xbcbfa34b	-0.023393294
12	0xbe3c9c5f	-0.18419026
13	0xba884fca	-0.0010399756
14	0x3e8233db	0.25430188
15	0x3e7134c8	0.2355529
16	0x3e802835	0.25030676
17	0xbe304192	-0.17212513
18	0xbe83edbb	-0.2576731
19	0x3e570a01	0.2099991
20	0xbe4ba825	-0.19888361
21	0xbe9174ec	-0.28409517
22	0xbe85a9bc	-0.2610606
23	0xbdb86785	-0.0900412

algorithm_heads.4.weight f4 [1, 24]
0	0x3da328a0	0.07966733
1	0x3e166d6d	0.1469018
2	0xbe970aee	-0.29500526
3	0xbe7205f4	-0.23635083
4	0x3eaea195	0.34107652
5	0xbc82a300	-0.015946865
6	0xbbb30e15	-0.005464325
7	0xbe8af0aa	-0.27136737
8	0xbe14bfc7	-0.14526282
9	0x3e5f343a	0.21797267
10	0xbe505230	-0.20343852
11	0xbd87220f	-0.06598293
12	0x3d6b487d	0.057442177
13	0x3e4a4220	0.19751787
14	0x3e342901	0.17593767
15	0xbd8cd5ea	-0.06876738
16	0x3e38044e	0.17970392
17	0xbe3533f7	-0.17695604
18	0x3eb79c86	0.35861605
19	0x3e41fc55	0.18943913
20	0x3e1cba6d	0.15305491
21	0x3c7c9538	0.015416436
22	0x3ea804ba	0.32816106
23	0x3e90951d	0.28238764

algorithm_heads.5.weight f4 [1, 24]
0	0xbd70bc83	-0.05877353
1	0xbe10277a	-0.14077559
2	0xbde0a2c1	-0.10968543
3	0xbd8a1e87	-0.06744104
4	0xbe7af954	-0.24509174
5	0xbea0795f	-0.313426
6	0xbd90578f	-0.070479505
7	0xbe9fcb08	-0.31209588
8	0xbd8f87a5	-0.07008294
9	0xbe024c63	-0.12724452
10	0x3eaca4de	0.33719534
11	0xbe97c422	-0.29641825
12	0xbe7b08f7	-0.24515139
13	0x3e63c93a	0.2224473
14	0x3eb2722d	0.34852734
15	0xbe90c380	-0.28274155
16	0xbe72d0ce	-0.23712465
17	0xbebb26a5	-0.3655292
18	0x3ea07b14	0.313439
19	0x3ddeb9c8	0.10875279
20	0xbe57fdab	-0.2109286
21	0xbeb52d2d	-0.3538603
22	0x3e9eed1a	0.3104027
23	0xbe17c968	-0.14822924

algorithm_heads.6.weight f4 [1, 24]
0	0x3ebd121f	0.36927888
1	0xbea3d080	-0.3199501
2	0x3d860085	0.06543068
3	0x3e67ef2b	0.22649829
4	0x3d1d9e2b	0.03848092
5	0xbc52f626	-0.012876069
6	0x3e7febbf	0.24992274
7	0xbe402495	-0.18763955
8	0x3dd886ac	0.105725616
9	0x3d4d6cb1	0.050152484
10	0xbe3407dc	-0.17581123
11	0xbdeb20d9	-0.114808746
12	0xbe2578da	-0.16159382
13	0xbe8fbd93	-0.2807432
14	0x3ce4741e	0.0278874
15	0xbe74912a	-0.238835
16	0xbeb72ae9	-0.35774925
17	0xbc7f479c	-0.015581038
18	0xbcd0ef33	-0.025504684
19	0xbe977c33	-0.29586944
20	0xbd0ce289	-0.03439573
21	0xbd39cdf9	-0.045362446
22	0xbe49b21a	-0.19696847
23	0xbc5b82ae	-0.013397856

algorithm_heads.7.weight f4 [1, 24]
0	0xbeb1d027	-0.3472912
1	0x3e0db6de	0.1383929
2	0xbe92bd92	-0.28660256
3	0xbc9d6133	-0.019211387
4	0x3e0a035c	0.13477844
5	0x3d7094cf	0.058735665
6	0xbe66b227	-0.22528897
7	0xbe2e8c12	-0.1704562
8	0x3eaf0962	0.34186846
9	0x3e36c611	0.17848994
10	0x3df2d344	0.11856702
11	0x3e8495a1	0.25895408
12	0x3d74ad30	0.059735477
13	0x3d7f57fc	0.062339768
14	0x3ea9888f	0.33111998
15	0xbe713788	-0.2355634
16	0xbd9ddc31	-0.07708014
17	0xbdbf8996	-0.09352414
18	0xbe937533	-0.28800353
19	0xbeaf43e5	-0.34231487
20	0xbe1915c6	-0.14949712
21	0xbdd46407	-0.10370641
22	0x3d8f5417	0.06998461
23	0x3c96fa5f	0.018429933

algorithm_heads.8.weight f4 [1, 24]
0	0x3e84b09c	0.25915992
1	0xbe5a79d0	-0.2133553
2	0x3e11f41b	0.14253275
3	0x3e95f77a	0.29290372
4	0x3d72d29e	0.05928289
5	0xbdf06627	-0.11738234
6	0x3e34eba5	0.17668016
7	0xbe8c808c	-0.27441823
8	0xbe8c23b7	-0.27370998
9	0x3bd05a03	0.0063583865
10	0x3e851def	0.259994
11	0xbe7bbda7	-0.24584065
12	0xbcf8709b	-0.030327132
13	0xbc825681	-0.015910389
14	0x3e832128	0.25611234
15	0x3e09165e	0.13387439
16	0xbe6e9609	-0.23299421
17	0x3dbdd896	0.09269826
18	0x3eb012ba	0.34389287
19	0xbe486bae	-0.19572327
20	0x3eb98427	0.36233637
21	0xbe79d0ac	-0.24396008
22	0xbd84fd05	-0.06493572
23	0xbeab9f94	-0.33520186

algorithm_heads.9.weight f4 [1, 24]
0	0xbe87b198	-0.2650268
1	0x3e4331c4	0.19061953
2	0x3bc971ef	0.006147615
3	0x3e0b4b1f	0.13602875
4	0x3eb74ac1	0.3579922
5	0x3e83b5bc	0.2572459
6	0x3ea7d252	0.3277765
7	0x3e5505ed	0.20803042
8	0xbd5e1856	-0.054222427
9	0x3d24f8f6	0.04027649
10	0x3e130c55	0.14360173
11	0x3ebab589	0.36466625
12	0x3e216e91	0.15764834
13	0xbe8c1d90	-0.27366304
14	0xbc4a22aa	-0.012337366
15	0x3e27e884	0.16397291
16	0xbe81dc84	-0.25363553
17	0xbe9d2d27	-0.3069851
18	0x3d7bf402	0.061512
19	0x3e9b5caf	0.3034415
20	0xbea41aa9	-0.3205159
21	0xbe34e182	-0.1766415
22	0xbd880421	-0.066414125
23	0x3dffc597	0.12488859

algorithm_heads.10.weight f4 [1, 24]
0	0x3e5eaf0a	0.2174646
1	0x3e9d3bbe	0.30709642
2	0x3e52be8c	0.205805
3	0xbd4aa63c	-0.04947494
4	0xbe293e3e	-0.1652765
5	0xbe624c73	-0.22099476
6	0x3deb1073	0.11477747
7	0xbe025de4	-0.12731129
8	0xbd9310fd	-0.07180975
9	0xbe086714	-0.13320571
10	0xbc76cf29	-0.015064039
11	0xbe1bfb83	-0.15232663
12	0xbeb0416a	-0.34424907
13	0x3eb704eb	0.3574594
14	0xbe970e47	-0.2950308
15	0x3d8d7cd9	0.069085784
16	0xbe479c67	-0.19493257
17	0xbe0b5a66	-0.13608703
18	0x3cfe5345	0.031045565
19	0x3e2deedd	0.1698565
20	0xbe850f00	-0.25988007
21	0x3e9a3227	0.30116388
22	0xbde42433	-0.11139717
23	0x3e548d69	0.20757069
