src/automl/meta_model.pth (torch, 29621 bytes, 19 tensors)

shared_layers.0.weight f4 [64, 31]
000000 8b 5d 2a 3e dd 18 dc ba 1c a0 19 3e ef f6 ef 3d
       0.16637246 -0.0016792078 0.15002483 0.11717021
000010 4f d3 47 3d 8e 4f f6 bd 23 6e 05 bd 9e f3 e8 3d
       0.048785504 -0.120268926 -0.032575738 0.11374591
000020 37 e7 7d bd 50 09 b9 3b a7 b5 08 3e 7b 82 62 be
       -0.06198808 0.005646862 0.13350545 -0.22120087
000030 c6 d6 c8 bd fc 33 36 3e f1 40 9e 3c b5 7e 81 3b
       -0.0980659 0.17793268 0.019318076 0.0039518722
000040 6e 02 ae bd 3e fe 55 3d 94 0f b9 bd a7 01 83 3e
       -0.08496557 0.052244417 -0.090361744 0.25587198
000050 dd f8 a1 3e 22 e5 21 3e 5c 6d 33 3d a3 5d b0 bc
       0.3163518 0.15810063 0.043805465 -0.021529024
000060 34 34 ac 3d f6 a0 b1 bd 44 58 8f 3d ab 3a ad bd
       0.084083945 -0.08673279 0.06999257 -0.08458456
000070 ae 3e f0 3c 2b fb 7e bd 8c ff 58 3d 75 d1 03 be
       0.029326763 -0.06225125 0.052978083 -0.1287287
000080 b1 64 5c be ca 78 35 3e fa 69 a0 bd 03 5b 35 3e
       -0.21522786 0.17721859 -0.078327134 0.177105
000090 c1 84 9b 3d e1 c7 12 3d bd 69 4c be cb 5f 13 3e
       0.0759368 0.03583515 -0.19962211 0.14392011
0000a0 a4 dd a5 3d cd d4 53 be 4a b3 b6 bd 66 b5 24 bd
       0.08098915 -0.20686646 -0.089209154 -0.040212058
0000b0 77 8b 82 bd c6 a4 de 3d 3e f3 54 3e dd cf 0a 3e
       -0.06374257 0.10871272 0.20795915 0.13555856
0000c0 4a 7d fb bd bc d1 d6 bd 5b 3e a5 bc f5 26 64 3e
       -0.12279756 -0.104892224 -0.020171335 0.22280486
0000d0 20 0f 61 be 66 d7 e5 bd 2d 80 a4 3e 66 bf 83 3e
       -0.21978426 -0.112227246 0.3212904 0.25731963
0000e0 17 00 38 3e 19 17 76 be 2c ed ce 3c 57 36 d5 bc
       0.17968784 -0.24032249 0.025259577 -0.026026888
0000f0 73 e2 1f be 73 89 13 bd 0e e6 14 3c a8 50 f5 3b
       -0.15613727 -0.036019754 0.009088052 0.0074864216
000100 61 2a 1a 3e cc 5d 31 3d 66 d7 6a be a0 82 34 be
       0.15055229 0.043302342 -0.2293373 -0.17627954
000110 a5 36 6a bd 3f 1e 1f 3e 70 3a 69 3d 25 2c 7c be
       -0.05718102 0.15538882 0.056940496 -0.24626215
000120 fa 08 f5 3d 7a e5 07 be 03 5e 22 3e 2a e2 f7 bd
       0.11964603 -0.13271132 0.15856175 -0.12103684
000130 ac f4 26 3e 54 7f 17 3e ba 65 eb bd a2 46 97 3d
       0.16304272 0.14794666 -0.11494012 0.07386519
000140 82 a8 03 be d5 b9 73 3d 00 ed 3d 3e 7c 54 86 be
       -0.1285725 0.059503395 0.1854744 -0.2623633
000150 82 f3 29 3e 5f e2 10 be cd 74 23 3d 9c cc 01 bd
       0.16596797 -0.14148854 0.03990631 -0.03168927
000160 22 1d 20 3b c0 fd 4a 3e e0 b7 8b 3a 7a 67 21 3e
       0.0024431427 0.1982336 0.0010659657 0.1576213
000170 3e c6 14 3e a6 ab af bd 70 7f 1a be 0e f4 d1 3c
       0.14528748 -0.08577661 -0.15087676 0.02562907
000180 7b 48 45 3d 1b ce 14 3e 47 65 fe bc 88 47 19 3d
       0.048164826 0.14531748 -0.031054152 0.037421733
000190 eb 04 be bc c6 f1 a6 3e 17 f1 49 be 24 41 0a be
       -0.023195704 0.32606333 -0.19720875 -0.13501412
0001a0 19 61 7a bd 34 5b e3 bc f2 54 18 bc 01 65 4b be
       -0.061127756 -0.02775345 -0.009297596 -0.19862749
0001b0 20 f5 e9 bb 3d 0a 54 3d 3a 76 9e 3c f2 6a 74 be
       -0.007139817 0.051767576 0.019343484 -0.23868921
0001c0 67 60 10 3e 54 50 0d 3e 92 22 1a 3e ec a3 10 bd
       0.14099275 0.13800174 0.1505225 -0.035312578
0001d0 b4 d0 bf 3d 2a f8 31 be f5 53 fb 3d 42 b6 b3 3d
       0.09365979 -0.17379823 0.12271873 0.08774997
0001e0 a5 1d d6 bc 2f cc 9f bd d8 a8 36 3e b1 f6 bd bd
       -0.026137182 -0.07802617 0.17837846 -0.09275568
0001f0 4b d2 c6 bd 31 9e 2b 3e a8 36 7d 3e cb 13 40 3e
       -0.09708079 0.16759564 0.24727881 0.1875755
000200 0d 69 06 3e 76 00 34 be 43 8c ee 3d f3 f0 d5 3d
       0.13126011 -0.17578301 0.116478465 0.10446348
000210 2a a3 21 3d 8a ce a9 bd 95 28 d9 bd 04 0e f5 bc
       0.039462246 -0.08291347 -0.106034435 -0.02991391
000220 18 15 8a 3e 13 a5 51 3e bb 16 05 3e f3 00 c2 bd
       0.26969218 0.20473127 0.12996952 -0.09472837
000230 7d 5f f2 3d 87 d1 79 be 0f 0d 0c be 76 b6 d9 3d
       0.11834619 -0.24396335 -0.13676856 0.10630505
000240 ab b7 0f be a2 c9 67 bd 1c 54 d7 bc f4 6b bc bc
       -0.14034908 -0.056588776 -0.026285224 -0.023000695
000250 29 b6 b1 3b 4c 36 24 be 0b 7c 49 be fb fa 04 3e
       0.0054233265 -0.16036338 -0.19676225 0.12986366
000260 28 09 b7 bd b5 af 7f bd d0 1f 49 be 6f 29 07 bd
       -0.08937293 -0.062423427 -0.19641042 -0.0329985
000270 5f 80 8f be b8 02 80 be 1d 74 88 3d b6 9b e5 3d
       -0.28027627 -0.25002074 0.06662772 0.1121134
000280 ed 2b 3c bd 48 20 ca 3d 62 07 85 bd 8b f9 0c bd
       -0.04594033 0.098694384 -0.06495549 -0.03441767
000290 44 a8 8a 3e e1 1c 88 bd bb b8 b4 bd 85 d1 8a bd
       0.270815 -0.06646133 -0.08824297 -0.06778244
0002a0 f3 10 62 be 78 16 61 bd f2 e9 19 3d 31 da 71 be
       -0.22076778 -0.05495307 0.037576623 -0.2361839
0002b0 48 ea 39 3e 52 c7 5d 3e bc 5e 77 bd e7 0e da bd
       0.18155777 0.21658066 -0.06039308 -0.10647374
0002c0 3f f7 b0 3c 20 c7 43 3e e7 52 cd 3d c2 4f 09 3e
       0.021602271 0.19118929 0.10025578 0.13409331
0002d0 11 97 8b be 8f 0a 6e 3e a2 16 00 3e 7c 46 0d 3e
       -0.27263692 0.23246215 0.12508634 0.13796419
0002e0 b9 23 4c 3e 80 cc 05 3d 85 a4 fa bd 75 9a 84 be
       0.19935502 0.03266573 -0.12238411 -0.2589909
0002f0 7e d8 ba 3d 61 aa 1c be 8d 08 c1 3c 66 70 70 be
       0.09123324 -0.1529937 0.023563648 -0.23480377
000300 61 5a 24 be 42 fc f4 3a 76 83 a1 be 23 93 76 3e
       -0.16050102 0.0018690901 -0.3154561 0.24079566
000310 b7 8d 55 be 46 f6 2e 3d 88 51 1d be 51 ae 41 3e
       -0.20854841 0.042715333 -0.15363133 0.18914153
000320 e9 23 d9 bd f2 50 30 3e 67 56 71 be 62 0e 49 bd
       -0.106025524 0.17218378 -0.23568116 -0.049085982
000330 fa c9 81 bc bc 9e d6 3d e5 b5 54 be 83 42 9b bd
       -0.01584338 0.10479495 -0.20772512 -0.075810455
000340 6d f6 59 3e 15 8d a5 bd 55 4e 65 3e 7e 49 07 3e
       0.2128541 -0.0808355 0.22393163 0.13211629
000350 23 11 b9 3d 7f 2e 86 bd 18 81 ce 3d 62 88 c1 3d
       0.09036472 -0.06551837 0.100832164 0.09449841
000360 96 aa d2 3d c7 54 0d 3e 36 8f 14 3e 61 8d ca 3d
       0.10286443 0.13801871 0.14507756 0.09890247
000370 60 a9 98 3c 6a 6e 40 be 66 c0 58 be 4e e7 ff bc
       0.018635452 -0.1879212 -0.21167144 -0.031238224
000380 56 bd 59 3b ce 2d da 3c 31 1a 62 3e 7d 2e 4d be
       0.0033224425 0.02663317 0.22080304 -0.20037265
000390 e4 54 26 3d 0a c2 fa bd 5e 64 ec 3c 52 8b 3f 3e
       0.0406083 -0.12244041 0.028856453 0.1870549
0003a0 e4 5b 3d be 12 e4 8d 3d 0c 94 ac be 98 78 da bd
       -0.18492085 0.069282666 -0.337067 -0.10667533
0003b0 f9 eb da bd 0e fd d7 3d 6d d5 67 bc d4 95 6d be
       -0.106895395 0.10546313 -0.014150006 -0.23201686
0003c0 01 fc 4f bd 83 12 78 3d c3 12 56 3e 83 1d 6f bd
       -0.05077744 0.06056453 0.20905595 -0.058377754
0003d0 0b 52 7b 3e 52 40 b8 3d 5e c7 36 3c 63 74 28 be
       0.24543016 0.08996643 0.011155931 -0.16450648
0003e0 98 36 cb 3b 5d 9b 89 bd 29 8e ce 3d 48 21 07 bd
       0.0062015764 -0.06719086 0.10085709 -0.032990724
0003f0 92 13 18 3d 49 eb 17 3e fc 04 3d 3e b9 23 30 bd
       0.03712804 0.14835848 0.18458933 -0.043002818

shared_layers.0.bias f4 [64]
000000 b3 eb 3c bd fd ae 23 3d 16 b5 23 3d 15 85 fb bc
       -0.046123218 0.039961804 0.03996762 -0.030703107
000010 76 5a 36 ba 68 d7 58 3d db 54 ef 3c e6 c7 9b bc
       -0.0006956229 0.052939802 0.029215267 -0.019016217
000020 3e e1 a8 3c 48 eb 02 3d 46 9d bd bc 79 21 bb ba
       0.020615216 0.031962663 -0.023146283 -0.0014276943
000030 03 61 83 bc 21 da 33 bc 74 e8 a4 3d 24 ac 5e bd
       -0.01603747 -0.010977299 0.080521494 -0.054363385
000040 e1 f4 f9 3b b0 ed 30 3d 00 b8 84 3d a2 ab 8d bd
       0.007628069 0.043195426 0.06480408 -0.06917502
000050 7d e5 c2 bc 83 fc 99 3c 65 bb af 3c c9 69 d0 bb
       -0.02379107 0.018797165 0.021451661 -0.006360267
000060 a5 e7 a2 3d c4 d9 24 bc 99 c8 0a bc ed 97 8b 3d
       0.07954339 -0.010061685 -0.008470678 0.06816087
000070 6b e6 41 ba 26 a9 e3 3a d1 44 0b bd fe c3 97 3b
       -0.00073967007 0.0017369136 -0.034001175 0.0046315184
000080 c4 28 ea 3b be 6a 4d bc 56 99 41 3d b4 74 40 3d
       0.007145973 -0.012537656 0.047265373 0.046986297
000090 0b 7d de 3c a6 03 b9 bc 58 ca 42 3d 38 34 41 bd
       0.027159235 -0.022584748 0.04755625 -0.04716894
0000a0 53 68 bd bc fc 87 53 bd 2e fa 8a bc 8d c8 94 3b
       -0.023121035 -0.051643357 -0.016964998 0.004540509
0000b0 8f 5e 78 3d 31 23 91 3c bc bf bb bc 32 9b 1b 3d
       0.060637053 0.017716976 -0.022918575 0.037989803
0000c0 3a 2d d2 bc f7 82 1d bc 1b a1 70 3b 4e f8 4e bd
       -0.025656331 -0.009613744 0.003671712 -0.05052977
0000d0 02 57 04 3b 8c 83 21 bd e9 81 dd 3c ad be 92 bc
       0.0020193462 -0.039432094 0.027039485 -0.017913187
0000e0 b3 61 23 3d d0 de b9 3c 5e 93 fa bb 0f ef 44 bd
       0.039888095 0.022689253 -0.007646962 -0.048079547
0000f0 b3 15 ed 3c 35 83 40 bd 36 80 52 3d 1b e0 a8 bb
       0.028941011 -0.04700013 0.051391803 -0.0051536686

shared_layers.1.weight f4 [64]
000000 85 8e 67 3f 2c 63 63 3f 11 df 51 3f 79 f2 66 3f
       0.9045184 0.888232 0.81981 0.90213734
000010 ec 77 68 3f cb 5c 77 3f 7b e4 6d 3f ce 09 6e 3f
       0.90807986 0.96625966 0.9292676 0.9298371
000020 88 28 71 3f 88 85 68 3f 5c 80 56 3f 3a 5e 57 3f
       0.9420247 0.9082875 0.8378961 0.84128153
000030 c8 68 67 3f 8e 4f 66 3f 49 f0 74 3f bb 75 62 3f
       0.9039426 0.8996514 0.95679146 0.8846089
000040 4f d4 5c 3f 12 20 6e 3f 61 5f 76 3f 51 5d 75 3f
       0.8626146 0.93017685 0.96239287 0.95845515
000050 36 a5 63 3f fe 48 5f 3f cd 06 5d 3f 6f 09 61 3f
       0.88923967 0.8722075 0.863385 0.8790502
000060 62 a3 79 3f ad 4a 63 3f cd b9 66 3f 1d 21 7d 3f
       0.9751493 0.8878582 0.9012726 0.9887865
000070 f1 1e 68 3f 12 f8 71 3f 09 e1 5e 3f bc af 5b 3f
       0.9067221 0.9451915 0.87062126 0.85815024
000080 6d 45 4f 3f 57 70 65 3f 7c fd 67 3f 3d bc 69 3f
       0.8096531 0.8962454 0.9062116 0.91302854
000090 8d fa 70 3f fd bc 57 3f 74 9f 7c 3f bc e3 52 3f
       0.9413231 0.8427275 0.98680806 0.82378745
0000a0 81 3d 61 3f 1d a6 4f 3f 83 7d 71 3f 71 96 7a 3f
       0.8798447 0.81112844 0.9433214 0.97885805
0000b0 6d 9a 74 3f 6e 1a 65 3f 91 29 64 3f 68 af 73 3f
       0.95548135 0.89493454 0.89125925 0.95189524
0000c0 bc 27 5f 3f 8e d5 56 3f 80 a9 5a 3f 94 10 70 3f
       0.87170005 0.8391961 0.85414886 0.93775296
0000d0 7f ea 78 3f 4a 83 55 3f 3d c9 65 3f f3 0f 57 3f
       0.9723281 0.83403456 0.8976019 0.8400871
0000e0 ec e6 6a 3f ba dd 77 3f 78 0c 6b 3f 11 0f 4e 3f
       0.9175861 0.968227 0.918159 0.8049174
0000f0 5f c5 67 3f bc ec 6a 3f 86 f2 6c 3f 3b a9 6e 3f
       0.9053554 0.9176748 0.9255756 0.93226975

shared_layers.1.bias f4 [64]
000000 91 1a 22 bd eb 83 8f 3c 55 3c 1a bd 15 aa 56 bd
       -0.039576117 0.017518958 -0.037655193 -0.052408297
000010 9f 12 59 bb 53 f2 1d 3d 55 a5 f3 3b d3 8d 87 bc
       -0.0033122671 0.038561177 0.0074354806 -0.01654712
000020 c5 7f 3b bd f3 22 9f bc eb 2d b9 bc 3e 11 20 bd
       -0.045776147 -0.019425845 -0.022604903 -0.039078943
000030 0d 9c 1e bd 14 d3 20 bd 2d 21 7d 3c cc 20 66 bd
       -0.03872304 -0.0392638 0.015449804 -0.05618362
000040 0d b6 6b bd 65 bc a9 3b b7 c2 d6 3c e0 bf 10 be
       -0.057546664 0.005179929 0.026215894 -0.14135695
000050 3a 01 4d bd 1f 80 ba 3b 07 8b 0d bd 91 57 d7 bc
       -0.050049998 0.0056915428 -0.034556415 -0.026286872
000060 80 eb 2e 3d 89 df a9 bd 60 2f 73 bc a5 aa 7c 3d
       0.04270506 -0.08294589 -0.014842838 0.061686177
000070 f0 53 26 bb cb 86 9c 3b 05 2f fe bc 89 0f 1d bd
       -0.002537962 0.0047768108 -0.03102828 -0.038344894
000080 c3 60 21 bd 5f 33 4b bd a2 21 af 3c ec 68 e2 3c
       -0.03939892 -0.04960954 0.021378342 0.027637921
000090 ce ae 9e 3a 62 f1 85 bd 78 0e d6 3c 98 5b 9f bd
       0.0012106539 -0.06540181 0.026129946 -0.07781142
0000a0 6c be 13 bd ec f4 0c be cb 54 5a bd 52 e0 0d bc
       -0.036070272 -0.13765305 -0.05330352 -0.008659439
0000b0 b2 38 43 3d b6 83 24 bc b2 bd 02 bd 7a 32 e1 3c
       0.04766149 -0.010041168 -0.03191919 0.02748989
0000c0 2e eb 13 bd 0c be 35 bd 0c 35 10 bd e1 49 1e bd
       -0.036112957 -0.044370696 -0.03520684 -0.038644675
0000d0 1e cd 27 ba 3f b6 8d bd 90 c4 e0 bb ea c7 2b bd
       -0.0006401109 -0.06919526 -0.0068593696 -0.0419387
0000e0 ae 1b 5d ba 2c c7 35 3c 33 2c ce bc b3 03 ef bd
       -0.00084346056 0.01109485 -0.02516756 -0.116706274
0000f0 23 37 fe 3a 9a b9 4a bd 3d 71 9a 3c 17 0a 9f bb
       0.0019395094 -0.04949341 0.018852824 -0.0048534977

shared_layers.4.weight f4 [24, 64]
000000 ed 89 c8 3d 43 71 a4 3c 00 6c 6f be 91 5d 99 3e
       0.09791932 0.020073539 -0.23381042 0.29954198
000010 f3 e4 85 3d 7e 05 81 be f3 c7 0a be 33 f1 0b be
       0.06537809 -0.25199503 -0.13552837 -0.13666229
000020 23 2c 0d 3e ff 77 41 3c 4d 0a 12 3e 41 25 80 3e
       0.13786368 0.011808394 0.14261742 0.25028422
000030 31 1e 76 3e 7a c6 72 bd 41 dc 53 be 4a e4 58 3c
       0.24034955 -0.059271313 -0.20689489 0.013238022
000040 51 c6 1f 3e fc 2d 21 be 39 bf 8a 3d 4f 58 17 be
       0.15602995 -0.15740198 0.06774754 -0.14779781
000050 37 95 48 3e ab eb a6 3c 25 84 5a 3e e3 68 54 be
       0.19588171 0.020376047 0.21339472 -0.20743136
000060 cf a6 37 3d cc 71 6b bd aa 81 09 3e f1 4c 79 be
       0.044836815 -0.057481572 0.13428369 -0.24345757
000070 01 31 99 3d d6 01 53 bd ce 8c 84 3c 00 7e e6 bb
       0.0748005 -0.051515423 0.016180422 -0.0070340633
000080 c7 87 28 3d 7e 9d 89 3c bc fa 0e 3b 69 d1 f6 bc
       0.041145112 0.016798731 0.002181693 -0.030129151
000090 0a 99 10 be bf bf 0d be 3c 47 4b bd ff 79 b6 3c
       -0.1412088 -0.13842677 -0.04962848 0.02227497
0000a0 77 98 46 be 06 07 c3 3d d8 00 31 3e dc 28 9e be
       -0.19394098 0.09522824 0.17285478 -0.30890548
0000b0 2c 83 66 3d 8f 00 8e 3e 27 6a 49 be 41 87 51 3e
       0.05627744 0.277348 -0.196694 0.20461752
0000c0 b7 29 0c be 07 9c 72 bd ff 86 57 3e 34 ea 75 3e
       -0.13687788 -0.05923083 0.2104759 0.24015123
0000d0 08 76 96 3c 25 f5 d1 bd 65 80 f7 bd 61 b8 f2 bd
       0.018366829 -0.10251836 -0.12085036 -0.11851574
0000e0 72 71 02 3e c0 10 37 3e 3c be df 3d ee 2b 58 3e
       0.12738588 0.17877483 0.10924956 0.21110508
0000f0 1d f9 db 3c dc fd 81 bc 80 3d 69 be 3b c4 03 3e
       0.026852185 -0.01586812 -0.22777367 0.12867825
000100 2d d3 61 be f4 83 00 3d 8d 2b 69 3d 67 60 2b 3e
       -0.22053213 0.03137584 0.0569263 0.16735993
000110 34 3e 67 be 9e 86 3f 3e 03 76 d8 3d 3b 62 08 be
       -0.22582322 0.18703696 0.10569384 -0.13318722
000120 57 1b 9b 3b 6d 78 61 be 80 98 f3 bd 8a 7a 5b ba
       0.004733484 -0.22018595 -0.118943214 -0.0008372447
000130 a2 01 96 3d 73 20 99 3e 2f f6 22 3d f5 c4 03 3e
       0.0732453 0.2990757 0.03978556 0.12868102
000140 bd 65 49 bd 8e 19 13 bd cb 13 0e bb 8a 28 46 bd
       -0.04916929 -0.035913043 -0.0021679278 -0.048378505
000150 0a 4c 92 3d 07 4a 2a 3e 98 2e 05 3d e3 5d 48 bd
       0.071434096 0.16629802 0.03251514 -0.048917662
000160 b2 f1 8a 3e 85 4c 8a bc 66 d6 26 be 5f 17 86 be
       0.27137524 -0.01688219 -0.16292724 -0.26189706
000170 7f e5 82 be 42 92 40 3e cc 1b 85 be 6d 35 dd bd
       -0.25565717 0.18805793 -0.2599777 -0.10801206
000180 46 0c 27 3e d5 d3 4b 3d de 10 d0 bd b8 b7 40 3e
       0.16313276 0.049762566 -0.10159467 0.18820083
000190 88 ce 05 3e c8 0a 66 3c 16 15 c4 3d d5 99 95 3c
       0.13067067 0.014040656 0.09574334 0.01826183
0001a0 63 97 2b be 9e d3 9e bd a6 14 19 be 96 cc 56 bd
       -0.16756968 -0.077552065 -0.14949283 -0.052441202
0001b0 85 2e aa 3d cb 62 77 be de b3 2e 3d ad 04 b0 bd
       0.08309654 -0.2415878 0.042652003 -0.08594642
0001c0 c5 0c 26 bd aa cf a2 bd a8 80 ce 3d 84 e0 8a 3c
       -0.04053952 -0.07949765 0.10083133 0.01695276
0001d0 ee 5d 65 3b e8 8d 07 3e 7c b7 82 3e de d0 fd bc
       0.0034998613 0.13237727 0.25530612 -0.030983385
0001e0 72 3f 97 bc ca b0 2c 3d 37 55 90 3e d5 65 32 be
       -0.01846287 0.042160787 0.28190014 -0.17421658
0001f0 b9 48 01 be d8 ea 2b bc 2f 1a 3b be b7 58 a2 3e
       -0.12625398 -0.010493003 -0.18271707 0.3170831
000200 6b 03 5b 3c 4a e9 57 3e 6a d1 71 3d 90 4e ab 3d
       0.013367514 0.21085086 0.059037603 0.08364594
000210 a6 ff 28 be a6 30 73 bd 15 20 01 3e 11 c8 6e bd
       -0.16503772 -0.059372567 0.12609895 -0.058296267
000220 8b 63 5a be 6e f8 b2 3c 99 0b b5 3d ac 03 53 be
       -0.21327035 0.021846976 0.08840103 -0.2060687
000230 8a cf 8e bd e4 6d 4f be a2 2e a9 bc 6c 93 ce 3d
       -0.06973179 -0.20256764 -0.02065212 0.10086712
000240 22 fb 44 3c bd 9c 8f 3c 71 87 4a be 40 29 cc bd
       0.012022765 0.017530793 -0.1977823 -0.09968805
000250 34 92 98 bc 38 6f b5 bd 26 76 07 3d a7 38 bb 3d
       -0.018624403 -0.08859104 0.03307166 0.09141665
000260 96 4c 92 3c 22 fb eb 3d bb a7 92 3e 95 93 e2 3d
       0.017858785 0.11522509 0.28643593 0.11063305
000270 e8 f0 0a 3d a9 0a 19 3e a4 12 00 3e b1 cc 0f be
       0.033921152 0.14945473 0.12507111 -0.14042927
000280 8d e8 fe 3d 32 3d 46 be e5 ff be bd 8a b4 1f be
       0.12446699 -0.19359282 -0.09326152 -0.15596214
000290 c6 ac 77 be 5c b6 b8 3d 6e 3e 0b be 10 ab 90 3d
       -0.24187002 0.09019157 -0.13598034 0.070638776
0002a0 68 9d 0e be 30 c7 c9 bc ec 85 5f be bf ca f7 3d
       -0.13927233 -0.024631113 -0.21828431 0.120992176
0002b0 17 a8 31 be 9f 13 e5 3d ad f7 5f 3e 42 02 fd bd
       -0.17349277 0.11185383 0.21871825 -0.12353946
0002c0 ae d6 03 3e f8 c3 96 3e 6a 3e a7 bd 84 a4 9c bc
       0.12874863 0.29446387 -0.081662014 -0.019121416
0002d0 81 fc 38 be 29 c1 e8 bd f6 f2 6b 3d 48 93 ce 3a
       -0.18065073 -0.113649674 0.057604752 0.0015760446
0002e0 b2 46 dc 3d 3d 1d b3 bd 81 0a 8d be 1e bb 5b 3e
       0.107556716 -0.08745811 -0.27547076 0.21458098
0002f0 81 61 8f be ba 15 48 3d 02 41 2f 3e 8c 26 5a 3e
       -0.28004077 0.048848845 0.17114642 0.21303767
000300 b6 2a 96 3e 91 fa e3 3d 92 9f 74 3e c7 64 af bd
       0.2932946 0.11131776 0.23888996 -0.08564144
000310 6b 89 99 bc 95 eb 1c 3d 6a 73 e8 bd 4b 1f 78 be
       -0.018742284 0.038310606 -0.113501385 -0.24230687
000320 e2 6c 3f 3d 84 c9 ad 3e 7e da 84 be 64 ea ed bd
       0.046734698 0.33942807 -0.25947946 -0.11616972
000330 30 15 e1 3d 8d 83 1a be eb 11 7e bd c9 8d 3e 3e
       0.10990369 -0.15089245 -0.062028807 0.18608774
000340 bf 05 a0 bd 3b ab d6 bc bf e0 80 be 7c 5d 01 be
       -0.07813596 -0.026204696 -0.25171468 -0.12633318
000350 25 7e 82 bd bd ca 11 bd 7d 90 ad 3d 08 58 63 3e
       -0.063717164 -0.035593737 0.084748246 0.2220155
000360 53 04 dc 3d 13 ea aa bb de 74 eb 3d b2 5d e7 3d
       0.10743012 -0.005215892 0.114969 0.11297168
000370 79 ba 27 3e 2b 68 be 3c f7 db 73 3d af 2b 49 be
       0.16379727 0.02324303 0.059535947 -0.1964557
000380 63 d4 0d 3c be e1 67 be 01 60 11 be 5c 0c d5 bd
       0.008656594 -0.22644708 -0.14196779 -0.10402748
000390 5e 3d 2b be cd 26 c9 3d 7e 6a 0e be 36 cc 8d bd
       -0.16722628 0.09821854 -0.13907811 -0.06923716
0003a0 86 16 c3 3d 4f f5 7d 3d 0e 27 40 bd 31 3b a1 be
       0.095257804 0.062001523 -0.046912245 -0.31490472
0003b0 2b 61 34 be 83 9f db bc 33 fc 1c 3e d1 66 7f 3e
       -0.17615192 -0.02680946 0.15330581 0.24941565
0003c0 73 b6 d5 3d 60 c9 df bb dc 32 8b bd 03 ee da 3c
       0.1043519 -0.0068294257 -0.0679681 0.026724821
0003d0 7a ea da 3d 76 98 8a bd 21 94 14 3e ec 38 58 be
       0.10689254 -0.06767361 0.14509632 -0.21115464
0003e0 40 34 6e be a0 67 e8 bd 7a e4 c5 3b 3d 92 3e be
       -0.2326212 -0.1134789 0.0060391994 -0.18610473
0003f0 49 e2 0f bd 7f 96 a0 bd 69 70 2e 3e 9c 04 bb bd
       -0.03512791 -0.07841205 0.17035069 -0.091317385

shared_layers.4.bias f4 [24]
000000 63 62 8b 3c 48 b7 00 3d 23 15 4d bd 77 f1 72 bc
       0.017014688 0.03142479 -0.050068986 -0.0148280775
000010 d0 02 b8 bc 3d a2 5a 3c ef 62 7c 3d d6 37 b9 bd
       -0.022462279 0.013344345 0.061617788 -0.09043853
000020 fc 4d 50 3c e7 fa 9e 3d 3b a5 79 3d e2 ff 7a 3d
       0.012713905 0.077626996 0.06094859 0.061279185
000030 73 12 ec bc 01 ba 26 3b 74 57 10 3d ec 3e dd bc
       -0.028817391 0.0025440457 0.03523965 -0.027007543
000040 11 b0 c5 3c fa 58 b2 bd 45 4c 8f bc 7f 20 c3 3c
       0.024131807 -0.08708377 -0.017492423 0.023819206
000050 cf 6a 4c bd a2 3f 67 bd 30 54 d0 bc 8a d3 07 3c
       -0.049906548 -0.05645717 -0.025430769 0.008290181

shared_layers.5.weight f4 [24]
000000 f9 d7 6d 3f b8 16 7c 3f 70 ef 6a 3f 9a 13 83 3f
       0.92907673 0.98472166 0.917716 1.0240357
000010 93 cd 8f 3f fb d1 5d 3f 6c ed 88 3f 50 19 48 3f
       1.1234611 0.8664853 1.0697455 0.78163624
000020 0a 0e 82 3f c8 e9 77 3f c7 47 8f 3f 9c 10 8d 3f
       1.0160534 0.96841097 1.119378 1.1020694
000030 f4 1c 5e 3f 8a fe 63 3f d6 90 52 3f 11 45 62 3f
       0.8676293 0.8906027 0.8225225 0.88386637
000040 36 92 70 3f e6 00 69 3f cb b9 60 3f df 64 7e 3f
       0.939731 0.91016996 0.877835 0.9937267
000050 3e 34 61 3f 56 77 77 3f c2 09 60 3f c8 30 74 3f
       0.8797034 0.9666647 0.8751489 0.95386934

shared_layers.5.bias f4 [24]
000000 aa e8 b3 3c 46 da 99 3d 5b b1 ed bb 0d 82 92 3c
       0.021961529 0.075123355 -0.0072538084 0.017884279
000010 04 c1 e1 3c e2 1b 24 3d ee 27 e1 3d e5 9d 10 be
       0.027557857 0.040065654 0.10993944 -0.14122732
000020 eb 85 90 3d af fa 29 3e 03 90 b6 3d 17 3f b3 3d
       0.07056793 0.16599534 0.08914187 0.08752268
000030 ed 8e ee bc 84 63 7a 3c e8 43 13 3d eb cc e8 3c
       -0.029120887 0.015282515 0.035953432 0.028418025
000040 2c 95 81 3d 36 59 72 bd 1a 23 b6 bc dd ab 33 3d
       0.063272804 -0.05916711 -0.022233535 0.043865073
000050 18 29 2e bb ec a7 7d bc fb 76 01 bd ee cc 60 3d
       -0.0026574787 -0.01548193 -0.03160761 0.054882936

algorithm_heads.0.weight f4 [1, 24]
000000 dc 8d 7f 3d 2d 2d 24 be 9e db 72 3e 5a 92 0c bf
       0.062391147 -0.16032858 0.2371659 -0.54910815
000010 25 9e 62 be 68 e5 26 3d ed bf 91 3e 55 fa af 3e
       -0.2213064 0.040746123 0.2846674 0.34370676
000020 e9 32 5c 3e b5 d0 7b 3e c9 e2 c9 3e 09 27 c2 3d
       0.21503796 0.24591334 0.39430836 0.094801016
000030 cf 7d 2a 3e aa 82 ca 3e d8 5e 2a 3d 18 1b 0d bf
       0.16649555 0.39552814 0.041594356 -0.55119467
000040 d7 54 33 be 72 18 7d be d2 8c a8 bd 55 58 3b be
       -0.17512833 -0.24716356 -0.08229984 -0.18295415
000050 1d 45 9b 3e 10 48 07 bf fd fb 9a 3e d1 7c 60 3e
       0.30326167 -0.52844334 0.30270377 0.21922614

algorithm_heads.1.weight f4 [1, 24]
000000 b4 65 d0 3e 0c cb f6 3b 64 19 c1 bd ba 49 c2 be
       0.40702593 0.0075315293 -0.09428671 -0.37946874
000010 3c f4 4a be be 18 8d 3e 16 9d 32 3d 28 29 16 bd
       -0.1981973 0.2755794 0.04360684 -0.036660343
000020 dd 71 d7 bd 9d e3 7c 3c cf 4d c5 3e 7a 7c d1 3e
       -0.105197646 0.015435127 0.38535926 0.4091528
000030 ca 15 06 3f 6c 95 b0 3e 8a 3f 1e 3f d1 92 ca be
       0.52377 0.34489 0.618157 -0.39565137
000040 c5 df d7 bd 64 5a 86 be 49 7d 24 3e b9 fe 6e be
       -0.105407275 -0.26240838 0.16063417 -0.23339356
000050 dd 79 68 3e 5f 43 aa be 2c c8 42 3e 9c 06 ab 3e
       0.22702737 -0.33254525 0.19021672 0.3340348

algorithm_heads.2.weight f4 [1, 24]
000000 b5 b8 1f 3f c8 9d 59 3e 36 f6 81 be 8e f5 0b bf
       0.62391216 0.21251595 -0.25383157 -0.5467156
000010 1c 50 18 bf 62 38 0e 3f 5d 59 0d 3f 3d 4a b1 3e
       -0.5949724 0.55554783 0.5521448 0.34626952
000020 e4 e5 27 3e cb 52 3c be 13 d4 26 3e f8 77 31 be
       0.1639629 -0.18390958 0.16291837 -0.1733092
000030 43 65 b6 3e cf 2c 6b 3c 43 0e 18 3e 4a 2c 77 3e
       0.35624132 0.014353945 0.1484919 0.24137989
000040 c9 58 14 3f e1 15 84 be 69 92 8d 3e 64 a9 19 3f
       0.57947975 -0.25797942 0.27650765 0.60024095
000050 df f3 10 3e 62 a6 3d be 04 c9 b6 bd 7a 0e 38 3c
       0.1415553 -0.18520501 -0.089250594 0.01123392

algorithm_heads.3.weight f4 [1, 24]
000000 bd d0 b6 3e 07 41 0a bf 90 27 28 3d 78 6c 7c be
       0.3570613 -0.54005474 0.041053355 -0.24650753
000010 28 9b 90 be 84 10 b1 3a 7f f2 4c 3e 1a 06 c3 3e
       -0.28243375 0.001350895 0.2001438 0.38090593
000020 9f 58 ce 3e fd 86 92 be 69 00 68 3d 20 91 01 3d
       0.40301988 -0.28618613 0.056641016 0.031632543
000030 84 c9 0f bf 48 06 12 3f 53 d6 10 3e 10 26 1b 3d
       -0.56166863 0.57040834 0.14144258 0.037878096
000040 1a a7 e1 be 81 ae c4 be 15 8e bc 3e 2b 16 8d be
       -0.440728 -0.38414386 0.3682715 -0.27555975
000050 b5 25 7e 3e c4 38 d8 bd b0 ba f1 be 9b 5d e6 be
       0.24819072 -0.10557702 -0.47212744 -0.4499329

algorithm_heads.4.weight f4 [1, 24]
000000 3c bf 75 3e 6a 8c e6 3d 6c 6e 1f 3f 8a 59 99 3b
       0.23998731 0.112572506 0.62277865 0.0046798633
000010 3a 3d 1e 3e 1e 39 01 bd 14 99 92 be 5a 5a b4 3e
       0.15453044 -0.03154861 -0.28632414 0.35225183
000020 a3 ff b7 be 41 9f 0e bd cc c1 de 3d f0 26 d2 bd
       -0.35937223 -0.034819845 0.108768076 -0.10261333
000030 24 c6 1e bd 99 61 87 bc 56 06 bb 3e 9a 9e 7d 3e
       -0.03876318 -0.01652603 0.3652827 0.24767533
000040 93 46 32 3e 43 df 2e 3c 91 c5 e4 3d 6f 84 19 3d
       0.17409734 0.010673347 0.11170495 0.037479814
000050 5f 06 d8 bc d2 da a6 3d 50 ff 66 3e cd 52 5d 3e
       -0.026370225 0.081472054 0.22558331 0.21613617

algorithm_heads.5.weight f4 [1, 24]
000000 d3 1e 39 3d d1 76 31 bf ac 2c 36 3d 46 0a e7 3e
       0.045195412 -0.69321924 0.044476196 0.45125026
000010 ac 58 0b 3f ae 23 aa be f0 ec b1 be 3b af 0b 3c
       0.5443218 -0.33230346 -0.3475108 0.008525665
000020 41 79 55 3a 0f a7 42 bf 59 ef 07 bf 5e fc 30 3f
       0.00081433734 -0.7603616 -0.5309959 0.6913508
000030 04 d7 68 3d f0 c5 a6 be 9c 1c 11 3e e7 07 00 3e
       0.05684568 -0.3257289 0.1417107 0.12503015
000040 44 3e 72 be d7 07 ea be 74 3b 43 3e 9f 23 01 bf
       -0.23656565 -0.45709106 0.19065648 -0.5044498
000050 4c f4 4a bd df 3f f7 3c b0 b0 37 3d d4 13 e2 be
       -0.049549386 0.030181823 0.044846237 -0.44155753

algorithm_heads.6.weight f4 [1, 24]
000000 bb 50 e0 bb 87 97 6a be 70 fb ca 3e 77 2c ae bd
       -0.0068455613 -0.22909366 0.39644957 -0.08504575
000010 f2 5b 57 be 4b cc 1e be de 44 f5 3d 4c cc 41 be
       -0.21031168 -0.15507619 0.11976026 -0.1892559
000020 9f 73 eb 3d cb 1e 96 bc f1 28 5e bd 7e d6 ab bd
       0.11496662 -0.01832523 -0.054238264 -0.083905205
000030 27 d4 90 3e 9a 7f b4 3e 5e 93 9f be fa 63 c1 3e
       0.2828686 0.35253602 -0.3116712 0.3777159
000040 ca 19 42 be 67 ea be 3e f4 86 ab bd a7 56 0c 3f
       -0.1895515 0.3728821 -0.0837535 0.5481972
000050 8f ed 90 bd 54 3d 69 be 69 cd 3f 3e 76 d5 94 3e
       -0.07076561 -0.22777301 0.18730702 0.29069108

algorithm_heads.7.weight f4 [1, 24]
000000 91 49 46 3c 5a 33 ee 3d f0 e4 70 3e b0 37 f4 bc
       0.012102501 0.11630888 0.23524833 -0.02981171
000010 79 c9 ee bc 7f b1 cb bd 22 43 28 be e4 98 70 be
       -0.029148804 -0.09945964 -0.16431859 -0.23495823
000020 42 ed 87 be 69 2e f2 bc fa f4 8f bd aa e7 c3 be
       -0.265482 -0.029563146 -0.070291474 -0.38262683
000030 ae 9e f0 bd 0a b1 3f 3e 87 77 bb be f1 f3 89 3e
       -0.11749016 0.18719879 -0.3661463 0.26943925
000040 61 95 c5 3e 5c 35 cf be d1 b6 97 be 14 7d d3 3d
       0.3859053 -0.40470397 -0.29631665 0.10326591
000050 ec 90 3e be 5a aa 75 3e d9 62 48 be 78 24 0b be
       -0.18609971 0.23990765 -0.19568957 -0.1358813

algorithm_heads.8.weight f4 [1, 24]
000000 fd ec 32 bd 0b db 49 bd 56 60 05 3f 79 fa 12 3e
       -0.04368304 -0.04928116 0.5210012 0.1435336
000010 9d a9 05 bd 66 02 1e 3e 9e ca 9b 3d 78 63 bf be
       -0.03263246 0.15430602 0.076070055 -0.37380576
000020 7e a3 40 bd 83 09 41 be 67 72 ae 3d 82 1c 25 bc
       -0.04703092 -0.18851285 0.08517914 -0.010077598
000030 5c 18 93 be 17 8d 7d be df 02 89 be e2 8d 51 3e
       -0.28729522 -0.24760853 -0.26760003 0.2046428
000040 4b 85 14 be 5a 2f 45 3e 00 70 17 b9 54 4a 5b 3e
       -0.14503972 0.19256344 -0.00014442205 0.21415073
000050 21 13 b9 bd 44 e7 07 3e 79 45 b2 3e 41 7c 37 3e
       -0.09036852 0.13271815 0.34818628 0.17918493

algorithm_heads.9.weight f4 [1, 24]
000000 08 50 f1 3d 96 58 ab 3e 12 32 a6 bd 10 2f c9 be
       0.11782843 0.33466023 -0.08115019 -0.39293718
000010 a2 02 e8 bd cd 74 9a 3d ff ef aa be a4 35 b4 3e
       -0.11328627 0.07541809 -0.33386227 0.35197175
000020 55 d7 bd be 3a 03 77 3e 62 26 93 3c f4 92 73 3e
       -0.37078348 0.24122325 0.017962638 0.23786527
000030 8c 66 6c bd 51 ed 0d be 24 df d8 3e db c5 bc 3e
       -0.057714984 -0.1386006 0.42357743 0.36869702
000040 91 dd 03 3e 97 f9 9d bd 3f c8 0e 3e c9 bd 66 bc
       0.1287749 -0.07713621 0.13943575 -0.014083334
000050 4f e4 e5 be 12 06 79 3d cf 10 fb 3d 70 ff b1 bd
       -0.44900748 0.060796805 0.12259065 -0.08691299

algorithm_heads.10.weight f4 [1, 24]
000000 49 ce 84 bd fe 14 b6 bd 3e fa f6 3d 5c a3 b7 3d
       -0.06484658 -0.08890723 0.12059449 0.08966705
000010 bd 15 13 be 6e c4 e8 be 57 a3 d3 be a7 af 06 3e
       -0.14363761 -0.45462364 -0.41335556 0.13152944
000020 57 3a 11 be a4 d1 a2 be ee 43 87 be ac 52 13 bf
       -0.14182411 -0.31800568 -0.26419014 -0.5754802
000030 20 3b 44 3e 1b f1 c4 3c e4 a1 b0 be 22 93 3d 3c
       0.1916318 0.02404075 -0.34498513 0.011570724
000040 b2 8a 9f 3e fe c1 80 3c b1 dc d1 be 6e d3 6c be
       0.31160504 0.015717503 -0.40988687 -0.23127529
000050 88 a5 a7 3d fe e9 1f 3e d4 b8 0d 3a 1b a5 d7 bd
       0.081858695 0.15616605 0.00054062647 -0.10529538
