src/automl/meta_model.pth (torch, 38133 bytes, 22 tensors)

shared_layers.0.weight f4 [64, 52]
000000 91 3a c2 3c 4e d1 da bc 4e 3a 1f be 27 3c 7f 3d
       0.023709567 -0.026711132 -0.15549585 0.062313225
000010 40 83 d6 bd 6e 5a da bc 9c 7e a8 bd 24 ae 7c 3d
       -0.10474253 -0.026654448 -0.08227274 0.06168951
000020 13 0f 43 bd 75 2c 6b 3d 72 e6 1c bd b1 05 3b 3e
       -0.047621798 0.057415444 -0.038305707 0.1826389
000030 8c 66 53 3e 59 9c f1 3d 05 90 f1 3d 48 02 fd 3d
       0.20644587 0.11797399 0.11795048 0.12353951
000040 8c 76 f5 bc 20 cb e7 3b 14 37 3d 3d 4c fa ba 3d
       -0.029963754 0.007073775 0.046195105 0.091297716
000050 c6 e9 9e bb 0f 07 66 be a0 29 0e bc 6d fe 80 3a
       -0.0048496453 -0.2246363 -0.008676916 0.000984145
000060 aa 53 e8 bc 41 44 35 bd bb aa f2 bc ee a2 d4 3b
       -0.028360207 -0.044254545 -0.029622426 0.0064891493
000070 b6 a9 39 3d bf 06 84 3d bc 18 d9 3d 94 4f b0 3a
       0.045327865 0.06446599 0.10600421 0.001345145
000080 5f 33 b1 bc 62 cf 98 3d 90 bd c3 bc 52 e4 e3 bc
       -0.021630941 0.0746143 -0.023894101 -0.027818833
000090 5b cf 1e bd 75 a4 16 3d 29 e3 d8 b8 97 94 d0 3c
       -0.03877197 0.036777932 -0.000103419945 0.025461478
0000a0 76 4d 8a bc 24 11 f1 bb 2c 20 32 3d c3 4d 6c bd
       -0.01688264 -0.0073567796 0.043487713 -0.057691347
0000b0 be 7e 20 bd d8 0f 72 3d 0e 50 92 ba e3 64 12 3c
       -0.03918337 0.05909714 -0.0011162774 0.008935186
0000c0 38 d3 a6 bd 88 3c 03 bd 17 0a 26 bd c0 47 68 3d
       -0.081457555 -0.03204015 -0.040536966 0.05670905
0000d0 1d fb 2c bd e9 6d e0 3d f9 00 19 bd 7f 64 e8 3d
       -0.042231668 0.10958464 -0.037354443 0.11347293
0000e0 27 fb 88 bd b7 44 2b 3e 50 c3 f8 3d 36 92 00 be
       -0.066885285 0.16725431 0.12146628 -0.12555775
0000f0 07 84 0e 3c 4e af 6d 3d 6e 9c 52 bd d3 17 67 bd
       0.00869847 0.05802851 -0.051418714 -0.056419205
000100 7b b4 36 3d 78 1f 18 3d f4 74 16 bd 47 31 5e bd
       0.044605713 0.037139386 -0.03673263 -0.054246213
000110 ce e8 28 3d a4 12 08 3d 6d d2 30 bd b1 f2 b8 bd
       0.041237645 0.033220902 -0.043169428 -0.09030665
000120 18 c2 cb bd 69 e8 76 bd a3 de bd 3d d8 d2 a3 3d
       -0.0994913 -0.060280237 0.0927098 0.079992
000130 a0 58 74 bd 25 f6 b4 bc 59 49 1e 3c cc a5 ef bc
       -0.059654832 -0.022090027 0.009661042 -0.029253863
000140 33 aa 98 3c 9f f8 95 3c d4 44 92 bd 2f 0e a1 3c
       0.018635845 0.018307028 -0.07142034 0.019660084
000150 ba 8d 39 bc bb b8 01 bc 84 bd b5 3d 73 ae ea 3d
       -0.011325294 -0.007917578 0.08874038 0.11459055
000160 89 50 04 bd 23 45 b6 bc d5 90 dd ba 5b 07 f3 3d
       -0.032303367 -0.022249764 -0.0016904125 0.11866637
000170 cf a5 b7 bd 6f 70 eb bd 20 65 04 bd 63 1b c5 bb
       -0.08967172 -0.114960544 -0.032323003 -0.0060152276
000180 af 09 b3 3c b7 e7 3c bc 14 87 d0 bb cf 26 bd bb
       0.021855203 -0.0115298545 -0.006363759 -0.0057724486
000190 d3 8b 0a 3c 33 7f 59 3d 51 da 32 3d 71 9b 97 bc
       0.008456188 0.053099822 0.043665234 -0.018506737
0001a0 6e a7 c9 bd 75 e6 3c bd ce ed be bd 27 04 76 bd
       -0.09846388 -0.04611822 -0.093227014 -0.060062554
0001b0 01 00 81 3d a7 4e 01 bd 9f 4f 12 be eb 09 90 3d
       0.06298829 -0.03156915 -0.14288186 0.07033142
0001c0 e5 1d ea 3d 74 a2 2b 3e f7 4e ac bd a6 2b 1e 3c
       0.11431483 0.1676119 -0.08413499 0.009653961
0001d0 f8 8a 1e 3e 30 5f 9b 3d 36 74 23 bd 10 2a 02 bd
       0.154827 0.07586515 -0.03990575 -0.031778395
0001e0 57 b3 2d bc 99 f2 81 bb 0d 0a ee 3b dd f2 90 3d
       -0.01060184 -0.0039656875 0.0072643817 0.070775725
0001f0 e4 98 87 3d f0 fb a3 be 19 08 39 3e 72 01 1b 3e
       0.066209584 -0.3202815 0.18069495 0.1513727
000200 7d 57 91 bb e1 f8 b1 3c c1 74 fe 3c ae 3c 34 3d
       -0.0044354782 0.02172512 0.031061532 0.04400318
000210 0c 32 9d 3d b0 a6 b4 3d ac 00 88 3c 1e 97 0f bd
       0.07675561 0.088208556 0.016601883 -0.035056226
000220 fc 7b 2e bd 6a 9c 08 3d 21 ad 25 3e 11 ab 32 3e
       -0.04259871 0.033352293 0.16179325 0.17448069
000230 e4 12 48 bc d9 7e 83 3d a5 79 7b 3d 5e ef d5 3c
       -0.012211535 0.06420679 0.061395306 0.026115116
000240 11 36 c6 3d 91 7d 6d 3d fe 05 09 bd d8 39 5a bc
       0.09678281 0.057981078 -0.03345298 -0.013319455
000250 06 a5 3d bd 38 ee 37 3c 43 a6 0e 3d c1 46 01 3d
       -0.046299957 0.011226229 0.03482653 0.031561617
000260 14 73 bb 3d 41 6e ce bd 4c 13 dc bd 92 f6 0b bc
       0.09152809 -0.10079623 -0.10745868 -0.008542674
000270 93 18 90 3c 9e 73 0c be 71 ce eb bd 33 c0 25 be
       0.017589843 -0.1371598 -0.11513985 -0.161866
000280 94 be 8b bc c5 0b ee bd ad 20 0e bd a5 6c 88 bd
       -0.017058648 -0.116233386 -0.03469913 -0.06661347
000290 33 d3 b7 3d d2 66 09 3e 34 e7 be bd a6 67 64 3d
       0.0897583 0.13418129 -0.09321442 0.05576291
0002a0 81 08 91 3d 27 e3 07 3d fd b7 0d bd f1 cd 18 bd
       0.070817 0.033175614 -0.034599293 -0.037305776
0002b0 65 b2 95 3d 98 3a 9f 3d 99 83 40 bd 00 1c 38 3e
       0.07309417 0.07774848 -0.0470005 0.17979431
0002c0 08 f9 11 bd c9 8a 6a be d6 50 e1 3c d5 c9 ad bc
       -0.035637885 -0.22904505 0.027504366 -0.021214405
0002d0 27 53 f3 3c 37 11 ca 3d 58 85 bd 3d 63 9c 26 3d
       0.029702736 0.09866565 0.09253949 0.040676486
0002e0 e9 76 32 bd 34 5c 2e bd d5 b4 bb bc 94 37 ed bc
       -0.043570433 -0.0425684 -0.022913376 -0.028957166
0002f0 40 08 e1 bc 8a 64 5d bd e6 b7 b3 3c 6a 4e 3d 3a
       -0.027469754 -0.05405096 0.021938276 0.00072214624
000300 a2 71 02 3c 4e 35 1b 3c 69 2a 63 3d d1 66 27 bd
       0.0079616625 0.009473158 0.055460367 -0.040869538
000310 ee 2d 1e 3c 6e e6 69 3c 8c f6 ad bd 93 c1 d0 3d
       0.009654505 0.01427613 -0.08494291 0.10193171
000320 3e 46 dd 3d e9 68 5c bd c0 8b 63 3e 21 ec 60 3e
       0.10804413 -0.053810988 0.22221279 0.21965076
000330 00 05 9f 3d f7 f9 46 bd d7 0e 74 bc ff 60 ce 3c
       0.077646255 -0.04857823 -0.014896116 0.025192736
000340 ae 65 68 bc db e5 37 3c 07 ea d8 3d f4 3e 0e 3c
       -0.014184399 0.011224235 0.10591512 0.008682001
000350 6c 8d b4 3d 7b c2 54 be 91 08 57 be 46 67 2c bd
       0.088160366 -0.20777313 -0.20999362 -0.042090677
000360 f6 55 b5 bd ec d6 95 3d 71 9e 2e bd b0 96 30 bd
       -0.088542864 0.07316384 -0.04263157 -0.043112457
000370 0d 1d 74 bd d3 e8 53 bd 44 21 a2 bd 1d 1a 7b bd
       -0.059598017 -0.05173571 -0.07916501 -0.0613042
000380 9b 6c 1b 3d 2a a4 17 3c 22 58 11 bd da 48 c5 bd
       0.03794537 0.009255448 -0.03548444 -0.09633036
000390 8d d3 e6 3d 17 98 87 bc 82 b3 df 3c ca ad 5a 3d
       0.11270819 -0.016552014 0.027307276 0.053388394
0003a0 f0 48 96 3c af 93 c6 ba 26 ef f2 bb a1 08 9a 3d
       0.018345326 -0.0015150214 -0.0074137626 0.07521177
0003b0 7f 23 5b ba e1 47 f8 bb 0f d8 93 3a 83 c2 54 bc
       -0.00083594763 -0.007576928 0.00112796 -0.012985828
0003c0 46 4c 92 3c 9c e8 ad 3d c7 c8 1b 3d de 0b a8 3c
       0.017858636 0.08491632 0.038033273 0.020513471
0003d0 6e 2f e7 3b c6 73 8f 3d 05 cb b7 3d 9d c6 32 3d
       0.0070552146 0.07004504 0.0897427 0.043646444
0003e0 7e 00 d0 bc 4a 57 87 bc c6 53 c3 3d 71 bb 67 be
       -0.02539086 -0.016521115 0.09537463 -0.22630097
0003f0 47 e6 60 be 10 a2 6f 3d 56 39 15 be 71 06 2e be
       -0.21962844 0.058504164 -0.14572653 -0.16994645

shared_layers.0.bias f4 [64]
000000 1b fa 01 ba c5 5b 3e b9 4c c8 9b b9 e7 14 09 ba
       -0.0004958228 -0.00018153999 -0.00029713137 -0.000522925
000010 74 9f 95 39 78 63 a7 b9 64 6f 12 39 9f 29 0c b9
       0.00028538296 -0.00031926832 0.00013965141 -0.00013366945
000020 61 f4 9d 37 67 ad 3c ba 02 66 9d 38 ab 7f 86 b9
       1.8829656e-05 -0.000719747 7.505344e-05 -0.00025653592
000030 a3 8b 13 b9 2b 63 38 39 ad d7 a5 39 74 cb d4 b9
       -0.00014071031 0.0001758455 0.00031631943 -0.00040587375
000040 ee 56 7e b9 11 d0 8b b7 28 f8 6e b9 10 5c 02 b9
       -0.00024255711 -1.666698e-05 -0.00022789894 -0.00012432062
000050 28 92 96 b9 d3 1c 85 37 53 c9 ac 38 a6 d4 ca 38
       -0.00028719124 1.5868258e-05 8.239099e-05 9.6717195e-05
000060 39 76 aa 38 d5 ce 3c ba 9e 62 f6 b8 a7 de a0 b9
       8.1282524e-05 -0.0007202451 -0.00011748563 -0.00030683467
000070 24 09 41 ba 3e b8 ab b9 04 f1 12 b9 14 68 be b9
       -0.0007363728 -0.00032752933 -0.0001401343 -0.00036317168
000080 06 be 20 39 08 ac 5b b8 b4 2c 84 36 90 af e5 b9
       0.00015329578 -5.2373885e-05 3.9391107e-06 -0.00043809088
000090 37 1e c8 38 80 78 47 39 bf c5 9d b9 47 d6 0e 37
       9.542371e-05 0.00019023009 -0.00030092706 8.51375e-06
0000a0 63 7f bb b7 72 0c 8f 38 ea 25 9d 39 6a 8a 08 3a
       -2.2351456e-05 6.8210895e-05 0.00029973622 0.00052086136
0000b0 86 62 21 b9 51 88 29 3a 7f 9e bb b7 ef 8b a9 b8
       -0.0001539086 0.0006467151 -2.2365943e-05 -8.084613e-05
0000c0 36 55 11 ba a4 99 fd b9 e8 a0 0f 38 2f 02 f0 38
       -0.00055440085 -0.00048370392 3.4243712e-05 0.000114444985
0000d0 4f 1d b7 39 4a 56 f1 b9 44 97 1d b9 78 06 ad b8
       0.00034926317 -0.00046031392 -0.00015029038 -8.250488e-05
0000e0 91 91 18 b9 ea cc 0d 37 73 5b 4c ba 59 33 d5 39
       -0.00014550077 8.451965e-06 -0.00077956094 0.00040664783
0000f0 2f a9 db 38 c7 f3 97 3a fd 29 ba 37 13 4d 0e 3a
       0.00010474247 0.0011593037 2.219248e-05 0.0005428355

shared_layers.1.weight f4 [64]
000000 70 c7 8b 3e 8e 04 0a 3e 16 0b 61 3e 35 13 11 3e
       0.27300596 0.134783 0.21976885 0.14167483
000010 8b 3e 5e 3e 25 bc 6d 3e 37 9f 2c 3e 68 bc 05 3e
       0.21703546 0.23216303 0.1685761 0.13060153
000020 4e a7 00 3e 19 05 59 3e ab 46 f9 3d 04 19 ae 3d
       0.12563822 0.21193351 0.12171682 0.08500865
000030 fe de 3c 3e 0f 8d 3c 3e 06 59 e1 3d 24 4f 7a 3e
       0.1844444 0.18413185 0.11003308 0.24444252
000040 7c ed a2 3d 2d 7b 83 3e 9a 82 d1 3d e1 d3 59 3e
       0.07955453 0.25679913 0.102299884 0.21272232
000050 78 98 fb 3d d0 61 1f 3e b8 94 48 3e c2 16 65 3e
       0.122849405 0.15564656 0.19587982 0.22371963
000060 9c e1 11 3e c6 7a e1 3d 31 e7 23 3e b9 40 37 3e
       0.1424622 0.11009745 0.16006161 0.17895783
000070 42 bf 30 3e 0b e3 f9 3d 21 e5 de bb c3 a5 48 3e
       0.17260459 0.12201508 -0.0068022166 0.19594483
000080 1b ff 3d 3e ca 93 60 3e e5 52 f8 3d 33 38 44 3e
       0.18554346 0.21931377 0.12125186 0.19162063
000090 46 65 40 3e d7 70 44 3e 08 31 1f 3e 34 9e 51 3e
       0.18788633 0.1918367 0.15546048 0.20470506
0000a0 27 42 56 3e e7 63 0a 3e a4 85 42 3e e8 41 08 3e
       0.20923673 0.13514672 0.18996292 0.13306391
0000b0 35 a3 84 3e 45 8d 20 3e 38 9f 33 3e 6b 02 34 3e
       0.25905767 0.1567889 0.17541206 0.17579047
0000c0 17 03 48 3e 17 d4 07 3e 5f 10 80 3c a4 d5 34 3e
       0.19532429 0.132645 0.015632806 0.17659622
0000d0 c6 55 14 3e 80 16 83 3e ca 40 53 3e 3a a3 b8 3d
       0.14485845 0.25603104 0.20630184 0.09015508
0000e0 42 6d 27 3e 4d 84 91 3e 35 73 44 3e d6 30 35 3e
       0.16350272 0.2842125 0.19184573 0.1769441
0000f0 65 53 a2 3e 67 e5 a3 3e 2e 05 4c 3e 70 92 9c 3d
       0.3170425 0.32010958 0.19923851 0.07645118

shared_layers.1.bias f4 [64]
000000 6b ab 96 bd 5c fc ca bc 1d 08 f6 bd 39 90 eb bd
       -0.07356914 -0.024778537 -0.12013266 -0.11502118
000010 39 b2 d0 3b 13 96 22 3c 08 fb d7 3c 34 04 84 bd
       0.006368902 0.009923476 0.026364818 -0.06446114
000020 a4 93 5e bb 74 a3 c3 bc 14 67 e1 bd 0b 7b b9 bd
       -0.0033962512 -0.023881651 -0.11005989 -0.09056672
000030 ea 0c 09 3d 54 e2 2d bd c4 b5 51 bd 51 c3 c1 bd
       0.03345958 -0.04245217 -0.051198736 -0.09461082
000040 71 c3 09 bc 08 a3 ae 3b 79 db 00 bd 0d 1c 51 bd
       -0.008408413 0.0053294934 -0.031459305 -0.051052142
000050 47 83 85 bd f2 18 8a bd 39 d6 ea 3c bb f8 13 3c
       -0.0651918 -0.06743039 0.028666602 0.00903147
000060 de 75 8e bd c2 fe 64 bd d5 72 44 bd 20 02 24 3c
       -0.06956075 -0.05590702 -0.047961075 0.010010272
000070 29 88 07 be 65 83 97 bd 93 a6 8b bd 2e dd 0d bd
       -0.13235535 -0.073981084 -0.06818881 -0.03463476
000080 e2 29 f8 bd 4a d0 d6 bd 8e a0 c7 bd cd 07 c3 bc
       -0.121173635 -0.10488947 -0.0974742 -0.02380743
000090 dc 15 29 b9 ca c2 95 bc fc 5f 01 be 36 4e fd 3b
       -0.00016125239 -0.01828136 -0.12634271 0.0077302707
0000a0 62 d1 3d bc 7c 4d bb bd 01 06 54 bd c7 cc 8a bd
       -0.011585565 -0.09145638 -0.05176354 -0.067773394
0000b0 62 a0 c5 bb 8f a3 e5 bd 37 97 08 3c 1f 25 e4 bc
       -0.006031082 -0.11212837 0.008336834 -0.027849732
0000c0 6e 66 3a bd 5c 8e 0e be 0f a2 b6 bd 9e 11 4a 3d
       -0.04550784 -0.13921493 -0.08917629 0.049333207
0000d0 1b 0c 88 3d 94 80 bb bd 95 63 f9 bd 7b bd 90 bd
       0.06642934 -0.09155384 -0.12177197 -0.070673905
0000e0 23 ef e1 bd af 2d 80 b7 08 e5 fd bd 28 c1 e8 bc
       -0.1103194 -1.5280062e-05 -0.123972 -0.028412417
0000f0 e8 3d ad bc 23 d8 cb bb 07 f2 bf bd 8c 85 29 bd
       -0.021147683 -0.006220834 -0.09372335 -0.041387126

shared_layers.1.running_mean f4 [64]
000000 02 e7 94 3c aa 13 5f ba 65 82 4b 3c 98 3d 0a bc
       0.01817656 -0.0008509705 0.012421225 -0.008437537
000010 13 cd ca 3c fa 05 45 3c e2 77 e4 3b d9 62 a9 bb
       0.02475599 0.012025351 0.006972299 -0.0051692543
000020 3f 1c ee 3b 58 39 67 3c 00 bb 68 3c 87 e2 01 3c
       0.007266551 0.014112793 0.0142047405 0.0079275435
000030 ca 71 1b 3c e9 42 09 3b c8 96 9a bc 1b 69 1e 3c
       0.009487579 0.0020944423 -0.018870726 0.009668614
000040 8d 88 2c 3a 5c 11 ae 3c 82 4c 52 bc 66 fa d8 bb
       0.0006581627 0.021248512 -0.012835624 -0.0066216467
000050 41 fa cd 3c 3b 7c 46 bc 53 f8 39 3c e2 df 5e 3b
       0.025143744 -0.01211458 0.011350709 0.0034007956
000060 e0 57 ab 3b f5 88 e7 3b 13 24 57 3c d9 02 e0 3b
       0.0052289814 0.007065887 0.013131159 0.006836277
000070 2e 8a 23 ba 54 a9 ae 3b a7 0b 9c 3b 74 28 05 bc
       -0.0006238547 0.005330244 0.0047621313 -0.008127321
000080 0b 74 45 bc 84 a3 b6 3b ed ab 96 bc 31 2a cc 3b
       -0.012051593 0.005573692 -0.018392527 0.0062306155
000090 f2 e4 3f 3c b4 7f c2 3b b4 ac 6e ba f1 30 27 bc
       0.0117123 0.0059356336 -0.0009104714 -0.01020454
0000a0 f8 1c 08 bb 5a e4 1b bc e4 40 df 3c e2 55 85 bb
       -0.002076922 -0.0095148925 0.027252622 -0.004069076
0000b0 c2 0f 41 3b aa 63 8a 3c a5 33 85 3c 58 bb 72 3c
       0.0029458855 0.016893227 0.016259978 0.014815174
0000c0 9b 7b 18 3d 75 09 a0 bc 8b c0 55 3c 84 1b 42 3c
       0.037227254 -0.01953576 0.013046394 0.011847381
0000d0 3d 52 f9 3c 4e 4e 94 3c 4a 37 9c 3a 24 40 5f bc
       0.030434722 0.018103745 0.0011918333 -0.013626132
0000e0 9c 94 74 bb e5 40 09 bc 86 8c bf bc b9 a9 05 3b
       -0.0037320023 -0.0083772885 -0.023382436 0.0020395352
0000f0 08 80 ba 3c c1 ba 67 3d 1b e2 41 bc 36 2a a5 ba
       0.022766128 0.056574587 -0.011833693 -0.0012601081

shared_layers.1.running_var f4 [64]
000000 a8 d7 3a 3e 37 59 eb 3e b8 f5 ea 3e 90 ad 2a 3f
       0.18246329 0.45966503 0.45890594 0.66671085
000010 05 4d 1a 3f 91 b9 43 3f 45 c4 1a 3f c6 dc f3 3e
       0.6027377 0.76455027 0.60455734 0.47629374
000020 d2 4a cf 3e 5f 68 af 3e d0 83 3e 3f e9 16 d0 3e
       0.4048677 0.34259316 0.7441988 0.4064248
000030 d3 c1 72 3f 17 40 19 3f 0a 7d 21 3f da a2 98 3e
       0.94827 0.5986342 0.6308142 0.29811746
000040 06 73 07 3f 9f e7 57 3f c5 6c dd 3e d4 17 43 3f
       0.52909887 0.843378 0.43247047 0.76208234
000050 58 cb 06 3f 3d 2a b9 3e ae 37 7c 3f 1a 6a 2b 3f
       0.5265403 0.36165038 0.9852246 0.66958773
000060 c8 38 80 3e b2 a6 d2 3e 79 19 7a 3e 03 1d 2b 3e
       0.2504332 0.41142803 0.2442378 0.16710286
000070 c1 c9 52 3e f3 86 ec 3e 72 60 0d 3e ec 77 fd 3e
       0.20584776 0.46196708 0.13806322 0.49505556
000080 dd f5 77 3f 3d 8b bc 3e c9 16 19 3f b8 fb be 3e
       0.9685953 0.3682498 0.5980039 0.3730142
000090 17 90 bd 3e ad 84 e8 3e a9 0d 33 3f ca 2a cf 3e
       0.37023994 0.45413724 0.6994272 0.40462333
0000a0 e4 10 45 3f 6d b6 c9 3e 3e a2 a6 3e 5f dc fe 3e
       0.769789 0.39396992 0.32545656 0.49777505
0000b0 6e 0f 4f 3f 56 19 03 3f a7 d6 30 3f e9 0c 9a 3e
       0.8088292 0.51210535 0.69077533 0.30087975
0000c0 cd 37 01 3f 4a 9f 63 3f 85 d8 ae 3e 87 13 32 3f
       0.5047577 0.8891493 0.34149566 0.69561046
0000d0 00 a7 d2 3e 75 d7 6d 3e 9f 78 9e 3e 92 15 02 3f
       0.41143036 0.23226722 0.30951402 0.50814164
0000e0 d9 36 fd 3d f4 21 7f 3e be 48 8d 3e e6 ab 7d 3e
       0.12363977 0.24915296 0.2759456 0.24772605
0000f0 6b 9d 97 3f 5a dc 3c 40 8c 46 2c 3e 8f ba 02 3f
       1.1844915 2.9509492 0.16823786 0.51065916

shared_layers.4.weight f4 [24, 64]
000000 99 af 78 3d 4d 0f c8 3c 8b f0 91 bd cf a6 ee bd
       0.060714338 0.024421358 -0.07125958 -0.1165291
000010 eb 03 c4 3d bd ef f7 bb 46 33 87 3d 0b 02 55 bd
       0.0957106 -0.007566421 0.066015765 -0.0520039
000020 0c c7 8a 3d c5 6b cd 3c 19 ad 00 be 19 06 58 3d
       0.067762464 0.025075803 -0.12566032 0.05274019
000030 eb 8e f5 ba 00 33 7e 3d fa c1 19 be 73 f9 1f bc
       -0.001873461 0.062060356 -0.15015402 -0.009764063
000040 f1 72 a3 bd 65 95 19 be 9a 1b f3 bd 6c 73 47 3d
       -0.07980908 -0.14998396 -0.11870499 0.04869406
000050 41 af 03 be 63 4e c3 bd 47 b3 dc 3c 4d 5c d0 bc
       -0.12859823 -0.095364355 0.026940955 -0.025434637
000060 80 d3 7f bd 0c 5d 0a be b1 03 74 bd a0 1c f2 3b
       -0.06245756 -0.13512057 -0.059573833 0.0073886663
000070 35 37 ef bc 3d 38 3b bc 1a d5 7e 3d 0a cd d3 3c
       -0.02920113 -0.0114269825 0.06221495 0.025854606
000080 8f f2 b9 bc 4d 5c 28 3d de a4 25 be 2c 31 ac 3d
       -0.022698669 0.04110365 -0.16176173 0.08407816
000090 ce ab 37 3c e6 23 3c 3d bc fb d8 bd 5f 59 25 3d
       0.011210395 0.045932673 -0.105948895 0.040368434
0000a0 a1 e2 a3 3b 2e 53 fd bd 33 50 2f bc da 6b 60 be
       0.0050013815 -0.12369381 -0.010700273 -0.21916142
0000b0 41 e1 e3 3c f3 45 13 be 05 b9 75 3d f3 98 a4 3d
       0.02781737 -0.14382152 0.0599909 0.08036985
0000c0 7d 0c 6a bd 51 78 14 be 68 5c 6f bc 84 74 a4 bc
       -0.057140816 -0.14499022 -0.014609434 -0.02007509
0000d0 8e 24 6d 3d 61 42 14 3d d9 c4 d3 bb 07 c0 12 bd
       0.05789619 0.036196116 -0.006462675 -0.035827663
0000e0 03 3f 21 3d 95 b5 37 3d b9 f9 1f bd 0f 84 2f bd
       0.039366733 0.044850904 -0.039056513 -0.04285055
0000f0 c4 7a 9f bc 53 be 43 bd ab 71 6c bd 9e 46 02 be
       -0.019467719 -0.04778893 -0.05772559 -0.12722251
000100 eb b0 4e 3e 4e fc 9a 3c 88 6e 16 3e b7 97 8a 3c
       0.20184676 0.018919136 0.14690602 0.016918046
000110 17 a9 e3 3c 9b 4e b7 3c 71 1a 07 3d 55 65 32 bd
       0.02779059 0.02237635 0.0329842 -0.04355367
000120 6b 12 95 bc 2d cf fc 3c 41 c9 0c 3d 6e 8a ed 3d
       -0.018197259 0.030860508 0.03437162 0.11598669
000130 ab 9e 79 3c 93 66 7e 3e a7 a1 c2 bc f4 4e d1 bd
       0.015235583 0.24843816 -0.023758722 -0.10220137
000140 45 04 cd bc 28 97 84 bd 42 d3 0e bd 17 29 19 bd
       -0.02502645 -0.06474143 -0.03486944 -0.037392702
000150 54 0e 87 bc c6 f2 79 bd 79 90 c2 3c a4 86 cb bd
       -0.016486324 -0.061022542 0.02375053 -0.0993779
000160 6a 3a f1 3c ef a9 59 3d bc 74 2a 3d 94 01 16 bc
       0.0294468 0.053140577 0.041615233 -0.00915565
000170 87 63 d7 3d e2 e2 ea 3c b0 d2 a3 3d 7c bc 6d bc
       0.1051703 0.02867264 0.0799917 -0.01451027
000180 6c af 0c 3e c4 2f cb bd c4 b0 4a bd 32 0c bd 3d
       0.13738793 -0.0992122 -0.049484983 0.09230842
000190 c3 4f e9 bb c6 b2 83 3d 4e 02 d0 3d 61 33 8a bd
       -0.007120104 0.06430583 0.101566896 -0.06748081
0001a0 a8 d7 a9 bd b5 5e 82 b9 82 dd 95 3e e9 89 94 3c
       -0.08293086 -0.00024866094 0.2927056 0.018132167
0001b0 e5 0c db 3c ee 9d 5a bd 80 2a 96 3d 18 48 02 be
       0.026739547 -0.05337327 0.07332325 -0.12722814
0001c0 17 7b 2e bd e6 8a 42 3c ce 77 f0 bc fe de 82 bd
       -0.042597856 0.011873936 -0.029354002 -0.06390189
0001d0 3b d3 0f 3d aa 87 1f be 5b 85 47 3d 40 9f fa 3b
       0.035113554 -0.15579095 0.048711162 0.0076483786
0001e0 ff 05 91 bd dd 85 8e 3b 70 19 bd bd 3b 7b 31 be
       -0.07081222 0.004349454 -0.092333674 -0.17332165
0001f0 11 67 b1 3c db 2b 9f 3c 62 58 1f bd d5 55 ca bd
       0.021655591 0.019430092 -0.038902648 -0.098796524
000200 46 cd 33 3d 71 fa 82 3d 64 03 b4 bc d4 df 3a bd
       0.043896936 0.06395424 -0.021974273 -0.045623615
000210 a1 58 84 bb 2c 8b d8 3d 35 fd ba 3d 82 06 b8 bd
       -0.0040388857 0.1057342 0.09130327 -0.08985616
000220 4b 76 d8 3c 83 e4 8c 3b 10 ed bc bd de a9 7d bc
       0.026423594 0.0042997017 -0.092249036 -0.015482394
000230 8d c3 02 3e dd 4c 20 3d 59 f8 b5 bd 4e 3b 72 3c
       0.12769909 0.039135803 -0.08885259 0.014784647
000240 59 59 54 3a 54 67 aa 3d 05 6c 23 be 87 68 a8 3c
       0.0008100472 0.083204895 -0.15959175 0.020557655
000250 35 74 aa bd 82 8c 29 bd 43 2c a0 3c 10 93 d3 3d
       -0.08322946 -0.041393764 0.019552356 0.10330784
000260 23 b0 22 bd 2a 1f cf bd c5 e7 8d bd a3 24 bb 3c
       -0.03971876 -0.10113366 -0.06928972 0.022844618
000270 76 20 22 bd 8d d0 ac 3b a6 9f 98 bc 26 9a 2f 3d
       -0.03958174 0.0052738846 -0.018630814 0.042871617
000280 6e 2f 01 bd 37 61 5f 3c 19 ac 4c bd ed 80 d5 3c
       -0.031539373 0.013634018 -0.049968813 0.026062453
000290 ac 91 9a 3d ca e0 ac 3d 45 2e 6b bd ad da 7e 3d
       0.07547316 0.084413126 -0.057417173 0.062220264
0002a0 10 2a c4 3d 06 c7 b7 bd e2 34 cc 3a c1 8c a5 bd
       0.09578335 -0.089735076 0.0015579725 -0.08083487
0002b0 c5 f9 a6 3d a1 5d a2 bd b3 21 3a 3d 04 be 44 3d
       0.081531085 -0.079280145 0.045442294 0.048032776
0002c0 8b ca 96 b9 29 4d e8 bd 18 39 9f bb 49 49 f2 3c
       -0.00028761136 -0.11342842 -0.004859101 0.02957596
0002d0 7c 7c 85 3d 64 13 23 bc 73 c7 9b 3c ad ce 85 bd
       0.06517884 -0.009953354 0.019016003 -0.06533561
0002e0 bf c7 d0 39 7e ce 75 bd 30 ab 1f bd 17 2e d7 bc
       0.00039821674 -0.06001138 -0.038981616 -0.026267095
0002f0 0e f8 2b 3e bd 4e 6a bd 95 2e 05 3c 66 56 63 bd
       0.16793844 -0.057203997 0.008128782 -0.055502318
000300 d0 fa 11 39 dc f5 28 3b ee 02 8e bd 79 50 df bd
       0.00013921713 0.002578131 -0.069341525 -0.10904021
000310 fe 14 c3 3c 6d 8a 66 3b e6 c5 6e bd ed 04 db bd
       0.02381372 0.0035177723 -0.0582942 -0.10694299
000320 21 23 ff bb 8c a4 7f bc 86 ba 07 be 82 e3 f4 3c
       -0.00778617 -0.015603196 -0.13254747 0.02989364
000330 cf ee 8c bd 80 29 9b 3d ae 33 0e be 4d dc 5b bc
       -0.068814866 0.07576275 -0.13886902 -0.013419223
000340 69 c7 01 be 70 38 6f bc 30 ec ed bd 2f 85 48 3d
       -0.12673725 -0.014600858 -0.11617315 0.04895514
000350 0f 04 17 be 60 86 5b bd 71 5b bf 3b 09 28 46 bd
       -0.14747642 -0.053594947 0.005839758 -0.048378024
000360 09 3e 08 39 84 d8 a7 bd 28 5a ff bc 74 30 f7 39
       0.0001299308 -0.08195594 -0.03117092 0.00047147612
000370 33 a1 4b bc 0c 09 de bc 7e 23 a2 3d 39 35 10 3d
       -0.01242857 -0.027103923 0.07916926 0.035207007
000380 fb 01 48 bd f2 98 0c 3d 70 16 09 be 33 98 78 3d
       -0.048830014 0.034325548 -0.13387465 0.060692023
000390 be 3e e0 bc e7 c1 e7 bb 00 d4 d1 bd 6e 54 35 3d
       -0.027373668 -0.0070726755 -0.10245514 0.04426997
0003a0 f0 97 00 bc 6f 10 f7 bd d6 fb 07 bb 65 da 3a be
       -0.007848725 -0.12063681 -0.002074947 -0.18247373
0003b0 11 5e 65 bd fa 89 49 bd 27 76 aa bb 7c f7 b8 bc
       -0.05599791 -0.04920385 -0.005202073 -0.022578947
0003c0 b9 5a 0f bc c4 29 11 be 92 20 0f 3d 74 b5 73 3c
       -0.008749657 -0.14176089 0.03494317 0.014874805
0003d0 60 3d ed bc e4 8e 1f 3d 89 73 1c 3d 25 11 86 bd
       -0.02895993 0.03895463 0.03819612 -0.06546239
0003e0 e8 05 cc 3b 62 01 8e 3c cd e1 4a bc fe 98 95 bc
       0.00622629 0.017334644 -0.012382937 -0.018261429
0003f0 fc 61 28 bd 94 5f 80 bc 59 1e 41 bd e4 e3 46 be
       -0.04110907 -0.015670575 -0.047148082 -0.19422871

shared_layers.4.bias f4 [24]
000000 35 dc b4 39 83 ba ec b9 1a ee b5 39 34 89 e3 3a
       0.00034496342 -0.0004515239 0.0003470041 0.0017359615
000010 48 b0 13 3b 53 ac 3e 3a 83 71 3a bb 0c 2c 25 ba
       0.0022535492 0.0007273603 -0.0028449006 -0.0006300814
000020 91 7f fb 3a 97 10 a6 39 bd 73 f9 b8 ec 28 08 3b
       0.0019187798 0.00031674348 -0.00011894803 0.0020776344
000030 f7 3b da 3a e2 6f b9 b9 a2 dd 1f ba 69 e3 e3 39
       0.0016649951 -0.0003536931 -0.00060983945 0.00043466248
000040 fc 5c ad b9 88 92 71 3a f8 51 17 3b 4f 52 20 3a
       -0.0003306641 0.0009215255 0.0023089629 0.00061157806
000050 e6 61 95 b8 17 9f 91 3b 61 6b 3a 3b 4a 71 f9 ba
       -7.123109e-05 0.004444014 0.002844535 -0.0019030955

shared_layers.5.weight f4 [24]
000000 05 f2 25 3f b6 8b 03 3f 7b 32 22 3f a4 88 36 3f
       0.6482242 0.51385057 0.6335828 0.7130225
000010 37 e9 de 3e 6b 39 f7 3e 8c 83 11 3f 58 cd 5b 3f
       0.43537304 0.48285994 0.5684135 0.85860205
000020 82 00 da 3e bb 1a f9 3e 6e 9a d4 3e de 56 10 3f
       0.42578512 0.48653206 0.4152407 0.5638255
000030 e7 5f 27 3f a3 99 04 3f 49 ad ef 3e 37 a5 34 3f
       0.6538071 0.5179693 0.46811894 0.705646
000040 00 c6 b6 3e e3 be 17 3f 9f 86 0a 3f ef 94 c9 3e
       0.35697937 0.59275645 0.54111665 0.3937144
000050 22 5a 11 3f 58 0e f3 3e 71 55 f9 3e bd aa b3 3e
       0.56778157 0.4747188 0.48698 0.350912

shared_layers.5.bias f4 [24]
000000 f1 f0 4c 3f da a2 11 3d 9c 13 5e 3f 19 47 32 3f
       0.8005515 0.035555698 0.8674867 0.69639736
000010 39 62 20 3e 85 34 44 3f 4e ad 32 3f 51 60 65 3f
       0.15662469 0.7664264 0.6979569 0.8960009
000020 2b 9e 0d 3f 98 d0 3c 3f 15 0c c5 3d 94 43 63 3f
       0.5531947 0.7375579 0.09621445 0.8877499
000030 1e 14 65 3f 58 20 33 bd 6c 35 4a 3f 49 82 1b 3f
       0.8948382 -0.043732017 0.78987765 0.60745674
000040 80 da 29 3e 6b 44 4a 3f 27 fb ed bd 02 8e 1f 3f
       0.16587257 0.7901065 -0.11620169 0.6232606
000050 da b4 3f 3f 75 6f cf bd 9d 42 ac bd 6a a6 09 3f
       0.7488533 -0.101286806 -0.08411143 0.5376955

shared_layers.5.running_mean f4 [24]
000000 26 8e 2f bc 36 6b d8 3a 6b 74 80 3d 7e 8c 41 bd
       -0.010715043 0.0016511444 0.06272205 -0.047253124
000010 65 77 d4 bb 82 34 ef 3d 0a 72 07 bd 84 a1 83 bc
       -0.0064839595 0.11679937 -0.03306774 -0.016068228
000020 f4 04 82 bc 78 ff c8 3d b1 10 22 bd 67 68 05 3e
       -0.015871502 0.09814352 -0.0395667 0.13028108
000030 2e 69 8f 3d 18 e0 3e bc 60 ab ef 3d dd 03 18 bd
       0.07002483 -0.011650108 0.11702609 -0.03711306
000040 44 ca 69 b9 fc b5 c8 bc 2c be 5b bd 7e 82 ea 3d
       -0.00022295961 -0.02450084 -0.05364816 0.11450671
000050 c7 90 13 bd 12 eb a7 bd 41 41 9e bd 2c 22 96 3d
       -0.036026742 -0.08199133 -0.0772729 0.073307365

shared_layers.5.running_var f4 [24]
000000 06 60 81 3c f1 00 b0 3b 7f 34 4f 3c 4f b7 39 3c
       0.015792858 0.005371206 0.012646793 0.011335208
000010 ec dd d9 3b 4e 28 aa 3c 10 9d 3b 3c f3 99 85 3c
       0.0066487696 0.020771172 0.011451021 0.01630876
000020 ae ac 2e 3c 66 90 77 3c 8f 8f ee 3b d5 4f a8 3c
       0.010661287 0.015110111 0.007280297 0.02054588
000030 a6 30 68 3c d7 1c 44 3c 31 f4 8f 3c 97 89 32 3c
       0.014171755 0.011969767 0.017572494 0.010897062
000040 8b 8a 37 3b 52 42 5e 3c f5 89 35 3c a1 35 82 3c
       0.0028006162 0.013565617 0.011080255 0.015894713
000050 54 f1 66 3c 60 a5 27 3c 81 d6 15 3c e7 bc 2a 3c
       0.014095623 0.0102323 0.00914538 0.010421014

algorithm_heads.0.weight f4 [1, 24]
000000 b7 c6 55 be fd af 3e be ae 7f 61 be 28 0b 70 be
       -0.20876585 -0.18621822 -0.22021362 -0.23441756
000010 bc d8 66 be 17 1e 63 be 2e ba 57 be f8 70 40 be
       -0.22543615 -0.22179447 -0.21067116 -0.18793094
000020 70 d8 29 be 3d 9b 57 be 86 19 f0 3d 84 12 69 be
       -0.1658647 -0.21055312 0.11723618 -0.2276097
000030 f1 9c 5c be 09 6e 1b be 43 af 89 be fa 73 39 be
       -0.21544243 -0.15178694 -0.26891527 -0.18110648
000040 92 41 b5 be 52 80 4e be 03 0b 2c be 19 09 69 be
       -0.3540159 -0.20166138 -0.16801076 -0.22757377
000050 2f 2c 5d be f9 d6 e9 3e 5b 34 52 3e 75 8c 6c be
       -0.21598886 0.45671824 0.20527785 -0.23100455

algorithm_heads.1.weight f4 [1, 24]
000000 2b c2 d8 bd 25 a8 60 be f7 1b f8 bd 96 63 05 be
       -0.105839096 -0.21939142 -0.12114709 -0.1302627
000010 29 a3 5c be c8 d9 f9 bd a4 5b d3 bd e6 61 c3 bd
       -0.21546616 -0.121997416 -0.103202134 -0.09540157
000020 15 78 83 bd 81 71 d7 bd f1 64 0e 3e 23 b7 ec bd
       -0.06419388 -0.10519696 0.13905694 -0.11558368
000030 38 00 ea bd 0f 03 1b be 94 96 1c be 64 ec b1 bd
       -0.11425823 -0.15137886 -0.15291816 -0.08687666
000040 e2 97 77 be 2d f2 d1 bd e5 9d ca bd 9f 12 03 be
       -0.24179032 -0.102512695 -0.09893397 -0.12800072
000050 e7 84 e9 bd a7 d3 b9 3e d7 51 db 3d 11 5c 3e be
       -0.11402302 0.3629429 0.10708969 -0.18589808

algorithm_heads.2.weight f4 [1, 24]
000000 61 d8 1a bf ad 9e fe bd 1c c6 2a bf b4 8f 1f bf
       -0.6048642 -0.12432609 -0.6670854 -0.6232865
000010 64 18 58 bd 3d 0c 22 bf 6b 7c 20 bf e0 55 1e bf
       -0.052757636 -0.63299924 -0.62689847 -0.61849785
000020 05 15 01 bf ee dc 1e bf 34 95 48 bd ee 05 44 bf
       -0.504227 -0.6205586 -0.048970416 -0.7657155
000030 13 43 36 bf 21 6d 7f be f3 79 47 bf aa 9d 1d bf
       -0.711961 -0.24943973 -0.77920455 -0.615687
000040 45 4b 00 be f8 7e 1b bf 08 5f 4a be 43 cd 25 bf
       -0.12528713 -0.60740614 -0.19762814 -0.6476633
000050 cf 50 29 bf f7 0e 6c 3e 7c 82 9c 3e ed db f1 be
       -0.6613893 0.23052584 0.30568302 -0.47238103

algorithm_heads.3.weight f4 [1, 24]
000000 aa 83 88 3e b9 3b fd bc ca c7 88 3e 7a a5 87 3e
       0.26662952 -0.030912267 0.26714927 0.26493436
000010 48 25 3d 3e 28 d1 5a 3e 07 cf 8d 3e 9f 0c 88 3e
       0.18471253 0.2136885 0.27697012 0.2657213
000020 e5 1c 34 3e c4 d4 8b 3e 5c e6 43 3e 80 b6 9c 3e
       0.17589147 0.27310765 0.19130844 0.30607986
000030 1d 45 86 3e 69 eb 68 3e dd f4 81 3e 7e f7 86 3e
       0.26224604 0.22746052 0.25382128 0.26360697
000040 d8 51 1f 3e c3 38 93 3e f7 9f 9a 3e ef 9a 81 3e
       0.15558565 0.28754243 0.30200168 0.25313517
000050 c3 e3 88 3e cb b1 25 bb 5c dd 4a be 8d 85 66 3e
       0.26736268 -0.0025282975 -0.19811004 0.22511883

algorithm_heads.4.weight f4 [1, 24]
000000 1d 0d ba be 37 32 47 bd 5b 43 de be 30 81 c8 be
       -0.3633813 -0.048631873 -0.43410763 -0.39161062
000010 10 86 d3 bc b7 ef cb be 3b d7 b2 be 89 30 bd be
       -0.025820762 -0.39831325 -0.34929833 -0.36951092
000020 00 5d 90 be 71 12 c7 be bc 71 92 bd d3 d1 ec be
       -0.28195953 -0.38881257 -0.07150599 -0.46253833
000030 5d d0 d7 be 0f c2 cf 3e 7d a5 f0 be 29 25 b7 be
       -0.42151156 0.40577742 -0.47001258 -0.35770538
000040 7b 14 0f bd 90 af c8 be a5 76 ef 3e 39 b7 b8 be
       -0.03493164 -0.39196444 0.46770206 -0.36077288
000050 85 94 d4 be cb 06 01 be 37 00 81 be e1 5a 87 bd
       -0.4151956 -0.12600248 -0.25195476 -0.06609131

algorithm_heads.5.weight f4 [1, 24]
000000 37 8f 02 3f e1 0d 56 3e 30 3a 1c 3f 3b 07 0f 3f
       0.5099978 0.20903732 0.6102629 0.5587041
000010 e0 c4 92 3e 3c 3a 01 3f ed 06 0e 3f 70 f9 13 3f
       0.2866583 0.50479484 0.5547932 0.57802486
000020 5c 81 01 3f 53 23 1f 3f 41 2d 4c 3e ea 5d 32 3f
       0.5058801 0.62163275 0.19939138 0.6967455
000030 0e ec 0e 3f cf 65 1c be e2 c7 2b 3f 03 0c 0e 3f
       0.5582894 -0.15273212 0.6710187 0.5548708
000040 13 b4 a8 3d 20 0f 22 3f 5b 78 2b be 0b b1 10 3f
       0.082374714 0.6330433 -0.1674513 0.56520146
000050 c5 22 1f 3f dd d1 4a be 1f 25 60 bc 48 1e 9f 3e
       0.6216243 -0.19806619 -0.013680725 0.3107779

algorithm_heads.6.weight f4 [1, 24]
000000 60 6b e7 3c 72 57 39 3e c3 32 d7 3c 97 34 d3 3c
       0.028249443 0.18099764 0.026269322 0.025781913
000010 31 c8 59 3e bc 96 80 bc c7 55 10 3d 64 2c 25 3d
       0.21267773 -0.015696876 0.035238054 0.040325537
000020 0b c3 02 3c 83 e6 b3 3c 75 79 b1 3d 9c 6a 19 3d
       0.007981072 0.021960502 0.08665744 0.037455186
000030 48 07 e3 3c 1f 6f d3 bc 1c f3 79 bc 3e a7 0c 3d
       0.027713433 -0.025809823 -0.015255716 0.034339182
000040 70 be c6 bb b6 67 1e 3d 7e 6a 4c bd b2 da c7 bc
       -0.0060651824 0.038673125 -0.049906246 -0.024396274
000050 58 39 09 3d df b2 65 be 6c e1 2a 3e 38 44 1d bd
       0.033501953 -0.22431515 0.16687554 -0.038395137

algorithm_heads.7.weight f4 [1, 24]
000000 89 0b d1 3e c4 96 2e bc a6 e3 df 3e 9e 7d d5 3e
       0.40829113 -0.0106560625 0.4372837 0.416974
000010 00 c3 03 3d 62 03 c4 3e e0 83 e1 3e da a5 d9 3e
       0.03216839 0.3828383 0.44045925 0.42509347
000020 c5 78 cf 3e 6b ed e1 3e a5 20 db bd 26 16 00 3f
       0.40521827 0.44126448 -0.10699586 0.50033796
000030 4d 29 d5 3e bd a4 2f 3e 9c e3 ea 3e fe e0 d1 3e
       0.41633072 0.17152686 0.45876777 0.40991968
000040 3e a6 b4 3d fc 20 ed 3e d1 75 e0 3d a9 57 ec 3e
       0.08820771 0.46314228 0.10959972 0.4616063
000050 0d 56 dc 3e 3c 69 84 be 14 1c 82 be 43 3e d1 3e
       0.43034402 -0.25861537 -0.25412047 0.40867814

algorithm_heads.8.weight f4 [1, 24]
000000 54 a7 83 3e a3 08 2f be 3a 9a 82 3e 90 de 83 3e
       0.257136 -0.17093138 0.2550829 0.2575574
000010 f4 2d 8e bd 1f 1c 50 3e 6c 82 89 3e 2a 17 85 3e
       -0.069423586 0.20323227 0.26857316 0.25994235
000020 37 8c 34 3e 5b 14 87 3e 8f 22 3f be 0d 85 95 3e
       0.17631613 0.26382717 -0.18665527 0.29203072
000030 91 4e 80 3e ad 74 30 3e cb 0f 7e 3e aa b3 82 3e
       0.2505994 0.17232008 0.24810712 0.25527698
000040 0a 7b 53 3e 4e d9 8e 3e f4 bf 20 3e f0 1a 7b 3e
       0.20652404 0.27900165 0.15698224 0.24521995
000050 73 f8 83 3e e9 91 4f be 35 43 bb be e3 d5 61 3e
       0.2577549 -0.20270504 -0.36574712 0.22054248

algorithm_heads.9.weight f4 [1, 24]
000000 5c c7 ef be ea 00 89 3e 35 85 05 bf 60 0d f0 be
       -0.46831787 0.2675851 -0.5215638 -0.46885204
000010 d7 d4 f5 bd f0 01 f3 be 43 b3 e1 be e7 8d f0 be
       -0.120034866 -0.47462416 -0.44082078 -0.46983263
000020 88 ca 95 be 69 ed f0 be af ce ab be 00 ce 0f bf
       -0.29256082 -0.4705613 -0.33556125 -0.56173706
000030 23 36 05 bf 79 df 9f be 21 2d 0b bf 92 ae e3 be
       -0.5203573 -0.31225184 -0.54365736 -0.44469124
000040 90 7b b9 3c db 27 f0 be aa c9 dc be 35 65 d0 be
       0.022641927 -0.46905407 -0.43122607 -0.40702215
000050 b6 0f 00 bf 3a e3 bd bd f1 ca 56 3e 56 fa c1 be
       -0.50023973 -0.09271856 0.20975854 -0.37886304
