src/automl/meta_model.pth (torch, 34293 bytes, 17 tensors)

shared_layers.0.weight f4 [64, 53]
00000000: f51f 0c3d cadf ad3c c1dc 523b 495c 18bb
00000010: 0e28 bc3d 21cf eb3d 8812 35be df9b b4bc
00000020: fbd2 1fbe 4d36 27bd e8a4 993e fdc7 cb3e
00000030: 3643 26ba 92f1 763e bef6 743e a92a 933c
00000040: 7aa4 39be e6e2 79bd cc96 8fbd 48bd 513d
00000050: 6698 093e 6d6c 5bbe 78a3 b0b9 744f ed3d
00000060: 8822 413c 34bd 523d 3f45 9cbd ed1d 163d
00000070: 8bd6 b93d 31ae 8abd 1e56 f53d 96f9 22be
00000080: 8b49 96bc ad8d bfbd 3369 e1bd d72b 803e
00000090: 44e3 b2bc 968f 08be 848e 2fbd 668a aa3c
000000a0: 021a 1cbd 953a d1bd f272 e8bd 611e 5b3d
000000b0: 3e7e c0bd 0d67 363e 01e9 c1bc 8277 2f3e
000000c0: 25de 95bd 9ca0 20bd c899 4bbd 0557 a93c
000000d0: 9430 b63d 8a03 503e 3849 803c 84ef cf3d
000000e0: 8720 c13d 8cc6 b3bd db39 94bd 0cdc 3fbd
000000f0: 5986 283d 1702 ccbc 0649 6dbd 63f9 2ebc
00000100: d59f 0abc 8b62 013c 84f9 cf3c 46cf f83c
00000110: bd37 043e cd77 a73c 98dc 18bd 1f49 c7bd
00000120: ad6b be3d bcd7 61bd c3a5 553e c7a0 713d
00000130: 200a bf3c f1af 063e aee8 f93c d77c 02be
00000140: 2a11 d33d a3a7 44bc d1ce 9f3d de6d e43d
00000150: 3088 5d3e 0bfc d53d e35e 65bd daf6 a43d
00000160: 73f7 543e f70c b83d 7c6b 4f3d d754 24bd
00000170: 0134 ee3d dd2f b13d af54 f23d c3ab 993d
00000180: 0f80 d3bd 921b f9bd f3fc 59be acc1 edbd
00000190: 9c6a 86be 1dd5 46bc 3f13 9f3d 30c8 dc3c
000001a0: 9889 d33d 2153 0fbd c28a ffbd 9a9d 1a3d
000001b0: b781 c03d 9394 22bc 4deb 663e d8a4 283e
000001c0: 421e eabd a2eb 6ebd cb92 133d 0205 0bbe
000001d0: 2969 77bd f887 2abc 7f99 523d 2c28 9e3d
000001e0: 6e59 8ebd 8f41 733d 6d21 253c 9e0e 66bd
000001f0: bf26 9b3c 15a4 db3b 08bf 343d 8f29 1f3e
00000200: 5811 d33c 1f04 c83b 1ba2 60bd 9b17 b4bc
00000210: a085 5cbc a6c9 313c d470 2e3d 59f3 07be
00000220: 4854 743d 8842 903c 9df0 e1bd dc7d db3d
00000230: 9ec3 3a3e 1b5a 133e 53fa 003e 75d4 4f3d
00000240: 9d88 3abd ede1 02bd f814 a23d ab90 da3d
00000250: ce65 fd3b 3a3f 9abd 4abb a2bd 9f8e 69be
00000260: 5dc9 393e 7585 c3bc e260 9e3c 18e1 373e
00000270: 61f5 febd 4426 1bb8 1386 0a3e 5872 3ebe
00000280: f662 62bd 87f8 223d c816 f8bb 287e 5a3d
00000290: b927 ea3c 65ad eebd f7a9 46be 59b9 d6bc
000002a0: 9cf8 66be b5e8 f03d bd32 9f3e 493e 843d
000002b0: 187a d43d a436 38bb 7868 c53c 22f7 e73d
000002c0: e999 80bc 6c60 f63c 7bb6 173e 7296 883d
000002d0: 9a3b 223e 66d2 2d3e c243 b4bd b570 f63c
000002e0: ccc4 bd3d 93a6 0cbd 68ef ecbd 2d69 8abd
000002f0: ab6e 07be db35 053e b655 113e c896 48bd
00000300: 86e9 013d d0cf 0cbe 6ed2 813d 7555 99bd
00000310: 7864 edbc a950 483d 8818 7fbd 819d 8a3d
00000320: ac95 ebbd ef7a 233c 4cd1 dcbd 7af7 da3d
00000330: 1e0a 413e 0910 213e 904b 893d f625 e5bb
00000340: b81b 453c 6b5b 923d 0edd e23c 05b5 68bd
00000350: b0be 2c3e 38d6 febd c267 edbc 9122 1d3d
00000360: d545 e33d ef5e c83d e161 afbd a530 f2bb
00000370: 8b6c 303d 7063 9d3d cdb6 943d 73b9 09bd
00000380: de00 8dbd 0c53 1fbd cbf8 ee3d bda5 90bc
00000390: b2e0 343d d5bf 85bc 698e 443d 2204 9abd
000003a0: 35ea 4dbd 0321 41bd 0a26 cb3d 3a83 083d
000003b0: e6f8 953d f01a a9bd 224a 2f3d 4e1e e93d
000003c0: 9782 a43c 64ef aa3d ada1 03be 440e 0dbe
000003d0: e375 1c3e ae0d 03be eeb9 37bd c038 ff3d
000003e0: 40c4 1ebe 326c 9ebd 02bd 6cbd ad14 b1bc
000003f0: 8507 f6bd b820 1cbd 33ac d13d 5bc9 003e
0.034210164 0.021224875 0.0032175037 -0.0023248366 0.09187327 0.11514116 -0.1768285 -0.022046981
-0.15607826 -0.04082327 0.30008626 0.39801016 -0.00063424127 0.2411559 0.2392225 0.017964678
-0.18129149 -0.061007403 -0.07011184 0.051205903 0.13437042 -0.2142808 -0.0003369113 0.1158742
0.011788018 0.05144997 -0.07630395 0.036649633 0.09074124 -0.067715056 0.11979316 -0.15915522
-0.018345615 -0.093531944 -0.11006393 0.25033447 -0.021836884 -0.13336024 -0.042860523 0.020817947
-0.03811074 -0.10216252 -0.11350049 0.05349577 -0.09399079 0.17812748 -0.023670675 0.17135432
-0.07317761 -0.03921567 -0.049707204 0.020671377 0.08895984 0.2031385 0.015659913 0.10153106
0.09430032 -0.08778104 -0.072375976 -0.046840712 0.04114375 -0.02490334 -0.05793097 -0.010679576
-0.0084609585 0.00789703 0.025387533 0.030372273 0.12911887 0.020442868 -0.03731975 -0.097307436
0.09297881 -0.05513738 0.20864014 0.05899122 0.023320258 0.13153054 0.030506458 -0.12742935
0.10306008 -0.012002858 0.07803119 0.11153768 0.21633983 0.10448464 -0.055998694 0.08054896
0.2079752 0.08986848 0.050639614 -0.040119972 0.11631013 0.08651707 0.11832558 0.07503464
-0.103271596 -0.12163462 -0.21287899 -0.116092056 -0.26253211 -0.012135771 0.07767343 0.026950926
0.10328978 -0.034991387 -0.12477638 0.037747957 0.09399741 -0.009923118 0.22550698 0.16469133
-0.114315525 -0.058330186 0.036028665 -0.13576129 -0.060403023 -0.010408394 0.051415917 0.07722506
-0.06950651 0.059388693 0.01007877 -0.056166284 0.018939374 0.0067029097 0.044127494 0.15543197
0.025765106 0.006104007 -0.054842096 -0.021983912 -0.013459593 0.010851299 0.04258807 -0.13276424
0.05965069 0.01760985 -0.110322215 0.10717365 0.18238685 0.14389841 0.12595491 0.050739724
-0.04554044 -0.03195374 0.07914156 0.106721245 0.0077330833 -0.07531591 -0.07945879 -0.22808312
0.1814322 -0.023867348 0.019333307 0.1795696 -0.12449146 -3.6990517e-05 0.13527708 -0.18598306
-0.055270158 0.039787795 -0.007571075 0.05334297 0.028583394 -0.11654166 -0.19400774 -0.026211428
-0.22555774 0.11763135 0.31093398 0.064571925 0.1037485 -0.002810874 0.024097666 0.11326434
-0.01569839 0.030075274 0.14815705 0.0666932 0.15843049 0.16974792 -0.08801986 0.03008304
0.09266052 -0.034338545 -0.115691006 -0.06758342 -0.1322581 0.13008825 0.14192852 -0.04897192
0.031716846 -0.13751149 0.063389644 -0.07487003 -0.028978571 0.04890505 -0.062279254 0.06768323
-0.11503157 0.00997804 -0.10782108 0.10691734 0.18851516 0.15728773 0.067038655 -0.0069930507
0.012030534 0.07146343 0.027693298 -0.05681326 0.16869617 -0.12443203 -0.02898014 0.038363043
0.11097304 0.09783732 -0.08563591 -0.007391053 0.043072265 0.07684982 0.07261429 -0.033624124
-0.06884931 -0.03889756 0.11668547 -0.017657155 0.0441596 -0.016326824 0.047987375 -0.075203195
-0.050272185 -0.047150623 0.09919365 0.033328272 0.07322864 -0.08257091 0.042795308 0.11382733
0.020081801 0.083464414 -0.12854643 -0.13774973 0.15279345 -0.12798187 -0.04485505 0.12461996
-0.15504551 -0.0773548 -0.05779744 -0.021616304 -0.12013153 -0.03811714 0.102379225 0.12576811

shared_layers.0.bias f4 [64]
00000000: b966 a93d 7c4c f8bd 2efc 013d 6ac1 bf3d
00000010: 73f9 06bd 75cd 7c3d 6e26 1cbd da5b 06be
00000020: ecbf 963d 7d49 61bd 0b29 9fbd a20c 02bd
00000030: 461c 963c 78dc 51bd 9840 aa3d acbc 0a3c
00000040: bcaf 18bd 5c78 3c3d 1ca4 44bd c31e 023d
00000050: eac2 323c 4df9 263d 765f 293d b424 903d
00000060: ce68 2abc 851a 203e 7ea2 a4bd 618f 9dbc
00000070: 209f f2bc 7d85 923d e914 7f3d 01e2 a23d
00000080: 3fc8 5fbd 4f92 363d 72c0 bf3d eda0 ecbc
00000090: 3471 063d 2238 2f3d df9b ebbd 06b3 08bd
000000a0: c157 dcbc d23b a53d e11a c63c d735 84bd
000000b0: 3979 a53c 120e 8bbd d6b0 943d 3d9c 663d
000000c0: 7a43 9abd 8a61 c73d 52aa d13c 08f8 04bd
000000d0: f57e 893c 5187 113e 0c64 213d 5a5a a13d
000000e0: 3814 723d 8a19 433d 6011 be3d 211e b63d
000000f0: 7ce1 483d 210c 823d 608a b03b 20d6 f8bb
0.08271546 -0.12123963 0.031734638 0.09363063 -0.032952737 0.061719377 -0.038122587 -0.13120976
0.07360825 -0.055001725 -0.077715 -0.03175033 0.018324029 -0.051235646 0.083131015 0.008467834
-0.03727697 0.04601322 -0.04800807 0.031767618 0.010910729 0.040765096 0.041350804 0.070382506
-0.010400964 0.15635116 -0.080388054 -0.019233407 -0.029616892 0.07154367 0.0622758 0.07953263
-0.05463433 0.044573124 0.09362878 -0.02888533 0.032822803 0.04277814 -0.115043394 -0.033373855
-0.026897313 0.080680504 0.024182739 -0.06455582 0.020199405 -0.06789793 0.07260291 0.056301344
-0.075324014 0.09735401 0.02559391 -0.032463104 0.01678417 0.14211775 0.039402053 0.07878561
0.059101313 0.047631778 0.09280658 0.088924654 0.049043164 0.0634997 0.0053875893 -0.007593885

shared_layers.1.weight f4 [64]
00000000: eb37 e63e 67bc 5b3f de69 153f f6bc f73e
00000010: ab47 103f 90e2 233f 8b4a 813f cfa4 633f
00000020: a013 453f 5721 0c3f c802 323f 9f3a 293f
00000030: 1e5a ed3e 0013 2d3f cec3 793e 722e 113f
00000040: 5e6d 233f 637e ca3e 0b9f 323f 5e45 1b3f
00000050: fdde f43e 1a8e bb3e d298 b23e 159c 173f
00000060: 456b 303f a076 473e ae16 553f 031f 323f
00000070: 7608 143f 79fb db3e 47ea 1d3f f4ff cf3e
00000080: af02 3b3f f273 033f a4a5 9f3e 5e50 3b3f
00000090: ad0f 093f ce4d dd3e 5fb4 4b3f 2bd0 3d3f
000000a0: c301 173f c3dd cf3e 2825 c83e d495 0d3f
000000b0: 7468 2d3f a09f 283f fde8 373f 750f d33e
000000c0: ac54 253f 6700 df3e 43fa 2b3f f316 493f
000000d0: 6b93 373f 5db8 013f 527d ee3e 6acf 913e
000000e0: ce2e 0c3f d00b 253f 0d90 e93e ae40 423f
000000f0: baee 403f da4a e23e 04be 053f a79b 283f
0.44964537 0.85834354 0.58364666 0.48386353 0.56359357 0.6401758 1.0100874 0.8892335
0.7698307 0.5473837 0.69535494 0.66105074 0.46357816 0.67607117 0.243911 0.56711495
0.63838756 0.3954955 0.6977393 0.6065272 0.47826377 0.36631852 0.34882218 0.5922254
0.6891368 0.19478846 0.8323773 0.6957857 0.5782541 0.42965296 0.61685604 0.40624964
0.7305097 0.51348794 0.3118106 0.73169506 0.53539544 0.43223423 0.795721 0.74145764
0.58987063 0.40598878 0.39090848 0.55306745 0.6773751 0.6586857 0.71839887 0.4122273
0.64582324 0.43554994 0.67178744 0.7855064 0.71709317 0.5067194 0.46579987 0.28478557
0.5475892 0.6447115 0.45617715 0.75879943 0.7536427 0.44197732 0.52243066 0.65862507

shared_layers.1.bias f4 [64]
00000000: b0c7 45be b854 63be aefc 98be ebd1 04be
00000010: 2cf7 7bbe 6e58 24be c0bf d0bd 41a1 0cbe
00000020: 5a53 1fbe 7b10 15be 5fc1 60be 1511 5dbe
00000030: a54b 94be 580f 4fbe 4619 d0be 876c 6bbe
00000040: 4398 a9be 4e27 b4be 7551 6fbe 09d1 03be
00000050: 43d3 6ebe 716c 7cbe 27ae a8be 54e9 2fbe
00000060: 2b3a 68be 1969 b7be 8eca 22be be84 37be
00000070: ef16 7cbe 1b09 86be 7ccb 6fbe 7e8c aebe
00000080: 61d3 1abe 0a1d 83be 7e28 76be 3026 82bd
00000090: 2577 7ebe 5e48 3ebe 660e 49be e23a 23be
000000a0: 08c0 70be 8519 88be 37f1 9dbe 350c 73be
000000b0: a61c 9ebe 8971 01be a1e6 1bbe 852a 4dbe
000000c0: 26b7 2abe d8ba 66be 7357 2dbe 920e 5abe
000000d0: a376 15be 991a 66be e330 a2be 24e4 80be
000000e0: 0099 84be b7e3 4cbe 8e88 61be a9db 7ebe
000000f0: ce1d 37be 8918 75be f1b6 0ebe fe54 07be
-0.19314456 -0.22200286 -0.2988028 -0.12970702 -0.24606007 -0.16049358 -0.101928234 -0.13733388
-0.1555914 -0.14557068 -0.21948765 -0.21588548 -0.28963962 -0.20220697 -0.40644282 -0.22990619
-0.3312398 -0.35186237 -0.23370917 -0.1287271 -0.23322777 -0.24650742 -0.32945368 -0.17178851
-0.2267844 -0.3582237 -0.15897581 -0.17921731 -0.24618123 -0.26178822 -0.23417467 -0.34091562
-0.15119697 -0.25608093 -0.24038884 -0.0635494 -0.24850138 -0.18582293 -0.19634399 -0.15940431
-0.23510754 -0.2658197 -0.30848095 -0.23735125 -0.30881232 -0.12640966 -0.15224697 -0.20035751
-0.16671428 -0.22532213 -0.1692789 -0.2129462 -0.14596038 -0.22471084 -0.31677923 -0.25174057
-0.2589798 -0.20008741 -0.22024748 -0.24888481 -0.17882463 -0.2393514 -0.13936974 -0.13216016

shared_layers.4.weight f4 [24, 64]
00000000: 6730 f43a 1cd7 383e f162 1bbe a6d0 dc3d
00000010: 033f 52bd 0519 d63d 2171 cc3e fa9c a93c
00000020: af28 993d e16f 903d 61ce 273d caac 8f3d
00000030: 671d b1bd 85bb f1bc 8c24 2c3d cc31 183e
00000040: ccd6 41be 8665 ee3c 425a aa3c f689 33bd
00000050: 47f4 5c3c 19b6 d23d e1eb 9dbd e5b9 2ebe
00000060: 5981 043d 50c3 d93b 1f23 473e 5b63 db3d
00000070: 2925 27bd d083 6fbd 6f61 8bbe ac1a 06be
00000080: 22cc cd3d c0ee f8bd 179f 193e 1b09 e33d
00000090: bba9 b1bd 7f26 52bd 6e94 173d 4946 cb3d
000000a0: 1ca7 6b3b 8cd7 20bd e44c 613d 50de 97bd
000000b0: 8f3d 933e 803f 323e 288f bb3d 5e32 223d
000000c0: 64e1 58be 10df 773d 1c30 2abc fb35 22bd
000000d0: 3da1 c23c a561 02be b748 d2bb 479f 6bbd
000000e0: e3e3 51bd d260 4c3e 8b99 fabd ea66 153e
000000f0: 4308 82be 8330 1bbe 46c6 153e c65b fb3d
00000100: fa65 d03d d703 c53d 4c00 1ebe c30b d43d
00000110: 307d dd3c 1cc4 493e 2c02 923e 7636 99bd
00000120: fee0 493e d502 9d3d 9f79 133e d866 9e3d
00000130: 5755 dd3d ca35 793c 8751 073e 6ec2 ccbd
00000140: ffa4 cdbd 82b4 1d3d f3b3 afbc f573 c53d
00000150: 6ab4 efbd 1277 bb3d 50b3 9ebd 81f9 54be
00000160: ffd0 b1bd 7f23 053d e34a 733e b908 19bc
00000170: 9376 3c3d 6c2b 46be 8bde ecbd ced1 903c
00000180: bb07 9f3d 8e10 363d 84ba a03d 7215 66bc
00000190: 5e9c 4b3c 6dee 4bbe bac2 143d a8e4 4b3e
000001a0: 30a4 1ebd 5885 4dbd 1f44 f43d 86e8 39bd
000001b0: 43c7 223e b484 923d fd64 743e fb57 823d
000001c0: a773 d8bd e834 d2bc 221c ad3b e4ff 0d3a
000001d0: a36f d83d d13b 8bbd 41b8 4cbd 3609 35bc
000001e0: 216d 04be 632d 123e 6b03 13be c7f2 5e3e
000001f0: bbda 00be 9441 263b f479 183e 04f1 663d
00000200: e7ec a73d 6a1f 69be ed7d 4c3e 82ce 513d
00000210: 35a5 4c3e a65e f03d c77c 05be 9ec2 f03c
00000220: 3306 59be 8f59 2fbe 0bf5 cebd b5fe 33be
00000230: 9d52 273e 5576 b33d 00e3 113d 8f15 eebc
00000240: c5af ce3d 0252 0abe 8b90 40be b26e 75be
00000250: 2ee2 5a3d 7ed4 b5bc 18ad 753d 41ea ce3d
00000260: 5a6f 6abe 5384 f6bd 431e 40be 5b7b e8bd
00000270: ec50 213e 5b40 17bd b7d7 4fbd 9732 b23d
00000280: 5b72 90be 3669 ddbc ae5a 0b3e f0e8 20be
00000290: cf91 c73c fc2f 0a3e 9a35 85bd d56d c6be
000002a0: 7d4b 923d bac0 4cbd 61e7 753d 028f 843d
000002b0: df74 90bd aa5e 04be f510 93bd 8653 063d
000002c0: f812 9cbd 2473 b13d 60f4 dcbd e9e6 a2bd
000002d0: 3974 6abd c28e a13d 77f6 253d d4a8 ccbd
000002e0: 4ee1 9f3d 60c3 df3d 9a4e af3d fc7a 33bd
000002f0: 6c8e ca3d 7e2d 32bd 6b79 763c 2bcf 6cbe
00000300: e295 ab3d f6df 3dbb 05df ce3b 7438 4abd
00000310: 311c f83d 95f6 2d3e 3251 aa3e aee6 2e3d
00000320: b26e 56bd 1d3e 143e a799 433b 4edc 63be
00000330: 13e3 12be 3613 9a3c e24b cdbd 27be d03c
00000340: f5a8 5cbd de59 743e 996f 13be 5d34 08bd
00000350: 2f8c 20be 2c6d 6c3d e4da 3d3e 91ef 42bd
00000360: 5e77 a9be f596 103e 2125 8bbe 6452 82be
00000370: 6c4c 58be a449 7dbc f957 0bbe 4664 533d
00000380: 05bf 0e3c 0aac 4bbd 3eda bf3d 76e8 6e3e
00000390: c7fa 62bd c948 11be 5081 cd3d 83d5 13be
000003a0: 49d6 0e3c 7cdb 00be fc70 8bbd d7b0 5d3d
000003b0: 0784 c5bd 21de dfbd f05b aa3d ff56 a93d
000003c0: 7153 e73c df06 413c a644 f3bd 4e8f 01bd
000003d0: cb9a 96be 258d 083e 5850 e73d ed9a 00bd
000003e0: fa81 75be 9a1d 053e 109f 17be e249 13be
000003f0: 22aa 03bd 306f 883d c58c a03d 3c0a cf3b
0.0018630148 0.18050808 -0.15174462 0.10781984 -0.051329624 0.10453991 0.3993006 0.020704735
0.07478463 0.07052589 0.040968303 0.07015379 -0.08648186 -0.029508362 0.04202704 0.14862746
-0.18929595 0.029101145 0.020794991 -0.04383274 0.013485975 0.102886386 -0.07711006 -0.170631
0.032349918 0.0066455975 0.19446991 0.1071231 -0.040806923 -0.058475316 -0.27222773 -0.13096112
0.10048701 -0.12154913 0.15002094 0.11085721 -0.08674952 -0.051306244 0.037006788 0.09925515
0.003595776 -0.03926806 0.05500497 -0.074154496 0.28757903 0.17407036 0.09158164 0.039598815
-0.2117973 0.060515463 -0.010387447 -0.03960226 0.023758525 -0.12732561 -0.0064173597 -0.057524946
-0.05124272 0.19958809 -0.12236317 0.1459004 -0.25396928 -0.15155225 0.14626417 0.12273364
0.101757005 0.09619873 -0.15429801 0.10353806 0.027037233 0.19703716 0.28517282 -0.07481091
0.19714734 0.07666556 0.14401864 0.0773446 0.10807293 0.015210578 0.13214694 -0.09998022
-0.10041236 0.038502224 -0.021448111 0.09641258 -0.11704333 0.0915357 -0.07749045 -0.20798303
-0.08682441 0.032504555 0.23759036 -0.009340459 0.04601152 -0.19352502 -0.11565884 0.017678168
0.07765146 0.04444938 0.07848075 -0.014043199 0.012427418 -0.19915171 0.03631852 0.19911444
-0.0387308 -0.050175995 0.119270556 -0.045387767 0.15896325 0.07154217 0.23866649 0.06364437
-0.10568934 -0.025659993 0.0052828947 0.0005416854 0.10568168 -0.067985184 -0.049980406 -0.011049559
-0.12932254 0.14275126 -0.14356773 0.217723 -0.12583439 0.0025368677 0.14890271 0.056382194
0.081994824 -0.2276589 0.19969912 0.05122233 0.19984896 0.11736803 -0.1303588 0.029389676
-0.21193771 -0.17124008 -0.10105332 -0.17577632 0.16340108 0.087628044 0.035616875 -0.029063014
0.10092119 -0.13507846 -0.18805139 -0.23968008 0.053438358 -0.02219605 0.05997953 0.10103274
-0.2289404 -0.120369576 -0.18761544 -0.11351653 0.15753525 -0.03692661 -0.05074283 0.087010555
-0.28212246 -0.027027708 0.1360881 -0.15713859 0.02436152 0.13494867 -0.06504364 -0.3875567
0.071433045 -0.049988486 0.060035113 0.06472589 -0.070535414 -0.12926736 -0.07180969 0.032794498
-0.076208055 0.086645395 -0.10788798 -0.07954199 -0.057239745 0.07888557 0.04051825 -0.09993139
0.07806645 0.10925937 0.08559914 -0.04381846 0.09890446 -0.043500416 0.015043597 -0.23125903
0.08378197 -0.0028972602 0.006313207 -0.049370244 0.12114752 0.16988595 0.33265072 0.042700462
-0.05235166 0.1447682 0.0029846223 -0.22252008 -0.14344434 0.018807989 -0.10024239 0.025481297
-0.053872067 0.23862407 -0.1439804 -0.033253063 -0.15678476 0.057721302 0.18540531 -0.04759175
-0.33098882 0.14120086 -0.27176765 -0.25453484 -0.21122903 -0.015459452 -0.13607778 0.0516093
0.008712535 -0.049724616 0.09367798 0.23330864 -0.05541494 -0.14187922 0.1003443 -0.14436917
0.008718082 -0.12583727 -0.068086594 0.054123726 -0.09644323 -0.109310396 0.08318317 0.08268546
0.02823803 0.011781423 -0.11878328 -0.031630807 -0.29414973 0.13335092 0.11294621 -0.03139775
-0.23975363 0.12999573 -0.14806771 -0.14383653 -0.032144673 0.06661832 0.0783935 0.0063183587

shared_layers.4.bias f4 [24]
00000000: 149b 6dbb 019f 6bbc 4622 7e3d 8bf7 73bd
00000010: a025 1d3d e173 1ebd a438 dbbc e9cf 423c
00000020: 75b3 e6bc 5cb7 3e3d 1d00 3b3c ad93 0a3c
00000030: 1c3a a9bb ad04 393d 65a0 333d 7f40 ce3c
00000040: 8cc4 273d a48e a439 6c50 3a3d 8732 8e3c
00000050: 05d4 91bc 3df7 da3c 55b7 693b febe eabb
-0.0036255764 -0.014381171 0.062044404 -0.059562247 0.03836596 -0.03868473 -0.026760407 0.01189039
-0.028161744 0.046561584 0.011413601 0.00845806 -0.005164398 0.045170475 0.043854136 0.025177239
0.040958926 0.00031386793 0.045486853 0.017358078 -0.017801294 0.02672922 0.0035662253 -0.0071638813

shared_layers.5.weight f4 [24]
00000000: 3d0c 753f 3e16 4d3f 033f 433f 05cf 703f
00000010: 1079 4a3f 1aeb 6b3f 7d78 463f ce69 5a3f
00000020: 316b 433f e9d3 4c3f a9e2 593f f40e 583f
00000030: f7b6 613f 9b76 2c3f 1482 2c3f d273 2e3f
00000040: ad55 463f 9b36 423f 60b1 343f 72fc 803f
00000050: b99f 363f 1d00 633f d86a 393f 5563 353f
0.957218 0.80112064 0.76268023 0.94065887 0.79090977 0.9215561 0.775276 0.85317695
0.76335436 0.8001085 0.8511148 0.84397817 0.8816981 0.6736848 0.67385983 0.6814548
0.7747448 0.7586457 0.7058315 1.007704 0.7133747 0.8867205 0.72428656 0.70854694

shared_layers.5.bias f4 [24]
00000000: 34dd 65bd 7d4d 74bd 4303 c8bd a125 03be
00000010: d3f5 70bc ff33 f8bd 2405 fabd a23b 5abd
00000020: ebbf fbbd 7267 c0bd 76fa 1ebb 15c8 10be
00000030: 5b28 f7bc 5588 ecbb d3ec f4bd 5bf2 a2bd
00000040: 8279 b7bd a97b 4ebd 0ec5 abbc afb9 06be
00000050: ec3d d2bd 86aa e1bd ccf1 b3bd cf6b afbd
-0.05611916 -0.05964421 -0.09766247 -0.12807323 -0.014707047 -0.121192925 -0.12208012 -0.053279527
-0.12292465 -0.09394731 -0.0024258173 -0.14138825 -0.03017061 -0.0072184005 -0.11959233 -0.07956382
-0.08958723 -0.0504109 -0.020967986 -0.1315677 -0.10265717 -0.11018853 -0.087863535 -0.08565485

algorithm_heads.0.weight f4 [1, 24]
00000000: e786 693e 9a96 263e 1a37 133e 049b 073f
00000010: 17a4 03be eb8a e33e f005 84be 5c56 76be
00000020: 4002 493e ec15 66be af4b b9be 2063 32be
00000030: 07ee 3d3d 1f35 a4bd 53c7 6f3e 5f8d 673e
00000040: 4adb fcbd bff5 26bd 52ba c13d dd58 a4bd
00000050: e8f9 6f3e d185 a9bd 31cb d83e 91f4 05be
0.22805367 0.16268387 0.14376488 0.5297091 -0.12855564 0.44441923 -0.2578578 -0.24056381
0.19629765 -0.224693 -0.36190554 -0.17420626 0.04636958 -0.080179445 0.2341588 0.22612523
-0.123465136 -0.040761705 0.09459366 -0.08024762 0.23435175 -0.082774766 0.42342523 -0.13081576

algorithm_heads.1.weight f4 [1, 24]
00000000: 1a15 0d3e 7d68 ab3e c558 5abe 2e00 8e3e
00000010: 1851 3abe d512 4fbe de8d 07bd 5363 ecbe
00000020: 81d2 4ebe 295f f53e ee34 6e3e dcd2 a43c
00000030: c864 49bd 4dba 6ebc 0611 a2bd 505a b33e
00000040: c81c 67be 353b c4bd c238 613e 0cce b53e
00000050: 1e4e c23d 4815 83bd 24ea aabe 7666 9f3e
0.13777581 0.33478156 -0.21322925 0.27734512 -0.18194997 -0.20222028 -0.03309428 -0.46169528
-0.20197488 0.47924164 0.23262379 0.020120077 -0.049168378 -0.014570785 -0.07913403 0.3502984
-0.22569573 -0.09581605 0.21994308 0.35508764 0.09487556 -0.064005435 -0.3338176 0.3113286

algorithm_heads.2.weight f4 [1, 24]
00000000: 5ce4 1c3d 9bfd 363d af63 a9be 4884 9bbe
00000010: 8e59 883e 725e 0a3f f12f 70bd 2cc4 cebe
00000020: 0283 46be d06e 70be 9a29 05be 3481 67be
00000030: 59bf 5a3e 3d4c 7fbe 495b 0e3f 9fc1 cbbc
00000040: 6588 b7be bf4b b13e 321c 27bd 3872 02bf
00000050: 1f05 e43e 421d 453d 1b56 d03d 5698 a33c
0.038303718 0.04467545 -0.33083865 -0.3037436 0.26630825 0.5405036 -0.05863947 -0.40384042
-0.19385913 -0.23479772 -0.13004151 -0.22607881 0.21362056 -0.24931426 0.5560804 -0.0248726
-0.35846248 0.34628102 -0.040798374 -0.50955534 0.44535157 0.048123606 0.10172673 0.0199701

algorithm_heads.3.weight f4 [1, 24]
00000000: 44f2 7a3e fd16 bb3e bcbb 283c bcfd bcbe
00000010: 7bb0 fb3e 89d3 00bd 3799 bebe 772d 87bd
00000020: 578c 96bc a381 7abd 3f2d 1ebd 5359 fabc
00000030: f207 a73e 8ddd 2fbe 595f 073e 319d 94be
00000040: 957d 4fbd 0626 ef3e 744f 54bd dfdf 4ebc
00000050: 4d0c dcbe 36a4 3ebe 8e1e 38bd 5c50 973e
0.2450648 0.36540976 0.010298666 -0.36912334 0.4915808 -0.031451736 -0.3722627 -0.066004686
-0.018377466 -0.061158787 -0.03861737 -0.030560171 0.3262325 -0.17174359 0.13219966 -0.29026178
-0.050656874 0.46708697 -0.051833585 -0.012626617 -0.42978135 -0.18617329 -0.044951014 0.29553497

algorithm_heads.4.weight f4 [1, 24]
00000000: 9b09 593d 12d3 983e b67b 423d 6c44 98bd
00000010: 502d c13e b75c 263e d009 a7be f065 afbc
00000020: 30f5 5f3e 08e1 3c3c 54ad 7b3e 8fa9 283d
00000030: 32db 423e fe3e c3bc e1b3 55be 94d7 3ebe
00000040: 4320 8fbd 77da cb3e 4e23 dfbd a178 c6be
00000050: 266d e1be 982c 91be f9c7 f13d a2f8 a03e
0.052987676 0.29848534 0.04748126 -0.074349254 0.37729883 0.16246305 -0.32624674 -0.021410912
0.21870875 0.011528261 0.24577838 0.04117733 0.19028929 -0.023833748 -0.208694 -0.18636924
-0.06988575 0.39815113 -0.10895406 -0.38763908 -0.44028586 -0.28354335 0.1180572 0.31439692

algorithm_heads.5.weight f4 [1, 24]
00000000: e2ff b4be 2b77 3cbe be7a 073f bcdf 21bf
00000010: 9362 b7be e70c 95be 1a47 ce3e a4f5 7f3e
00000020: c820 40be b0a3 363e 0e65 ee3e 1c41 29be
00000030: c655 8fbe 867f 9b3e d6c0 513e a544 023e
00000040: d843 af3e d874 95be 956a 05bd 0859 46bc
00000050: 2332 98bd cb92 7a3e e5c6 d1be 69a2 b9bd
-0.35351473 -0.18404834 0.52921665 -0.63232017 -0.35817394 -0.29111406 0.4028862 0.24996048
-0.18762505 0.1783588 0.46561474 -0.16528744 -0.27995127 0.3037073 0.20483717 0.12721498
0.34231448 -0.29190707 -0.032572348 -0.012106188 -0.07431438 0.2447006 -0.40972057 -0.090641804

algorithm_heads.6.weight f4 [1, 24]
00000000: 3c81 793d 6bb9 033e 0c7f 17bf 9641 103f
00000010: 4576 52be 2e82 9f3e 612e ee3e 61bb 1abf
00000020: 67bc 0d3b 93dd fbbe 6f5f 8abe a2e8 3fbf
00000030: 8a41 6ebd 4af5 1dbe 5d22 22be 83ff 053e
00000040: 187f 06bf fb31 5abd be1d 6ebd 20f3 2bbf
00000050: 6a23 563e 9ae1 703d 19db 24be 08ec a9be
0.060914263 0.128637 -0.59178233 0.56350076 -0.20552929 0.31154007 0.4651976 -0.6044217
0.002162719 -0.49192485 -0.27025935 -0.74964345 -0.05816797 -0.15425602 -0.15833421 0.13085751
-0.5253768 -0.05327032 -0.058133833 -0.67167854 0.20911947 0.0588089 -0.16099204 -0.3318789

algorithm_heads.7.weight f4 [1, 24]
00000000: 6053 a7be 2184 2bbe 0ae7 a33e 84dc d4bd
00000010: 59b9 6cbe c22c 2abf 0a8e 09be d345 c13e
00000020: 1e73 f7be c82c 8bbd af68 bf3e ddf2 9bbd
00000030: 9410 ccbe 94d3 c73e e5a6 213e 478b 353e
00000040: 37ad 673e 639f 81be 9e12 76bd 4f4f 7ebe
00000050: 8c43 a8bd 45eb be3e 3b68 35be ae05 3bbe
-0.32680798 -0.16749622 0.32012206 -0.103936225 -0.2311758 -0.66474545 -0.1343309 0.37748584
-0.48330015 -0.06795651 0.37384555 -0.07614682 -0.39856398 0.3902861 0.15786321 0.17728911
0.2262467 -0.25316915 -0.06007635 -0.24834941 -0.082160085 0.3728887 -0.17715542 -0.18263885

algorithm_heads.8.weight f4 [1, 24]
00000000: 379d 0fbf 640c 03bf 9069 db3d d933 85bd
00000010: df7d babe f9be 383d 6787 783e a3f6 7c3d
00000020: 9bf6 de3e 82c5 93bd 6614 873e 894a db3e
00000030: 14e9 a2be 5f05 febd 9346 b5be 4bbc 16be
00000040: 8570 0fbe 5df3 84be df32 b0be 34d5 fa3e
00000050: cc1e ce3d 623d 14bf 293c 083e cbdb 103e
-0.56099266 -0.5119078 0.10713494 -0.0650403 -0.36424157 0.045104 0.24270402 0.06175865
0.4354752 -0.07215406 0.2638275 0.42830303 -0.3181845 -0.12403368 -0.35405406 -0.14720266
-0.14007767 -0.2596692 -0.34413812 0.48990786 0.10064468 -0.5790616 0.133042 0.14146344
